models/neural_networks/regression/2024-08-15_16-16-55/model.pt (torch, 467252 bytes, 5 tensors)

model.0.weight f4 [128, 777]
0	0x3c8ef2b4	0.017449714
1	0x3e02014a	0.12695804
2	0xbe3bf0a9	-0.18353523
3	0x3d6e715b	0.058213573
4	0x3e273cac	0.16331738
5	0x3e162e18	0.14666021
6	0xbd350881	-0.044197563
7	0xbdc19775	-0.09452716
8	0x3d965f7d	0.07342432
9	0x3df45d43	0.11931851
10	0x3e360adc	0.1777758
11	0x3d9ef8a7	0.077622704
12	0x3d91f957	0.07127636
13	0x3d39dcd0	0.0453766
14	0xbcd54078	-0.026031718
15	0x3dc27007	0.09494024
16	0x3b80e3b7	0.0039333957
17	0xbd0d6d87	-0.03452828
18	0x3cf8ad5d	0.030356104
19	0x3d0ece80	0.034864902
20	0xbc8bc671	-0.017062398
21	0x3d94a26a	0.072575405
22	0x3cbefb8c	0.023313306
23	0x3da5b013	0.08090224
24	0x3d89fa81	0.06737233
25	0xbda89865	-0.08232192
26	0xb998e300	-0.00029160827
27	0x3cd88dc4	0.026434787
28	0x3dcaa131	0.09894026
29	0xbd1c4022	-0.0381471
30	0x3d569f20	0.052397847
31	0x3d259492	0.04042489
32	0x3de3c848	0.11122185
33	0xbc898d06	-0.016790878
34	0xbd98cd81	-0.07461072
35	0xbd34a5f7	-0.04410359
36	0xbd969420	-0.07352471
37	0xbd6d1ffe	-0.05789184
38	0x3b7caff8	0.0038557034
39	0x3d992943	0.07478573
40	0xbd03248a	-0.03201727
41	0x3b3e1cb8	0.0029008817
42	0x3ddb761e	0.107158884
43	0x3d576b8e	0.052592807
44	0xbb421e77	-0.002962021
45	0x3d081541	0.033223394
46	0xbc477ad4	-0.012175281
47	0xbd93d96b	-0.072192036
48	0xbce3520d	-0.027749086
49	0x3d00c482	0.031437404
50	0x3db73a43	0.089466594
51	0x3d7b9f21	0.061431054
52	0xbcb6e3e2	-0.02232546
53	0x3da6d67c	0.081463784
54	0x3d84a27a	0.064763024
55	0x3cd43716	0.025905173
56	0x3d560f51	0.0522607
57	0xbd8eb1f2	-0.06967534
58	0xbd8ebca3	-0.06969573
59	0x3d880f6d	0.06643567
60	0x3d4a46ce	0.04938393
61	0xbd161d77	-0.036649194
62	0x3b83e560	0.0040251464
63	0xbd4c6001	-0.049896244
64	0xbd927e48	-0.071529925
65	0x3cf339cc	0.029690646
66	0x3d82fe07	0.06396108
67	0xbd8c259d	-0.06843112
68	0x3da32424	0.07965878
69	0x3ce5dfd0	0.028060824
70	0x3d1c96d6	0.038229786
71	0x3d40ba98	0.04705295
72	0x3cf6eba7	0.030141665
73	0xbced57e8	-0.028972581
74	0x3de6951d	0.1125891
75	0x3c4b27dd	0.012399641
76	0x3db30029	0.08740265
77	0x3afb5840	0.0019176081
78	0x3d7bd6ae	0.06148403
79	0xbd32b173	-0.04362626
80	0x3d8b3d4b	0.067988
81	0x3ddbcb99	0.107321925
82	0x3da829e7	0.08211117
83	0x3d0d6de8	0.034528643
84	0x3da6c2ab	0.08142599
85	0x3d298f53	0.04139645
86	0x3dd1d68b	0.10245999
87	0x3dbd062a	0.09229691
88	0x3d8706ec	0.06593117
89	0x3dd872b9	0.105687566
90	0x3dc38e0c	0.09548578
91	0x3d1135a1	0.035451535
92	0x3d68848e	0.05676704
93	0x3de3a3b0	0.11115205
94	0x3da9fbbb	0.08299967
95	0x3dbfc888	0.0936442
96	0xbd915928	-0.07097083
97	0x3d9f0ba3	0.077658914
98	0xbcba30d7	-0.022728367
99	0x3cf45617	0.029826207
100	0x3d665df0	0.05624193
101	0x3cd0dd11	0.025496038
102	0xbc4097da	-0.011754954
103	0x3d977d63	0.073969625
104	0x3cb27c4d	0.021787787
105	0xbc7885a8	-0.015168585
106	0x3c3aaf50	0.011394337
107	0x3cf47fb1	0.029846044
108	0xbd801364	-0.062536985
109	0xbd538a08	-0.05164531
110	0xbc90dc71	-0.01768324
111	0x3d74401e	0.05963146
112	0xbda5c4c3	-0.0809417
113	0x3c833149	0.016014712
114	0x3c8f531e	0.017495688
115	0xbce13c9a	-0.027494717
116	0xbd83c150	-0.06433356
117	0x3dcaaa91	0.09895814
118	0x3cc1dea8	0.023665741
119	0x3dc0078b	0.09376439
120	0x3d2b0a72	0.04175801
121	0x3da0a32f	0.07843625
122	0xbda3abfd	-0.079917885
123	0x3d975b4d	0.07390461
124	0xbaa5bbc0	-0.0012644455
125	0xbd860669	-0.065441914
126	0x3db4a339	0.08820195
127	0xbcabc170	-0.020966262
128	0xbd6c1212	-0.05763442
129	0xbcf666fe	-0.030078407
130	0x3ce4dfa9	0.02793868
131	0x3d0c90a4	0.034317628
132	0xbda966e2	-0.082715765
133	0xbd9730ff	-0.07382392
134	0x3cbba3a9	0.022905188
135	0x3ddff762	0.109358564
136	0x3dc980cd	0.0983902
137	0x3de958fc	0.113939255
138	0xbd62fc55	-0.055416424
139	0xbd7ec928	-0.062203556
140	0x3d86011f	0.065431826
141	0xbd45a312	-0.04825122
142	0x3d1d23c2	0.03836418
143	0x3db32f90	0.08749306
144	0x3cd143f3	0.025545096
145	0x3c83d8c5	0.016094575
146	0x3d799cf9	0.060940716
147	0x3c8e5de4	0.017378755
148	0x3dd9878d	0.106215574
149	0xb72450c0	-9.793963e-06
150	0x3ddfed48	0.1093393
151	0xbd18453b	-0.0371754
152	0x3d16a528	0.0367786
153	0xbd66cec2	-0.056349523
154	0x3d4f1721	0.050559167
155	0xbc750d60	-0.014956802
156	0x3d4e3e74	0.05035253
157	0x3da038c3	0.078233264
158	0x3da12297	0.078679256
159	0xbc9aadcb	-0.0188817
160	0xbca8fadf	-0.020627437
161	0xbd9a86b9	-0.075452276
162	0xbc6a77e8	-0.014310814
163	0x3dcf1f73	0.1011342
164	0xbdb2b71d	-0.08726332
165	0xbd5ab505	-0.05339529
166	0x3ddf31a6	0.108981416
167	0xbcc5700d	-0.024101282
168	0x3db22033	0.08697548
169	0x3dab3284	0.083592445
170	0x3cf06588	0.029345289
171	0x3dc3fb01	0.095693596
172	0x3dd151d4	0.102206856
173	0x3d654fe3	0.05598439
174	0xbd025ca7	-0.03182664
175	0xbd1c7709	-0.03819946
176	0xbd8e06ae	-0.06934868
177	0xbd3168c4	-0.043312803
178	0x3d2c60e6	0.042084597
179	0xbd870219	-0.06592197
180	0x3c895c00	0.016767502
181	0x3d42d5f5	0.047567327
182	0xbc4ccae8	-0.0124995485
183	0xbc99b208	-0.01876165
184	0x3da3ce09	0.079982825
185	0xbcd2979e	-0.025707062
186	0x3d4bc8bf	0.049751993
187	0x3dd0767c	0.10178849
188	0xbcde6d64	-0.02715177
189	0x3db42f69	0.08798105
190	0xbd911d1e	-0.07085632
191	0x3ceef7ba	0.02917086
192	0x3cd24208	0.025666252
193	0xbd7213de	-0.059100978
194	0xbd41580b	-0.047203105
195	0x3e01147f	0.12605475
196	0x3de64e1d	0.11245368
197	0xbd85d5e3	-0.06534936
198	0x3dca30b8	0.098725736
199	0x3d850889	0.064957686
200	0xbdb030c4	-0.08603051
201	0xbd1c54e1	-0.038166884
202	0xbc96afbf	-0.01839435
203	0xbd25e863	-0.040504824
204	0x3bb20e9f	0.005433872
205	0x3d9dfe69	0.077145405
206	0xbd1f9abf	-0.038965937
207	0x3deb7045	0.11496023
208	0x3d8483ca	0.06470449
209	0x3d7ef230	0.062242687
210	0x3d2e2061	0.042511348
211	0xbd46f818	-0.048576444
212	0x3c722e10	0.01478149
213	0x3c8c1ef4	0.017104603
214	0x3d7e6c0f	0.06211477
215	0xbce420e5	-0.027847717
216	0x3d8dfeb2	0.06933345
217	0x3b84c407	0.0040516886
218	0x3d158c92	0.03651101
219	0x3ca87b20	0.020566523
220	0xbd57bfe5	-0.05267324
221	0x3d604eee	0.054762773
222	0x3da49d5d	0.08037827
223	0xbcf20480	-0.029543161
224	0xbce95405	-0.028482446
225	0xbcbfd983	-0.023419147
226	0x3d559d6a	0.052152075
227	0x3d890e45	0.06692175
228	0xbdaaf443	-0.083473705
229	0x3dbec717	0.09315317
230	0x3d5faf86	0.05461075
231	0xb8971400	-7.2039664e-05
232	0x39832ab1	0.00025018075
233	0x3db831c4	0.08993867
234	0x3d17582a	0.036949314
235	0x3db1022a	0.08642991
236	0x3da6aa1b	0.08137914
237	0xba71c796	-0.0009223161
238	0x3c561cf8	0.01306843
239	0xbd3e82f6	-0.046511613
240	0xbc8b9314	-0.017037906
241	0xbdadb20f	-0.084812276
242	0xbd6442d6	-0.055727802
243	0xbd5e27f3	-0.054237317
244	0xbbc1fcb0	-0.0059200153
245	0x3d2f9c88	0.04287389
246	0x3da897ce	0.082320794
247	0x3d69aeb3	0.05705137
248	0x3ce7fb40	0.028318048
249	0x3d368974	0.04456468
250	0xbcdf230d	-0.027238393
251	0x3d9010a8	0.07034427
252	0x3d932f5b	0.07186767
253	0x3daff25d	0.08591149
254	0x3d9f2a49	0.07771737
255	0xbd39c588	-0.045354396

model.0.bias f4 [128]
0	0x3de6079e	0.112319216
1	0x3dcca462	0.09992291
2	0x3dd0738c	0.10178289
3	0x3d5b9e5b	0.053617816
4	0x3dc5a5db	0.09650775
5	0x3ddf18db	0.10893413
6	0x3c9cfac1	0.019162538
7	0x3daa097e	0.08302592
8	0x3deb3728	0.114851296
9	0x3df4f726	0.11961202
10	0x3ddfcde5	0.10927943
11	0x3df70c1f	0.12062859
12	0x3df2c7a4	0.11854485
13	0x3dcf2b0b	0.10115632
14	0x3dd96f5e	0.10616945
15	0x3a7aa219	0.00095608976
16	0x3dd11f28	0.10211021
17	0x3dc15a87	0.09441095
18	0x3dc1b5b0	0.09458482
19	0x3d9d6934	0.076860815
20	0x3dc6031e	0.09668563
21	0x3dd0f32e	0.10202633
22	0x3dc7e2f1	0.097600825
23	0x3e04b96f	0.12961362
24	0x3de4b648	0.1116758
25	0x3dd3744e	0.10324918
26	0x3ce282d7	0.02765028
27	0x3de48be3	0.11159494
28	0x3de1e025	0.1102908
29	0x3da51c8d	0.08062086
30	0x3dd89280	0.10574818
31	0x3de84dbf	0.11342954
32	0x3df92edc	0.12167141
33	0x3de0991f	0.109667055
34	0x3dcb03d1	0.09912837
35	0x3dc40c16	0.09572618
36	0x3d4aac60	0.049480796
37	0x3dc857d6	0.097823784
38	0x3de80a58	0.11330098
39	0x3df7a41e	0.1209185
40	0x3df32b63	0.1187351
41	0xbc87884f	-0.01654449
42	0x3dece3f2	0.115669146
43	0x3db6d50d	0.08927355
44	0x3dea3153	0.11435189
45	0x3e036e3d	0.12835021
46	0x3dd32c93	0.10311236
47	0x3dc497c3	0.09599259
48	0x3deea94a	0.11653383
49	0x3de2854a	0.11060579
50	0x3d002ba4	0.03129162
51	0x3dfe8a15	0.12428681
52	0x3dc88a55	0.0979201
53	0x3de05a87	0.10954767
54	0x3de65d2a	0.112482384
55	0x3dd4e468	0.103951275
56	0xbc59865d	-0.013276664
57	0x3dc5c354	0.096563965
58	0x3b2398a0	0.0024962798
59	0x3db6cc2f	0.08925664
60	0x3de499a8	0.1116212
61	0x3de5ba29	0.11217148
62	0x3dfb207b	0.122620545
63	0x3deb3758	0.11485165
64	0x3dcec8d1	0.100968964
65	0x3df11afb	0.11772724
66	0x3df1fdd5	0.11815993
67	0x3defb181	0.11703778
68	0x3b29a432	0.0025885222
69	0x3de96c1f	0.113975756
70	0x3ddf4c6f	0.109032504
71	0x3df10bae	0.11769806
72	0x3c5f2d91	0.013621704
73	0x3dfe8fc7	0.12429767
74	0x3ddbe950	0.1073786
75	0x3ddbf9a9	0.10740978
76	0x3d436a8a	0.047709025
77	0x3dc071c0	0.09396696
78	0x3d684692	0.056707926
79	0x3dd67036	0.10470621
80	0x3de53b2d	0.111929275
81	0x3dde4e96	0.10854833
82	0x3dedcb09	0.116109915
83	0x3dd34647	0.10316139
84	0x3dd49a03	0.10380938
85	0x3dd3f618	0.10349673
86	0x3dc09b46	0.09404616
87	0x3dd420ae	0.10357796
88	0x3dd1b223	0.10239055
89	0x3dc37fb4	0.09545842
90	0x3dfae533	0.122507475
91	0x3d88e6fa	0.0668468
92	0x3d5d720e	0.05406385
93	0x3debd656	0.11515491
94	0x3df2e726	0.11860494
95	0x3dde434b	0.10852679
96	0x3df32921	0.11873079
97	0x3de80d4e	0.11330663
98	0x3dded948	0.10881287
99	0x3ddd8044	0.1081548
100	0x3df4385f	0.119248144
101	0xbc63f5f3	-0.013913619
102	0x3d3df83e	0.04637932
103	0x3dd18dc7	0.1023212
104	0x3df57dbb	0.11986872
105	0x3dcf7c31	0.101311095
106	0x3de4a5b0	0.11164415
107	0x3beee4aa	0.0072904425
108	0x3dc160c1	0.094422825
109	0x3def1cec	0.11675438
110	0x3de67afe	0.11253928
111	0x3dde1b3b	0.108450375
112	0x3dc2a616	0.09504335
113	0x3de7c97f	0.11317729
114	0x3de5c9ee	0.11220156
115	0x3e063699	0.13106765
116	0x3dd2af01	0.102872856
117	0x3ddd12b6	0.107945845
118	0x3dfba2b2	0.12286891
119	0x3d8d93c6	0.06912951
120	0x3dccf686	0.10007958
121	0x3deafb53	0.114737175
122	0xbcf3c09e	-0.029754933
123	0x3dcf8b81	0.1013403
124	0x3dd07fec	0.10180649
125	0x3dcdbd85	0.100459136
126	0x3e04e83e	0.12979218
127	0x3dd1580a	0.1022187

model.2.weight f4 [128, 128]
0	0x3d2a87c4	0.041633382
1	0xbd8c2666	-0.068432614
2	0x3e8b6a0a	0.2722934
3	0x3e612c54	0.21989566
4	0x3dcc815e	0.09985612
5	0xbd175acb	-0.03695182
6	0x3d976acb	0.07393416
7	0x3e3d8c28	0.18510497
8	0x3d03df4c	0.032195374
9	0x3e80fa25	0.25190845
10	0x3e2fecab	0.17180125
11	0x3e2c4691	0.16823794
12	0xbcf2699f	-0.02959138
13	0xbd7a37ea	-0.06108848
14	0x3e0f7dfe	0.14012906
15	0x3e5fdd6c	0.2186181
16	0x3e8220e6	0.25415725
17	0x3e63feec	0.22265214
18	0x3e3a523a	0.1819543
19	0xbb431180	-0.002976507
20	0x3e85ca56	0.26130933
21	0x3ea4e435	0.32205358
22	0x3e66bcc6	0.22532949
23	0xbd27dca8	-0.04098192
24	0x3e677d16	0.2260631
25	0x3e16708c	0.1469137
26	0xbcd9d7c6	-0.026592147
27	0xbd75ecda	-0.060040332
28	0x3dfc3c5f	0.12316202
29	0xbd9f7a35	-0.07786981
30	0x3e646ca0	0.22307062
31	0x3e3fe165	0.18738325
32	0x3d60ad7a	0.05485294
33	0x3e280dd9	0.16411532
34	0x3e1c733b	0.15278332
35	0x3eabd160	0.33558178
36	0xbdaf783e	-0.08567856
37	0x3e580dab	0.21098964
38	0x3e8a6bf5	0.2703549
39	0x3de346f9	0.11097521
40	0x3e7e66fa	0.2484397
41	0xbdfaa148	-0.12237793
42	0xbd2c2580	-0.04202795
43	0x3e446139	0.19177713
44	0x3e47752d	0.19478293
45	0x3cba365b	0.022730997
46	0x3e971712	0.2950979
47	0x3e044f7d	0.12920947
48	0x3d1bc5e2	0.038030513
49	0x3e6287a9	0.22122063
50	0x3d201096	0.039078318
51	0x3dd708c0	0.10499716
52	0xbc93221f	-0.017960606
53	0x3e8a6ea6	0.27037543
54	0x3e35ebd4	0.17765743
55	0x3d840857	0.06446903
56	0xbe0eac93	-0.1393302
57	0x3e41ceca	0.1892654
58	0x3d405eaf	0.046965297
59	0x3e3bb211	0.18329646
60	0x3e1a0a4d	0.15042992
61	0x3e0ea4af	0.1393001
62	0x3dc1744a	0.094460085
63	0xbcc9f242	-0.02465165
64	0x3e95179c	0.29119575
65	0x3e78e81d	0.24307294
66	0x3d6050e0	0.05476463
67	0x3cf3e356	0.029771488
68	0x3dc022f4	0.09381667
69	0x3e0105ff	0.12599944
70	0x3e04aebc	0.12957281
71	0x3ce2bd22	0.027678076
72	0x3dadca9b	0.084859096
73	0x3e100e55	0.14067967
74	0x3e6602c1	0.22461988
75	0xbd1f423e	-0.038881533
76	0xbd10267b	-0.035192948
77	0xbc488276	-0.012238136
78	0x3e12d2c7	0.14338218
79	0xbd108835	-0.035286147
80	0x3e0621fe	0.13098904
81	0xbd333b15	-0.043757517
82	0xb7c6fc20	-2.3720844e-05
83	0xbdc6b344	-0.09702161
84	0xbd3d3499	-0.04619274
85	0xbd63ee53	-0.055647206
86	0x3e8b69f8	0.27229285
87	0xbd8f6daf	-0.07003342
88	0x3c6f4905	0.014604812
89	0x3d80358a	0.06260212
90	0x3d9c2d34	0.07625809
91	0xbbc859e8	-0.0061142333
92	0x3d3e5b3d	0.04647373
93	0x3bb6dd93	0.005580613
94	0x3e2a72a7	0.16645299
95	0xbd0212d8	-0.031756252
96	0x3d8c9f9f	0.06866383
97	0x3e81fb42	0.25387007
98	0x3d67c0a6	0.05658021
99	0x3e8673b9	0.26260164
100	0x3e4ab09f	0.19793938
101	0xbe206e90	-0.15667176
102	0x3e8e779d	0.27825633
103	0xbd25c0b6	-0.040466987
104	0x3e046be9	0.1293179
105	0x3e09b65a	0.13448468
106	0xbd94a60c	-0.072582334
107	0xbdcc1664	-0.09965208
108	0xbd82d353	-0.06387963
109	0xbd455af6	-0.04818245
110	0xbd70c385	-0.058780212
111	0xbcac6a91	-0.021046909
112	0x3e16b29f	0.14716576
113	0x3e9b0b35	0.30281988
114	0x3e298cd2	0.16557625
115	0x3e2e0217	0.16992985
116	0xbdd352e8	-0.103185475
117	0x3e8c9fff	0.27465817
118	0xbdad3817	-0.08457964
119	0xbcdf7098	-0.027275369
120	0x3e595ce1	0.21226837
121	0x3e94596c	0.28974473
122	0xbd7d5134	-0.06184502
123	0x3e68cb45	0.22733791
124	0xbdd11941	-0.10209895
125	0x3e639295	0.22223885
126	0x3e1061fc	0.14099878
127	0x3db5bc60	0.0887382
128	0xbded680e	-0.115921125
129	0xbdf5e92a	-0.12007363
130	0x3d15e158	0.036591858
131	0x3e34d7ba	0.17660418
132	0xbe62b48b	-0.22139184
133	0x3c752c46	0.014964169
134	0xbd817680	-0.0632143
135	0x3e17573d	0.14779373
136	0x3e1b5a0e	0.15171072
137	0x3d586bef	0.05283731
138	0xbe6dbffa	-0.23217764
139	0x3b90864e	0.0044105416
140	0xbe0efd47	-0.13963805
141	0x3e03cd2b	0.12871234
142	0xbe6757ad	-0.2259204
143	0xbe195953	-0.1497548
144	0xbcb15328	-0.021646097
145	0x3da2e570	0.07953918
146	0xbe1201b1	-0.14258458
147	0xbd56c76f	-0.05243629
148	0xbe7c7d27	-0.24657117
149	0x3d597245	0.05308749
150	0xbe78d2ab	-0.24299113
151	0xbd4f7568	-0.050649077
152	0x3e0cb940	0.13742542
153	0x3e204cba	0.15654269
154	0xbccb0a8c	-0.024785303
155	0x3aa1232a	0.0012293805
156	0x3d95ae5d	0.07308648
157	0x3d944e11	0.072414525
158	0xbe007440	-0.12544346
159	0xbe23b731	-0.1598785
160	0xbe1702b9	-0.14747132
161	0x3dc1aabc	0.09456393
162	0xbd97808b	-0.073975645
163	0xbda1b801	-0.07896424
164	0xbe0b1819	-0.13583411
165	0x3e250578	0.16115367
166	0xbd4a6681	-0.04941416
167	0xbe72edb4	-0.23723489
168	0xbe0b5c0c	-0.13609332
169	0x3e3f2afd	0.18668742
170	0xbd42c893	-0.047554564
171	0x3df017bd	0.11723278
172	0x3d0c9a41	0.034326795
173	0x3dc066ea	0.09394629
174	0x3e27ee9a	0.16399613
175	0xbe438e19	-0.19097175
176	0x3d96e1dc	0.07367298
177	0x3daf7a5d	0.08568261
178	0x3d44f692	0.04808671
179	0x3df584dd	0.11988232
180	0x3d9b307d	0.07577608
181	0x3ce8b23a	0.028405298
182	0xbe0c7530	-0.13716578
183	0x3d92fa2f	0.07176625
184	0xbdeabadb	-0.11461421
185	0x3d2e11ec	0.04249756
186	0x3db2ca3e	0.08729981
187	0x3e308c19	0.17240943
188	0xbe7043db	-0.23463385
189	0xbe1e20e2	-0.15442231
190	0x3cf41623	0.029795712
191	0xbe0b83d2	-0.13624504
192	0xbca7aba1	-0.020467581
193	0xbdfbdc66	-0.12297897
194	0x3d4daad0	0.050211728
195	0xbd007a5c	-0.03136669
196	0xbd97f41d	-0.07419608
197	0x3df3187e	0.11869906
198	0xbd84db00	-0.064870834
199	0xbd3fe41a	-0.046848394
200	0x3dff2eef	0.12460124
201	0xbdbc29b3	-0.09187641
202	0x3e23b0b7	0.1598538
203	0x3e20b8c0	0.15695477
204	0x3e034e98	0.1282295
205	0xbe55371c	-0.20821804
206	0xbe463770	-0.19357085
207	0xbe1611f1	-0.14655282
208	0xbdc4adef	-0.09603488
209	0xbd05e2eb	-0.03268711
210	0x3e00be33	0.12572555
211	0x3e08abca	0.13346782
212	0xbd8e8d0c	-0.06960496
213	0x3e14f432	0.14546278
214	0x3e0adbde	0.13560435
215	0x3d3ed1ba	0.04658673
216	0x3e230a2e	0.15921852
217	0x3e067f7c	0.13134569
218	0xbae742b3	-0.0017643779
219	0xbe429db0	-0.19005466
220	0x3da25831	0.079269774
221	0xbdfd33f4	-0.12363425
222	0x3dbf51ee	0.09341799
223	0x3e263dc6	0.16234502
224	0xbe3b1296	-0.18268809
225	0x3e1be23a	0.15223017
226	0x3dea8d67	0.114527516
227	0x3ca90444	0.020631917
228	0xbd7dab98	-0.061931223
229	0x3de24f50	0.11050284
230	0x3e10d3db	0.14143316
231	0xbe83bab0	-0.2572837
232	0xbe61937a	-0.22028914
233	0x3773c7f4	1.4530484e-05
234	0xbe62d62e	-0.22152016
235	0xbe3aa00d	-0.18225117
236	0xbe0f2bf3	-0.13981609
237	0x3db02688	0.08601099
238	0x3dd96788	0.1061545
239	0x3d7bb984	0.06145622
240	0xbd8ad39a	-0.06778641
241	0x3bd3ccf1	0.00646364
242	0xbd1a37fc	-0.037651047
243	0x3da8d11d	0.0824301
244	0xbcde430b	-0.027131578
245	0x3e2c2f58	0.16814935
246	0xbd42f8c9	-0.04760054
247	0x3dcb416e	0.09924589
248	0xbce55412	-0.02799419
249	0xbde1ba33	-0.11021843
250	0x3db5de37	0.08880275
251	0x3d9f65b3	0.077830695
252	0x3df09e9b	0.117490016
253	0xbe07d9b4	-0.13266641
254	0xbd33f327	-0.04393306
255	0x3dd1ece9	0.10250265

model.2.bias f4 [128]
0	0x3d967ae9	0.07347662
1	0xbd055729	-0.032553826
2	0x3d7b4a96	0.061350428
3	0x3d974081	0.0738535
4	0xbcbf34b8	-0.023340568
5	0x3d87324b	0.066013895
6	0xbc82ff55	-0.015990892
7	0xbca9161d	-0.020640427
8	0x3d8f597d	0.069994904
9	0xbcabba39	-0.020962821
10	0xbc953e4d	-0.018218184
11	0xbcb20849	-0.021732466
12	0x3da84017	0.08215349
13	0x3d98ac9f	0.074548
14	0xbca040d6	-0.019562166
15	0x3daabdc6	0.08336978
16	0xbd00fcfe	-0.031491272
17	0xbc9c6665	-0.019091794
18	0xbcc365d2	-0.023852263
19	0xbcad43aa	-0.021150429
20	0x3dc6c0a7	0.09704714
21	0xbca54c81	-0.020178081
22	0x3d881ad0	0.06645739
23	0xbcbcd926	-0.023052763
24	0x3d9588e2	0.07301499
25	0x3db899d5	0.09013716
26	0x3d85aa4b	0.065266214
27	0x3dafc22a	0.08581956
28	0xbcd2a754	-0.025714554
29	0xbcb75975	-0.022381524
30	0xbcc7d29c	-0.024392419
31	0x3d891b67	0.0669468
32	0xbcb3b7d5	-0.021938244
33	0x3d97658d	0.07392416
34	0xbccbf5cf	-0.024897484
35	0x3d956f4b	0.07296618
36	0xbcd18a7e	-0.025578734
37	0xbcbdee5f	-0.023184953
38	0xbcb78856	-0.022403877
39	0x3dab9cec	0.0837954
40	0x3d920433	0.07129707
41	0x3db02a35	0.086018
42	0xbc631517	-0.013860009
43	0xbce39026	-0.027778696
44	0xbcd043b5	-0.02542291
45	0xbcc99112	-0.024605308
46	0xbca71788	-0.020396963
47	0xbc8e8a87	-0.01740004
48	0x3da3ad98	0.07992095
49	0xbcd08f1c	-0.025458865
50	0x3dca2bd1	0.098716386
51	0x3d95bd57	0.07311504
52	0xbcc0a025	-0.023513863
53	0xbca968ec	-0.020679913
54	0x3ded92af	0.11600243
55	0x3d873863	0.06602552
56	0x3d8ae869	0.0678261
57	0x3d94fa2b	0.07274278
58	0x3d9cfd83	0.07665541
59	0xbca3e44f	-0.020006327
60	0xbc98f7b6	-0.018672805
61	0x3d8372cf	0.064183824
62	0x3d943810	0.072372556
63	0x3d8474fd	0.06467626
64	0xbc55461d	-0.013017205
65	0x3dd58927	0.1042655
66	0xbcbd4fea	-0.023109395
67	0x3da40a79	0.0800981
68	0x3d9b239c	0.07575151
69	0xbccf5889	-0.025310772
70	0x3d947e79	0.07250685
71	0x3d9102b3	0.07080593
72	0x3d9ed22f	0.07754933
73	0x3d8e0c0a	0.0693589
74	0x3dddcfc3	0.10830643
75	0x3dae958c	0.085246176
76	0xbce40fd2	-0.027839575
77	0x3da2b6f4	0.07945052
78	0xbcbee058	-0.023300335
79	0xbcccfb55	-0.025022188
80	0x3db1e258	0.0868575
81	0x3dd3b162	0.103365675
82	0x3d9d6331	0.07684935
83	0x3d90d482	0.07071783
84	0x3decc61a	0.115612224
85	0x3d6e458c	0.058171794
86	0x3d8d1210	0.06888211
87	0x3dc575ca	0.09641607
88	0x3d86d00b	0.0658265
89	0x3d9710d6	0.07376258
90	0xbd0e5669	-0.034750376
91	0xbca6c582	-0.020357851
92	0xbccb7ddd	-0.02484029
93	0x3da7efce	0.08200036
94	0x3db13b51	0.08653892
95	0x3d8450d9	0.06460733
96	0x3dc04dbc	0.09389827
97	0x3d8a3c94	0.067498356
98	0x3da166b7	0.078809194
99	0x3d7f25d8	0.06229195
100	0x3d8f1b8f	0.06987678
101	0xbc8ffcb5	-0.017576555
102	0x3d760b4c	0.060069367
103	0xbc9f0925	-0.01941354
104	0x3e0b0a76	0.1357821
105	0xbce4bfdf	-0.027923523
106	0xbc9daa6e	-0.019246306
107	0x3d92775c	0.07151672
108	0xbcaaf82a	-0.020870287
109	0xbc8780d9	-0.016540932
110	0xbc07819f	-0.00827065
111	0x3ddb1553	0.10697427
112	0x3dee930b	0.1164914
113	0x3d8f4889	0.06996257
114	0xbcac68ad	-0.021046007
115	0x3dd8dec4	0.10589364
116	0x3d8263c3	0.06366684
117	0x3db07cbc	0.08617541
118	0xbce00b4d	-0.027349139
119	0x3d7d6a8d	0.061869193
120	0xbc37c327	-0.011215962
121	0xbcd8c2ea	-0.02646013
122	0x3dc173fb	0.0944595
123	0x3d7767e6	0.06040182
124	0x3d87aca5	0.06624726
125	0x3de84822	0.11341883
126	0xbce3939b	-0.027780345
127	0x3d8c6ecc	0.0685707

model.4.weight f4 [1, 128]
0	0x3e5f414d	0.21802254
1	0xbd1a3bfe	-0.03765487
2	0x3e748c49	0.2388164
3	0x3ea35490	0.31900454
4	0xbde4d907	-0.11174207
5	0x3e86ba60	0.26314068
6	0x3c5becec	0.013423186
7	0xbe0869d2	-0.13321617
8	0x3e658508	0.22414029
9	0xbdbea08c	-0.09307966
10	0xbe1060c6	-0.14099416
11	0xbe35f0ca	-0.17767635
12	0x3e99c49e	0.3003282
13	0x3ea1d8ac	0.3161062
14	0xbe48c5c4	-0.19606692
15	0x3e20e940	0.15713978
16	0xbd88adac	-0.0667375
17	0xbe2af07a	-0.16693297
18	0xbd36702f	-0.04454058
19	0xbe1dbf0e	-0.15404913
20	0x3e2309e3	0.1592174
21	0xbc54557b	-0.012959833
22	0x3ea6bb2a	0.3256467
23	0xbdc1b608	-0.09458548
24	0x3e411e5c	0.18859237
25	0x3e465e1a	0.19371834
26	0x3eac9b86	0.33712405
27	0x3e4fc692	0.20290592
28	0xbc765789	-0.015035518
29	0xbe15ff11	-0.14648081
30	0xbd895cad	-0.067071296
31	0x3e4d35be	0.20040032
32	0xbda03c6b	-0.07824024
33	0x3e5ba3a8	0.21449149
34	0xbe358057	-0.17724739
35	0x3e1d517a	0.15363112
36	0xbe45cea5	-0.1931711
37	0xbe0f06d8	-0.13967454
38	0x3b117331	0.0022193904
39	0x3e145355	0.14484914
40	0x3e9427d8	0.28936648
41	0x3e8ace13	0.27110347
42	0xbb8076ea	-0.0039204257
43	0xbd9da813	-0.07698073
44	0xbcfeaa86	-0.031087171
45	0xbe3fdb52	-0.18736008
46	0xbe4b9c76	-0.19883904
47	0xbdbf8adc	-0.09352657
48	0x3e89678d	0.26836815
49	0xbdde92ff	-0.10867881
50	0x3e10502f	0.14093088
51	0x3e8d19c5	0.27558723
52	0xbd8cc223	-0.06872966
53	0xbdfde67b	-0.12397476
54	0x3e15c877	0.14627253
55	0x3e9882d6	0.2978732
56	0x3e88913f	0.26673314
57	0x3eb14911	0.34626058
58	0x3e5013b3	0.20320015
59	0x3aaa59f6	0.0012996781
60	0xbe4e571f	-0.20150422
61	0x3e9efdce	0.31053013
62	0x3ea68eae	0.3253073
63	0x3e9c8678	0.30571342
64	0xbc303588	-0.01075495
65	0x3e1df6b1	0.15426137
66	0xbe3b5924	-0.18295723
67	0x3e97239f	0.29519364
68	0x3e463796	0.19357142
69	0xbd4b14f5	-0.049580533
70	0x3e836f13	0.2567068
71	0x3e9b713f	0.30359837
72	0x3e7699c2	0.24082091
73	0x3e847a8f	0.25874755
74	0x3e1523d9	0.14564456
75	0x3e44f57d	0.19234271
76	0xbccae530	-0.024767488
77	0x3e8b1c91	0.27170232
78	0xbe1933d0	-0.14961171
79	0xbd9a85cf	-0.07545053
80	0x3e2ea27b	0.17054169
81	0x3e1dbed2	0.15404823
82	0x3e57be08	0.21068585
83	0x3e42d10e	0.1902506
84	0x3e1521de	0.145637
85	0x3e9eb02a	0.30993778
86	0x3e92ae78	0.28648734
87	0x3e462099	0.19348373
88	0x3e87efc6	0.2655012
89	0x3dd692bb	0.10477205
90	0xbca79787	-0.020457996
91	0xbceb38f2	-0.028713677
92	0xbcb9c147	-0.02267517
93	0x3e9c51a1	0.30531028
94	0x3e8daa61	0.2766905
95	0x3ea77fc9	0.3271468
96	0x3e7ee880	0.24893379
97	0x3e9b3b9f	0.30318925
98	0x3e961c77	0.29318592
99	0x3e7d9b28	0.24766219
100	0x3e9d02ec	0.30666292
101	0xbe262b85	-0.16227539
102	0x3ea2cfc4	0.31799138
103	0xbd0a966e	-0.033834867
104	0x3e243233	0.16034774
105	0xbe4372ef	-0.19086812
106	0xbd691cf5	-0.05691238
107	0x3e90caa1	0.28279594
108	0xbdc00347	-0.09375625
109	0xbe27cdd9	-0.16387118
110	0xbdf1a207	-0.117984824
111	0x3e38194d	0.17978401
112	0x3e0f9614	0.14022094
113	0x3e7e9075	0.24859793
114	0xbe194211	-0.14966609
115	0x3e047f12	0.12939098
116	0x3ea0a7c5	0.31377998
117	0x3e003240	0.12519169
118	0xbdc1af01	-0.094572075
119	0x3e854d95	0.26035753
120	0x3ca4bba1	0.020109
121	0xbd76840e	-0.06018453
122	0x3e0acef0	0.13555503
123	0x3e89f50f	0.26944777
124	0x3e9ad799	0.30242613
125	0x3e12518f	0.14288925
126	0xbe40fbcb	-0.18846051
127	0x3e3fcc11	0.18730189
