models/neural_networks/regression/2024-08-17_21-54-07/model.pt (torch, 950580 bytes, 5 tensors)

model.0.weight f4 [256, 667]
-0.08071343 -0.033078086 -0.069262005 -0.0818744 0.070966356 0.087974876 -0.086363174 0.035978634
0.091722935 0.0037351493 -0.041384332 0.056699988 -0.08950452 0.03417686 -0.031534888 -0.07283454
0.002065435 0.07543525 0.07778086 -0.08481343 -0.092897125 0.069398105 -0.039964367 -0.011977553
0.05506666 0.05074262 0.08606734 -0.09480811 -0.04184735 -0.0849037 -0.0037635441 -0.045733143
-0.009480315 -0.08147861 0.08947037 0.09029229 -0.02408368 0.06930858 0.07960235 -0.03996699
-0.04227802 -0.08206846 -0.09078339 0.007989207 0.05836864 0.06036221 -0.024505481 0.053144287
-0.058479097 0.01883406 -0.05749065 -0.040082168 -0.0153118 0.029128112 -0.015220329 0.07147713
0.014560389 -0.07374708 -0.025582984 0.05354625 -0.053749036 -0.018828519 0.079533145 0.07690669
-0.030661426 -0.05002185 -0.0653374 0.046395123 0.07521966 0.047156736 0.08868563 0.046402585
0.06414812 0.07310853 -0.033043 -0.08475918 -0.048521742 0.0390787 0.009427103 -0.015631154
0.05289249 0.064754665 0.052105203 0.08560525 -0.0668448 0.079686485 0.002459824 -0.008831467
-0.0259075 0.06939691 -0.053450488 -0.029335167 -0.048777867 -0.055342495 -0.08115604 0.061917394
0.0543631 0.084006935 -0.057457723 -0.014056362 0.091916606 -0.00816782 0.09193317 -0.022457324
0.053475328 0.03079252 0.08726788 -0.0081430245 0.06510043 0.036759794 -0.045686018 -0.039703816
-0.015367723 -0.091753736 -0.0489226 -0.07606772 -0.034337223 0.07838648 -0.09433507 -0.039934643
-0.05663564 -0.025812104 -0.00097151205 0.050852265 -0.0043503568 -0.00046263635 0.014240253 0.09120342
0.013730571 -0.013112878 0.09361565 -0.002997689 -0.018617168 -0.0065093413 0.00073812157 -0.057264972
-0.048345964 -0.068293065 -0.00030287355 -0.0629888 0.09122931 0.082679585 -0.029167376 -0.07217419
-0.02924528 0.057219747 -0.06549542 0.025345854 -0.060075555 -0.0727306 -0.06359184 0.070930764
0.034347218 -0.07809354 0.02092243 -0.023730442 0.023349036 -0.010167077 0.06809735 -0.016503282
0.072279245 0.066430956 0.03637065 -0.018699147 -0.056421224 -0.08511636 0.068157166 0.014404282
-0.018715193 0.07007837 -0.0010691881 0.058460683 -0.07357475 -0.048753086 -0.046512544 0.040623486
0.08158252 0.092848696 -0.08844581 -0.050509356 -0.089485355 -0.09243133 -0.010290239 0.064714864
-0.081269085 0.046881184 0.08984189 0.034862388 0.019189425 -0.05834219 0.04402705 -0.078608066
-0.022748552 -0.09409828 0.010591835 -0.04388599 -0.010203779 -0.05614671 0.06674549 0.020235255
-0.08742967 0.020575836 -0.08606673 -0.065090686 -0.0052424446 -0.031342708 -0.051049925 -0.03275516
0.010367528 -0.09462973 0.039794996 0.06660692 0.06893592 -0.027451664 0.04877608 -0.02168493
0.05823692 0.07310728 0.049083583 5.3424574e-06 -0.004234247 -0.07975269 -0.049504254 0.07072179
0.02306938 -0.08153203 -0.025446322 0.035563678 -0.012957202 -0.036967777 0.04079789 -0.028914005
0.035204947 -0.022084013 0.0014183475 0.07426062 0.011083114 0.0050149113 -0.045433164 0.05090495
-0.022629604 -0.052201606 0.035701208 0.03887278 -0.04374588 -0.059202168 0.07858218 0.05154839
-0.065941475 0.027078867 0.03295892 -0.009742089 -0.00081992894 -0.0032511875 0.07480804 0.08147159
00000000: 154d a5bd e37c 07bd 3dd9 8dbd c4ad a7bd
00000010: cf56 913d 2c2c b43d 2ddf b0bd 555e 133d
00000020: 3cd9 bb3d 68c9 743b 9e82 29bd 3f3e 683d
00000030: 254e b7bd 09fd 0b3d ba2a 01bd 462a 95bd
00000040: 405c 073b cc7d 9a3d 924b 9f3d aab2 adbd
00000050: d940 bebd 9820 8e3d adb1 23bd 803d 44bc
00000060: 948d 613d 7ed7 4f3d 1344 b03d c12a c2bd
00000070: 2068 2bbd fee1 adbd cba5 76bb ad52 3bbd
00000080: 5353 1bbc 42de a6bd 3e3c b73d 2aeb b83d
00000090: 234b c5bc a8f1 8d3d 8f06 a33d 6db4 23bd
000000a0: b82b 2dbd 8213 a8bd a4ec b9bd 2ae5 023c
000000b0: f413 6f3d 5d3e 773d b8bf c8bc d3ad 593d
000000c0: c787 6fbd e349 9a3c 517b 6bbd 332d 24bd
000000d0: 58de 7abc 149e ee3c b05e 79bc 9a62 923d
000000e0: b38e 6e3c b608 97bd 6893 d1bc 5053 5b3d
000000f0: f327 5cbd 443e 9abc 46e2 a23d 4181 9d3d
00000100: ac2d fbbc b6e3 4cbd 9dcf 85bd d008 3e3d
00000110: c40c 9a3d 6c27 413d d0a0 b53d a310 3e3d
00000120: 1760 833d edb9 953d 1958 07bd 3996 adbd
00000130: bcbe 46bd fd10 203d 2374 1a3c e80c 80bc
00000140: cca5 583d 189e 843d 446c 553d ce51 af3d
00000150: ede5 88bd ab32 a33d 0035 213b dbb1 10bc
00000160: f73b d4bc f81f 8e3d e6ee 5abd 4e50 f0bc
00000170: 4dcb 47bd d0ae 62bd 2335 a6bd 189d 7d3d
00000180: d8ab 5e3d d40b ac3d ca58 6bbd a84c 66bc
00000190: c63e bc3d 52d2 05bc 7547 bc3d 6cf8 b7bc
000001a0: f208 5b3d 9840 fc3c 81b9 b23d 526a 05bc
000001b0: 6053 853d 7091 163d 4321 3bbd 78a0 22bd
000001c0: e7c8 7bbc 62e9 bbbd 1063 48bd 65c9 9bbd
000001d0: 30a5 0cbd 1789 a03d bf32 c1bd 8292 23bd
000001e0: c6fa 67bd e873 d3bc 12ad 7eba 774a 503d
000001f0: 708d 8ebb 008e f2b9 f34f 693c dcc8 ba3d
00000200: 30f6 603c 66d7 56bc 90b9 bf3d e074 44bb
00000210: 0883 98bc 504c d5bb 807e 413a ad8e 6abd
00000220: 6b06 46bd 3cdd 8bbd 00cb 9eb9 4600 81bd
00000230: 6fd6 ba3d ea53 a93d 6cf0 eebc 10d0 93bd
00000240: cc93 efbc 415f 6a3d 7622 86bd 1ca2 cf3c
00000250: c911 76bd c8f3 94bd 703c 82bd 2644 913d
00000260: abaf 0c3d 82ef 9fbd 8465 ab3c 5866 c2bc
00000270: 7a46 bf3c d093 26bc a076 8b3d e431 87bc
00000280: 2407 943d f40c 883d 64f9 143d f42e 99bc
00000290: f119 67bd 7c51 aebd fc95 8b3d f0ff 6b3c
000002a0: 9b50 99bc 4085 8f3d 0024 8cba 7874 6f3d
000002b0: 5cae 96bd 51b1 47bd f083 3ebd d064 263d
000002c0: bc14 a73d 7527 be3d 1423 b5bd e6e2 4ebd
000002d0: 1944 b7bd a34c bdbd 6498 28bc 3a89 843d
000002e0: 6870 a6bd 7c06 403d 06ff b73d ddcb 0e3d
000002f0: 2433 9d3c 38f8 6ebd b555 343d 44fd a0bd
00000300: 2c5b babc 99b6 c0bd 6089 2d3c ccc1 33bd
00000310: c02d 27bc 18fa 65bd dcb1 883d 68c4 a53c
00000320: 540e b3bd a88e a83c c143 b0bd 444e 85bd
00000330: d0c8 abbb 3661 00bd ba19 51bd 462a 06bd
00000340: 90dc 293c 3bcd c1bd 1400 233d 3569 883d
00000350: 472e 8d3d 50e2 e0bc 6dc9 473d 98a4 b1bc
00000360: d689 6e3d 45b9 953d de0b 493d 5c43 b336
00000370: 70bf 8abb 6155 a3bd f9c4 4abd 96d6 903d
00000380: fffb bc3c 44fa a6bd ce74 d0bc 38ab 113d
00000390: 724a 54bc 866b 17bd b01b 273d 10dd ecbc
000003a0: 1033 103d 88e9 b4bc d8e7 b93a f415 983d
000003b0: f395 353c 2054 a43b 2018 3abd b581 503d
000003c0: b861 b9bc 5ad1 55bd 6e3b 123d 1039 1f3d
000003d0: e12e 33bd f97d 72bd b2ef a03d 6824 533d
000003e0: 530c 87bd 80d4 dd3c efff 063d 489d 1fbc
000003f0: 80f0 56ba e011 55bb f534 993d 94da a63d

model.0.bias f4 [256]
0.002523447 0.008030871 0.0008980843 6.160309e-05 0.0074069235 0.0076725725 0.040394243 0.01751325
0.0009494402 0.015625533 0.011782707 -0.017228426 0.02638868 -0.012129273 -0.0023663538 -0.0099657485
-0.004549115 -0.0059956224 0.037882727 0.014397509 0.012342539 0.00089913886 0.026339764 -0.013293781
0.0012924451 0.016750952 -0.009157218 -0.0029079565 0.020465076 0.010110888 -0.0057899677 -0.0030290375
0.013395946 -0.012889111 -0.009143655 0.0029704988 0.0075552114 -0.02317564 0.03399451 -0.013668526
0.02307769 0.0045036958 -0.008415493 0.0033884314 -0.016704911 0.0046279305 -0.0010138309 -0.017631015
0.007715672 0.028198842 -0.0002863724 0.013226412 -0.011227716 -4.3741773e-05 0.0069046128 0.0009984653
0.0070117568 0.05185399 -0.0004496625 0.015204694 -0.0039722715 0.010527803 0.006300584 -0.006278724
0.0031832804 0.0119900005 -0.0033344673 0.004067444 0.027540592 0.0013497558 0.023270316 0.011969658
0.0075378744 0.006850039 0.021420753 0.004110475 -0.008938581 0.025922505 6.0252987e-05 0.035130788
-0.006184568 0.014380131 -0.0142294485 -0.01128448 0.004928413 0.0022202323 -0.01982502 -0.017690009
0.0026998078 -0.006440271 0.012355672 0.005265314 0.022614539 -0.012787646 0.01212122 0.038390238
0.018392064 0.0007072181 0.016073156 -0.026291324 0.007113689 0.011117068 0.015389654 -0.012638511
0.0058184396 0.01690372 -0.00069472415 -0.005492464 0.00059674017 0.003287967 0.006287491 -0.0052249497
-0.011855494 0.01334737 -0.003239126 -0.0053420723 0.009730824 0.019417249 -0.020350162 -0.008619912
0.002283821 -0.003200687 -0.010443711 -0.004797863 -0.004369036 0.009203943 -0.0007877251 -0.0154973995
0.021091688 0.012844695 -0.00075425516 0.013523296 0.042046692 -0.0032309082 0.0044241464 -0.0006643461
0.024191022 -0.0061336304 0.009533848 0.0006688809 -0.010949369 -0.021932354 0.0021762934 0.0058171568
0.0011692463 0.010277908 -0.00038081882 0.007339463 -3.402731e-05 -0.018125957 0.027399944 -0.0039528687
0.00062877417 0.0025790955 0.024125703 0.03362465 0.009425016 -0.008968273 -0.0046824473 0.038577154
0.012999622 -0.0056941663 0.03568549 0.028547464 -0.0070672715 0.012055966 0.031263124 -0.0049380795
0.016336856 0.021459132 -0.0088235885 0.030790647 0.01142347 0.034321733 0.0053466377 0.015329246
0.007933197 0.033118088 -0.0097906515 0.0108849285 0.009233278 -0.008347629 0.020447342 -0.019604495
-0.0022304952 0.026937213 0.01938081 0.012518071 -0.016372444 0.0071310136 -0.0016588473 0.016851906
0.0097158905 0.022806989 -0.006831535 -0.013365144 0.016605979 0.0032434254 0.01229408 0.009752177
-0.0152891 0.0053548682 -0.0010671515 -0.007162657 0.008625562 0.005543924 -0.008856141 0.020476384
0.010765692 -0.0034395666 0.017694132 0.0012255837 0.013344778 0.0036484788 0.026513947 0.012567956
-0.005462844 0.023963079 0.013255621 0.014404474 0.018034296 0.012685483 -0.01031444 0.000726764
0.007851286 0.031983376 0.015519477 0.010849175 0.01451076 -0.01896225 -0.0062071667 0.007135664
0.00370751 0.0040764613 0.008064134 0.024417918 0.008236077 -0.005752601 -0.010685496 0.004024413
0.00916916 -0.00075181207 -0.009592092 0.013536726 -0.019520264 -0.0036089558 -0.0060722465 -0.001974054
0.01902199 -0.013506556 0.011297173 0.021882046 0.008805975 0.021061279 -0.005896058 0.040382344
00000000: 6a60 253b ea93 033c 6b6d 6b3a e830 8138
00000010: c7b5 f23b 346a fb3b 6f74 253d f277 8f3c
00000020: dae3 783a 1e01 803c 410c 413c a122 8dbc
00000030: 132d d83c dcb9 46bc d414 1bbb 6147 23bc
00000040: be10 95bb ed76 c4bb eb2a 1b3d 88e3 6b3c
00000050: 5c38 4a3c 30b4 6b3a 7dc6 d73c 29ce 59bc
00000060: 4367 a93a 4b39 893c 2808 16bc 6a93 3ebb
00000070: 60a6 a73c 23a8 253c c5b9 bdbb d182 46bb
00000080: ab7a 5b3c da2c 53bc 45cf 15bc b3ac 423b
00000090: b591 f73b d7da bdbc d43d 0b3d f4f1 5fbc
000000a0: 6c0d bd3c bd93 933b 23e1 09bc 7210 5e3b
000000b0: bdd8 88bc e5a5 973b 85e2 84ba eb6e 90bc
000000c0: bfd3 fc3b 4201 e73c 4124 96b9 98b3 583c
000000d0: 74f4 37bc 5f77 37b8 1740 e23b f0de 823a
000000e0: e1c2 e53b d964 543d aec0 ebb9 1c1d 793c
000000f0: d429 82bb ce7c 2c3c 2175 ce3b c1bd cdbb
00000100: 959e 503b b571 443c 1487 5abb 3148 853b
00000110: cf9c e13c 4aea b03a 64a1 be3c 621c 443c
00000120: 4600 f73b 4b76 e03b 937a af3c 2ab1 863b
00000130: 2073 12bc 6f5b d43c 27b8 7c38 4de5 0f3d
00000140: eba7 cabb a49a 6b3c a222 69bc 8ae2 38bc
00000150: 867e a13b 5181 113b 1568 a2bc a3ea 90bc
00000160: 42ef 303b e908 d3bb 726f 4a3c a888 ac3b
00000170: 2042 b93c 4683 51bc 1598 463c 153f 1d3d
00000180: f4aa 963c 9a64 393a daab 833c e760 d7bc
00000190: f319 e93b 5d24 363c e324 7c3c c211 4fbc
000001a0: 9ca8 be3b ac79 8a3c 261e 36ba 21fa b3bb
000001b0: 8e6e 1c3a ef7a 573b 4c07 ce3b 0e36 abbb
000001c0: 8c3d 42bc edae 5a3c 8447 54bb 8d0c afbb
000001d0: 096e 1f3c ec10 9f3c 62b5 a6bc 883a 0dbc
000001e0: 29ac 153b 9ec2 51bb 191c 2bbc 6437 9dbb
000001f0: 212a 8fbb 23cc 163c 567f 4eba cee8 7dbc
00000200: 7ac8 ac3c 8e72 523c 35b9 45ba d190 5d3c
00000210: 2739 2c3d a5bd 53bb 6ef8 903b 8327 2eba
00000220: 402c c63c 9ffc c8bb db33 1c3c d657 2f3a
00000230: fb64 33bc 7bab b3bc 25a0 0e3b d99d be3b
00000240: 6541 993a ac64 283c a3a8 c7b9 e17f f03b
00000250: 8cb8 0eb8 e37c 94bc d975 e03c 1187 81bb
00000260: 52d4 243a 0b06 293b 44a3 c53c 00ba 093d
00000270: 626b 1a3c aaef 12bc 376f 99bb 1403 1e3d
00000280: 5efc 543c 2196 babb f32a 123d 5fdc e93c
00000290: 9294 e7bb 6386 453c c30d 003d 9dcf a1bb
000002a0: dfd4 853c 10cb af3c d090 10bc ab3c fc3c
000002b0: 8229 3b3c f294 0c3d d932 af3b 8527 7b3c
000002c0: 3dfa 013c d5a6 073d f868 20bc b356 323c
000002d0: 2d47 173c 7ec4 08bc 2f81 a73c 9b99 a0bc
000002e0: 802d 12bb 6eab dc3c 81c4 9e3c 9818 4d3c
000002f0: 811f 86bc 47ab e93b ae6d d9ba 020d 8a3c
00000300: 662f 1f3c b9d5 ba3c 12db dfbb 7af9 5abc
00000310: 4309 883c a68f 543b 1c6d 493c 98c7 1f3c
00000320: 227f 7abc e477 af3b aadf 8bba b9b4 eabb
00000330: 3b52 0d3c cea9 b53b 5919 11bc 17be a73c
00000340: 9662 303c 5a6a 61bb 49f3 903c c4a3 a03a
00000350: 0ea4 5a3c 511b 6f3b c733 d93c d4e9 4d3c
00000360: a801 b3bb 384e c43c 1b2e 593c be00 6c3c
00000370: a9bc 933c c6d6 4f3c e6fd 28bc 4e84 3e3a
00000380: aea2 003c 0001 033d 6845 7e3c bdc0 313c
00000390: 8abe 6d3c b856 9bbc 7d65 cbbb 4ad2 e93b
000003a0: b2f9 723b d693 853b 6e1f 043c 1608 c83c
000003b0: 9cf0 063c 5180 bcbb 3812 2fbc 39df 833b
000003c0: 3f3a 163c 4115 45ba 2628 1dbc 25c9 5d3c
000003d0: f6e8 9fbc 3b84 6cbb b2f9 c6bb 215f 01bb
000003e0: 01d4 9b3c 9a4a 5dbc c717 393c fa41 b33c
000003f0: f046 103c b488 ac3c b833 c1bb f567 253d

model.2.weight f4 [256, 256]
-0.0010255894 0.10946249 0.11084941 -0.14721847 0.14885558 0.030650174 0.01667929 -0.037715446
0.021966016 0.005953119 0.070449956 -0.111627735 0.1333604 0.13776617 0.15212436 -0.100200884
-0.004865852 0.0018143463 0.025319032 -0.14442483 -0.044348996 0.024054423 0.059990842 -0.043983437
-0.01352011 -0.05190259 0.076147065 0.004150345 0.061099414 0.07740598 0.012332012 0.0052590244
0.0035938027 0.1279715 0.12256241 0.015284177 0.07074018 -0.03419025 -0.049478773 -0.027842116
-0.026553134 0.04445671 0.12971479 -0.09269735 0.04115099 0.0004322018 0.037270945 0.08872649
-0.019367546 -0.042983115 -0.07391871 0.021846293 0.115844995 0.009636412 -0.14331006 0.06837821
0.13064387 0.04973495 -0.04737414 0.08955321 -0.032263417 0.046953287 -0.07333231 -0.12231005
0.120437145 0.07350086 0.09269872 -0.13265058 0.12519534 -0.09747236 0.02384199 -0.1445379
0.0731164 -0.09677307 -0.1256252 -0.123345226 -0.04126797 0.14867096 -0.012230023 0.11548089
0.03435316 0.13298807 -0.09182518 -0.05446129 0.073622845 -0.0074787335 0.012298348 0.0033473684
-0.10014729 0.085185274 0.007060425 0.01859769 0.11419813 0.100660965 -0.020046059 0.13391072
-0.12034356 0.09441782 0.038232155 -0.10547045 -0.0681401 -0.02357192 -0.1316118 -0.021353396
0.06649214 0.07753786 -0.14242682 0.05361269 -0.14921688 -0.06552941 0.001598054 -0.058558308
0.035092667 -0.14997904 0.09641119 -0.101473324 0.13563262 0.11145889 -0.11558894 0.061265394
-0.002405376 0.11011834 0.09023536 -0.012579007 -0.08440485 -0.03227071 0.14024623 0.021965943
-0.12890914 -0.1409818 0.1158321 -0.011253923 -0.05325627 -0.015719688 0.109775536 -0.09835583
0.011284404 -0.016173761 0.103578165 0.06464432 0.1170632 -0.13820772 -0.06347533 -0.13460876
-0.050475236 0.08780411 0.120987915 0.13565356 -0.07991599 -0.12864593 -0.026666783 -0.013934071
0.11816065 0.10770553 0.057537477 0.076288454 0.10110354 -0.13966049 0.06718002 0.14416698
-0.11662264 -0.11478013 -0.08167144 0.08109201 0.14445283 0.033782378 -0.10927418 0.032320116
0.037802745 -0.0134270005 0.13709731 0.102555305 -0.08257668 0.053881295 0.07804386 0.09964872
0.0085780155 -0.05252765 0.053753275 -0.14198858 -0.13864954 0.07433311 -0.03634271 -0.047392845
-0.06487232 -0.12141823 0.03909789 -0.104026824 0.08057268 -0.019572368 0.10059 -0.06701305
0.051377922 0.02097137 0.089836165 -0.06818785 0.08985639 -0.08135351 -0.126204 0.03597039
0.06499218 0.030674594 0.09428216 -0.093246736 -0.033603445 -0.030967535 -0.118281744 -0.09486169
0.0905307 -0.077248454 -0.006826492 0.037560906 -0.046866585 -0.12572424 0.018592115 -0.011086841
0.04841157 0.03947172 -0.10065698 -0.12595047 0.100802615 0.02546532 0.080642566 0.07543616
0.053240173 -0.11273775 -0.084495604 -0.102621146 -0.10615812 0.07997115 0.07943883 -0.03584895
0.12759429 -0.012070441 0.045644682 0.08485043 0.09094314 -0.07164747 0.07502515 -0.010759742
0.036227558 -0.08862642 -0.1275493 -0.039192002 0.054939188 -0.031248406 0.019712739 -0.040783804
0.14620319 -0.13493471 0.109314635 0.074777186 0.14590865 -0.10032413 -0.120122895 -0.060578648
00000000: 126d 86ba df2d e03d 0405 e33d 70c0 16be
00000010: 996d 183e 1316 fb3c 02a3 883c 837b 1abd
00000020: 13f2 b33c 6212 c33b 1148 903d 159d e4bd
00000030: a18f 083e 9312 0d3e 7dc6 1b3e 1f36 cdbd
00000040: ba71 9fbb 5ccf ed3a dc69 cf3c 1ae4 13be
00000050: 4ba7 35bd c80d c53c f5b8 753d fa27 34bd
00000060: 7483 5dbc cf97 54bd fef2 9b3d 9eff 873b
00000070: 6143 7a3d 0787 9e3d 350c 4a3c e553 ac3b
00000080: 0186 6b3b f60a 033e 0002 fb3d 7c6a 7a3c
00000090: 3ae0 903d 130b 0cbd 41aa 4abd 2615 e4bc
000000a0: f585 d9bc 3d18 363d f4d3 043e 1cd8 bdbd
000000b0: f18d 283d 2599 e239 6ba9 183d 3cb6 b53d
000000c0: b0a8 9ebc 100f 30bd b162 97bd fff6 b23c
000000d0: 2440 ed3d 0be2 1d3c dfbf 12be e009 8c3d
000000e0: 82c7 053e e0b6 4b3d 630b 42bd ac67 b73d
000000f0: a526 04bd 1752 403d 402f 96bd b17d fabd
00000100: c0a7 f63d 9e87 963d d4d8 bd3d 8ed5 07be
00000110: 3533 003e 979f c7bd 4750 c33c be01 14be
00000120: 0dbe 953d f630 c6bd e4a3 00be 6c9c fcbd
00000130: 9a08 29bd 333d 183e 6f60 48bc 3f81 ec3d
00000140: e6b5 0c3d 062e 083e d70e bcbd cd12 5fbd
00000150: 93c7 963d 2a10 f5bb 037f 493c 865f 5b3b
00000160: 061a cdbd 9e75 ae3d 235b e73b 2f5a 983c
00000170: b6e0 e93d 5627 ce3d a237 a4bc e41f 093e
00000180: af76 f6bd 215e c13d 5299 1c3d e400 d8bd
00000190: 098d 8bbd e619 c1bc 3ec5 06be 51ed aebc
000001a0: 082d 883d 2bcc 9e3d 56d8 11be fb98 5b3d
000001b0: 4fcc 18be 4934 86bd cb75 d13a d6da 6fbd
000001c0: 54bd 0f3d 1b94 19be 3b73 c53d 3fd1 cfbd
000001d0: 47e3 0a3e 8f44 e43d e5b9 ecbd 6cf1 7a3d
000001e0: 83a3 1dbb b985 e13d 51cd b83d 2e18 4ebc
000001f0: 73dc acbd 4b2e 04bd b59c 0f3e ecf1 b33c
00000200: c200 04be 885d 10be 6139 ed3d 6062 38bc
00000210: 3f23 5abd 93c6 80bc ffd1 e03d c86e c9bd
00000220: 39e2 383c d67e 84bc ca20 d43d 3e64 843d
00000230: d5be ef3d 5386 0dbe 5bff 81bd e1d6 09be
00000240: 1fbf 4ebd a4d2 b33d 83c8 f73d c4e8 0a3e
00000250: ffaa a3bd c2bb 03be 4c74 dabc bb4b 64bc
00000260: 36fe f13d b894 dc3d 6bac 6b3d 1f3d 9c3d
00000270: 5f0f cf3d 2903 0fbe ae95 893d 82a0 133e
00000280: dad7 eebd d811 ebbd 5b43 a7bd 9113 a63d
00000290: 71eb 133e 645f 0a3d 24cb dfbd 1962 043d
000002a0: 0dd7 1a3d ecfc 5bbc 3d63 0c3e 8408 d23d
000002b0: f61d a9bd a2b2 5c3d 76d5 9f3d a114 cc3d
000002c0: ce8a 0c3c 3c27 57bd 652c 5c3d 7465 11be
000002d0: 25fa 0dbe f53b 983d 18dc 14bd 001f 42bd
000002e0: c7db 84bd 1faa f8bd 1c25 203d 040c d5bd
000002f0: 4a03 a53d 3b56 a0bc 2102 ce3d 233e 89bd
00000300: a871 523d 27cc ab3c 06fc b73d 12a6 8bbd
00000310: a106 b83d ab9c a6bd 9f3b 01be b055 133d
00000320: 9f1a 853d 4949 fb3c 0117 c13d 25f8 bebd
00000330: c4a3 09bd a1af fdbc b33d f2bd d946 c2bd
00000340: 2968 b93d 7034 9ebd c4b0 dfbb 77d9 193d
00000350: 2df7 3fbd dbbd 00be 7e4e 983c 95a5 35bc
00000360: 364b 463d 19ad 213d 3f25 cebd 29f9 00be
00000370: 9a71 ce3d a69c d03c ee27 a53d 467e 9a3d
00000380: 5e12 5a3d 0de3 e6bd 080c adbd 092b d2bd
00000390: 6e69 d9bd eac7 a33d d3b0 a23d 59d6 12bd
000003a0: 14a8 023e 19c3 45bc ebf5 3a3d 10c6 ad3d
000003b0: 6640 ba3d e9bb 92bd c9a6 993d a149 30bc
000003c0: 5963 143d c581 b5bd 499c 02be cb87 20bd
000003d0: ea07 613d a8fc ffbc 9c7c a13c eb0c 27bd
000003e0: 4ab6 153e 532c 0abe 5ae0 df3d c824 993d
000003f0: 1469 153e bd76 cdbd fe02 f6bd 5121 78bd

model.2.bias f4 [256]
0.022233302 -0.0016451181 -0.008867689 -0.01386867 0.008998027 -0.026097072 -0.0050786776 0.0193075
0.034935676 0.0028982407 0.012700578 -0.009847587 -0.00057707087 -0.01217708 -0.00904248 0.048002996
-0.009886438 0.03450539 -0.017533055 -0.0073979036 -0.005600902 0.00996069 -0.00058773713 -0.011524476
0.03955352 -0.00040520975 -0.016189987 0.029368173 -0.0041777017 -0.004238006 -0.0025990875 -0.019016072
-0.00023825718 0.01690764 0.0007837196 -0.011907026 -0.0024148473 -0.0055803196 0.051032487 0.001466098
0.009924313 -0.0060954154 -0.009089897 0.0035303198 -0.004563471 -0.0012350733 -0.0167602 0.014447682
0.053783122 -0.01129729 -0.003069784 0.018098747 -0.006782343 -0.016394142 0.051436957 0.037570696
0.007308348 0.02150775 -0.0048696464 0.0021581827 -0.0072835158 -0.002140707 -0.013644972 0.006895792
0.036932684 -0.003024349 -0.0015982011 -0.005541232 -0.0009590256 0.011410047 0.033226512 0.013493398
-0.020813873 -0.013274617 0.0092016375 -0.015123082 -0.009975883 0.0018698163 -0.0038274291 -0.009149484
-0.009054422 0.009646541 -0.028617173 0.014841506 0.010089699 0.0020935442 0.01220326 0.004188147
-0.0019640003 -0.0006691172 0.006087287 0.00080220174 0.0069140494 0.016651 0.007181353 -0.019545024
-0.0055373176 -0.013004876 -0.009544662 0.0016665034 0.03395051 0.02985817 -0.0041251704 0.044077896
6.7881665e-05 -0.0063331407 -0.021887641 0.018503293 0.052017786 -0.0032719607 -0.011213956 0.020834597
0.010174529 0.012762551 0.023356583 0.015506567 0.001355466 0.009462014 -0.0063609076 -0.008900799
-0.010736874 0.005997757 0.00448529 -0.012968872 -0.0013496304 -0.009949553 0.0014139579 0.040878695
0.06454076 0.0034227965 0.016476981 -0.010175138 -0.004149002 0.021587655 -0.011305819 -0.008980663
0.004930357 -0.011980034 -0.00083602755 0.0141704185 -0.014649878 0.00026778152 0.0044804453 -0.019282317
-0.00932251 0.01857087 0.0070108315 -0.008947625 0.007894672 -0.016201492 -0.011964052 0.017503854
0.010505399 -0.00018256356 -0.0057960288 0.0027091925 -0.021761637 0.033010233 0.00027082014 0.038091503
0.05703191 0.02788452 0.02178703 -0.006911356 0.007348685 0.053518698 -0.0010914416 0.00054005836
0.0021746643 0.0029625427 -0.0007413776 0.007521499 0.0064184656 0.050623685 0.014126117 0.023213552
0.0069131698 -0.011912539 -0.013066663 0.01346035 0.004045748 -0.009409833 0.023072524 -0.013819203
0.0002874851 0.025068117 -0.01860782 -0.00030243763 -0.0073210034 0.017029673 0.0056477 0.012255482
-0.0007586538 -0.016424881 0.017875476 0.0011663229 0.0006970773 -0.012767003 0.020822134 -0.0002468821
0.026674815 -0.0062621525 0.00048399973 0.04203708 -0.016174221 -0.016866306 0.0022551783 0.055315662
0.006489907 0.0006858721 -0.0029405444 0.032026447 0.0076666377 -0.0045590713 -0.0024607906 0.015799832
0.026656663 0.0070760236 0.0130284075 0.025901532 -0.003182116 -0.0038451217 -0.0030285066 -0.0009888356
-0.010107344 0.002187114 0.015812542 -0.023584064 0.049221437 0.04420845 -0.00549466 -0.009891425
-0.0023379503 0.023881663 -0.003583464 0.0066768136 0.028279066 -0.0067103314 0.0045502577 -0.008248993
-0.0018735864 0.013903426 0.00397152 -0.010250995 0.02163633 0.0004640128 0.011554898 0.0019980455
0.022812704 0.028238323 -0.0020282792 0.024272991 0.036753226 0.01013997 -0.0063157384 0.013814942
00000000: 9d22 b63c 01a1 d7ba c949 11bc 6b39 63bc
00000010: 766c 133c 87c9 d5bc 096b a6bb c32a 9e3c
00000020: b618 0f3d 69f0 3d3b 1616 503c c657 21bc
00000030: 9246 17ba 6082 47bc e926 14bc ca9e 443d
00000040: bafa 21bc 8655 0d3d 7ba1 8fbc 1d6a f2bb
00000050: c587 b7bb 2932 233c 5f12 1aba 28d1 3cbc
00000060: df02 223d 5572 d4b9 dda0 84bc 8695 f03c
00000070: 1ae5 88bb f9de 8abb 7455 2abb 98c7 9bbc
00000080: add4 79b9 e481 8a3c 8872 4d3a b015 43bc
00000090: 6a42 1ebb 1ddb b6bb 7107 513d 162a c03a
000000a0: 9699 223c 0dbc c7bb cbed 14bc f05c 673b
000000b0: 2b89 95bb 2fe2 a1ba b04c 89bc f8b5 6c3c
000000c0: b14b 5c3d 4518 39bc 6e2e 49bb d343 943c
000000d0: 6b3e debb 024d 86bc 8faf 523d bbe3 193d
000000e0: de7a ef3b 0531 b03c 8e91 9fbb 4c70 0d3b
000000f0: 8faa eebb 1b4b 0cbb 298f 5fbc 19f6 e13b
00000100: ba46 173d 2834 46bb bb7a d1ba 3993 b5bb
00000110: 1e67 7bba 35f1 3a3c 8618 083d 6a13 5d3c
00000120: db81 aabc c77d 59bc 77c2 163c cec6 77bc
00000130: e371 23bc a014 f53a 9bd5 7abb b8e7 15bc
00000140: 0059 14bc 870c 1e3c 906e eabc ca29 733c
00000150: 444f 253c d833 093b 2ff0 473c b93c 893b
00000160: 75b6 00bb b267 2fba dd77 c73b d94a 523a
00000170: 408f e23b ae67 883c 8e51 eb3b e31c a0bc
00000180: 6372 b5bb 6712 55bc 3761 1cbc 936e da3a
00000190: b10f 0b3d 1f99 f43c 702c 87bb 068b 343d
000001a0: b15b 8e38 3c86 cfbb b64d b3bc 3894 973c
000001b0: 9a10 553d 646e 56bb beba 37bc 51ad aa3c
000001c0: 11b3 263c 051a 513c 4e56 bf3c 420f 7e3c
000001d0: e4a9 b13a 9006 1b3c 296f d0bb a8d4 11bc
000001e0: b7e9 2fbc d588 c43b 57f9 923b 647b 54bc
000001f0: 15e6 b0ba 7303 23bc 8e54 b93a 6b70 273d
00000200: f22d 843d ff50 603b bcfa 863c 9fb5 26bc
00000210: 5af4 87bb 98d8 b03c 0b3c 39bc a123 13bc
00000220: d58e a13b e847 44bc dc28 5bba 0b2b 683c
00000230: 0b06 70bc 0765 8c39 b3d0 923b f3f5 9dbc
00000240: 71bd 18bc f021 983c 1ebb e53b 0f99 12bc
00000250: a858 013c feb8 84bc df04 44bc 3e64 8f3c
00000260: d61e 2c3c 886e 3fb9 9dec bdbb b58c 313b
00000270: 7645 b2bc bd35 073d ddfc 8d39 d605 1c3d
00000280: 4b9a 693d 146e e43c b77a b23c a878 e2bb
00000290: 3dcd f03b 6c36 5b3d b40e 8fba b492 0d3a
000002a0: d084 0e3b 3827 423b 0259 42ba e876 f63b
000002b0: fe51 d23b c85a 4f3d 3b71 673c 592a be3c
000002c0: df87 e23b cf2c 43bc 8f15 56bc cd88 5c3c
000002d0: 3292 843b b32b 1abc 9702 bd3c f069 62bc
000002e0: 99b9 9639 a75b cd3c 6d6f 98bc 7e90 9eb9
000002f0: 07e5 efbb d081 8b3c 5710 b93b 38cb 483c
00000300: 65e0 46ba 798d 86bc 976f 923c 4ddf 983a
00000310: 11bc 363a b12c 51bc 2e93 aa3c f46f 81b9
00000320: 2485 da3c be32 cdbb 58c1 fd39 132f 2c3d
00000330: cd7f 84bc 352b 8abc 9dcb 133b ad92 623d
00000340: 49a9 d43b 19cc 333a 26b6 40bb 2a2e 033d
00000350: 6b38 fb3b 4364 95bb 3745 21bb a66e 813c
00000360: 135f da3c fddd e73b 1a75 553c 732f d43c
00000370: 0c8b 50bb 70fe 7bbb e979 46bb d19b 81ba
00000380: 4699 25bc af55 0f3b 4e89 813c 5e33 c1bc
00000390: 6b9c 493d eb13 353d 8d0c b4bb a50f 22bc
000003a0: 4c38 19bb 7aa3 c33c 8dd8 6abb 2cc9 da3b
000003b0: 80a9 e73c 57e2 dbbb 541a 953b c926 07bc
000003c0: 2193 f5ba 32cb 633c 8623 823b caf3 27bc
000003d0: ac3e b13c be46 f339 c150 3d3c a4f1 023b
000003e0: b5e1 ba3c 0e54 e73c e1ec 04bb 27d8 c63c
000003f0: 8d8a 163d 1e22 263c 41f4 cebb 1158 623c

model.4.weight f4 [1, 256]
0.119245365 0.005113537 -0.08432964 -0.07321058 0.095487826 -0.1314318 -0.037694998 0.13482913
0.15889719 0.031161001 0.11024386 -0.05061542 -0.040181305 -0.11054112 -0.050941978 0.21233135
-0.06297451 0.14620385 -0.029421214 -0.13749306 -0.0075206365 0.05126078 -0.11575278 -0.10085342
0.19096643 -0.08394427 -0.050777037 0.13133575 -0.0044834493 -0.045808226 -0.12010666 -0.08233894
-0.005240272 0.09298419 0.013703266 -0.09527027 0.003097055 -0.12647437 0.20217742 0.019740414
0.15633094 -0.028439654 -0.083489895 0.0343786 -0.034794897 0.007437904 -0.14208287 0.112789504
0.20915943 -0.13591003 0.0052079386 0.09712056 -0.07651808 -0.03569123 0.205897 0.16434562
0.056780178 0.1595711 -0.0050314926 0.021038992 -0.10626463 -0.028226556 -0.07255185 0.07327535
0.1479872 -0.1002838 -0.10144764 -0.08010637 0.005033141 0.13589798 0.14203152 0.10502581
-0.11363847 -0.11803471 0.08141064 -0.08313675 -0.13566792 0.044203684 -0.149696 -0.046672802
-0.029732268 0.132055 -0.12345962 0.122029796 0.06232034 0.019291604 0.07873904 0.08620832
-0.043906078 0.004664306 0.051528085 0.018187784 0.04499693 0.16174226 0.056287993 -0.1297125
-0.022062263 -0.0328795 -0.10478008 0.022191979 0.18339153 0.18313305 -0.021047795 0.1710277
0.013497688 -0.054304853 -0.087110326 0.08748358 0.20417534 0.0026894803 -0.063454084 0.16363674
0.058278076 0.14152928 0.16732077 0.14242078 0.039099064 0.058832493 -0.087193616 -0.06397692
-0.07212514 0.049243882 0.041290015 -0.10632432 -0.092686914 -0.04979078 0.031458627 0.1857346
0.2454949 0.110445045 0.09457382 -0.05457799 -0.012318288 0.15384153 -0.09795743 -0.06680149
0.055733915 -0.068322 0.009387286 0.07682617 -0.097230636 0.033696722 0.052177202 -0.10919043
-0.063061014 0.08545711 0.062069345 -0.09748603 0.14590718 -0.08804827 -0.043469004 0.12943096
0.067793526 -0.003770674 -0.09736594 0.09409098 -0.12696162 0.1565451 0.044517554 0.1821614
0.22686817 0.13732855 0.107048616 -0.052099735 0.11577385 0.21124275 -0.08393036 0.009739004
0.021870857 0.086035356 -0.005065195 0.052704576 0.043865155 0.20080073 0.087633096 0.13159898
0.0697265 -0.046315446 -0.067158654 0.13085946 0.13446775 -0.14258225 0.10614376 -0.11111132
0.019691356 0.1502541 -0.011179749 -0.0041306885 -0.13831212 0.15055408 0.111842774 0.092607446
-0.052228402 -0.083241336 0.11863364 0.021258613 0.02596458 -0.0044621704 0.11310351 -0.0029511703
0.124669895 -0.034763325 0.014738212 0.1787614 -0.111044526 -0.04164769 0.02366422 0.21362093
0.054888405 0.026071126 0.0009286396 0.130949 0.047841303 -0.14186418 -0.004887009 0.09817555
0.14216805 0.10288376 0.10057638 0.122602746 -0.018541103 -0.031635538 0.012312402 0.0020861835
-0.12452626 0.052835356 0.12915154 -0.08819888 0.21018526 0.20363581 -0.07014678 -0.013987024
-0.05914803 0.1668411 -0.035664026 0.048957605 0.16500129 -0.06408732 0.038814437 -0.03188678
-0.00061240833 0.09396745 0.0318394 -0.017520512 0.10003984 0.010726777 0.0696604 0.065384865
0.13628118 0.16288652 -0.124540254 0.13643877 0.159288 0.056795713 -0.122751996 0.14868282
00000000: ea36 f43d 758f a73b 05b5 acbd 6eef 95bd
00000010: 1f8f c33d 0f96 06be 1266 1abd a610 0a3e
00000020: f2b5 223e 5b45 ff3c 88c7 e13d 1d52 4fbd
00000030: 2795 24bd 6263 e2bd 89a8 50bd 646d 593e
00000040: c8f8 80bd 76b6 153e c204 f1bc fbca 0cbe
00000050: ac6f f6bb d3f6 513d cb0f edbd 3d8c cebd
00000060: b48c 433e f9ea abbd 95fb 4fbd e17c 063e
00000070: e6e9 92bb 68a1 3bbd 7bfa f5bd 51a1 a8bd
00000080: 96b6 abbb 7f6e be3d aa83 603c 0f1d c3bd
00000090: f6f7 4a3b 7f82 01be 9907 4f3e a6b6 a13c
000000a0: 3815 203e 47fa e8bc c0fc aabd 93d0 0c3d
000000b0: 1885 0ebd a9b9 f33b 2c7e 11be 2ffe e63d
000000c0: e42d 563e 002c 0bbe 5ba7 aa3b 25e7 c63d
000000d0: 83b5 9cbd f830 12bd aad6 523e 384a 283e
000000e0: 5592 683d 9b66 233e 38df a4bb f759 ac3c
000000f0: 45a1 d9bd 613b e7bc 1096 94bd 6311 963d
00000100: f589 173e 9861 cdbd c8c3 cfbd cf0e a4bd
00000110: 0ced a43b d728 0b3e b670 113e c617 d73d
00000120: 49bb e8bd 2fbc f1bd 9fba a63d 9a43 aabd
00000130: 88ec 0abe ec0e 353d e949 19be fb2b 3fbd
00000140: 1691 f3bc 6d39 073e 66d8 fcbd c2ea f93d
00000150: 9d43 7f3d 6d09 9e3c ef41 a13d fd8d b03d
00000160: dcd6 33bd 09d7 983b 1d0f 533d 8cfe 943c
00000170: b34e 383d c39f 253e 3d8e 663d 5bd3 04be
00000180: ebbb b4bc a8ac 06bd f096 d6bd f4cb b53c
00000190: fdca 3b3e 3b87 3b3e 6d6c acbc e321 2f3e
000001a0: 6825 5d3c c46e 5ebd e666 b2bd 972a b33d
000001b0: 5713 513e fe41 303b 37f4 81bd 6490 273e
000001c0: feb4 6e3d 0ded 103e 2356 2b3e c1d6 113e
000001d0: 5726 203d 57fa 703d 9192 b2bd 5506 83bd
000001e0: 58b6 93bd f4b3 493d b81f 293d 91c0 d9bd
000001f0: a3d2 bdbd 6bf1 4bbd c3da 003d 3631 3e3e
00000200: 0463 7b3e 0331 e23d ebaf c13d 2c8d 5fbd
00000210: a5d2 49bc a288 1d3e e89d c8bd 38cf 88bd
00000220: 3f49 643d 68ec 8bbd 22cd 193c 0a57 9d3d
00000230: db20 c7bd 9305 0a3d c3b7 553d 3b9f dfbd
00000240: 2226 81bd 2304 af3d 6d3c 7e3d c1a6 c7bd
00000250: b168 153e a752 b4bd 8e0c 32bd 8d89 043e
00000260: 55d7 8a3d 6a1d 77bb cb67 c7bd c6b2 c03d
00000270: 3a02 02be 5c4d 203e 0a58 363d 8588 3a3e
00000280: 2150 683e db9f 0c3e 4e3c db3d 8866 55bd
00000290: d71a ed3d 0550 583e aee3 abbd 5890 1f3c
000002a0: 832a b33c 4e33 b03d eff9 a5bb c1e0 573d
000002b0: f3ab 333d b59e 4d3e fb78 b33d e2c1 063e
000002c0: c4cc 8e3d 44b5 3dbd 7a8a 89bd 0600 063e
000002d0: eab1 093e 1501 12be e661 d93d 558e e3bd
000002e0: c44f a13c 36dc 193e 442b 37bc ba5a 87bb
000002f0: b1a1 0dbe d92a 1a3e d30d e53d f9a8 bd3d
00000300: 73ed 55bd 6f7a aabd 32f6 f23d 8b26 ae3c
00000310: acb3 d43c 6637 92bb d0a2 e73d 6c68 41bb
00000320: ee52 ff3d fd63 0ebd 8b78 713c 3a0d 373e
00000330: 506b e3bd c596 2abd 77db c13c 72bf 5a3e
00000340: aad2 603d 1d93 d53c f36f 733a 7f17 063e
00000350: 3ef5 433d d844 11be 3423 a0bb 4310 c93d
00000360: 8094 113e b9b4 d23d fdfa cd3d 2617 fb3d
00000370: 83e3 97bc 4494 01bd f5b9 493c 5ab8 083b
00000380: a007 ffbd e369 583d 4d40 043e 9da1 b4bd
00000390: ce3a 573e e885 503e 1da9 8fbd d529 65bc
000003a0: 3445 72bd 65d8 2a3e 7114 12bd c587 483d
000003b0: 19f6 283e 3640 83bd e3fb 1e3d b69b 02bd
000003c0: 078a 20ba 0272 c03d 086a 023d 2d87 8fbc
000003d0: b0e1 cc3d 5dbf 2f3c 1daa 8e3d 80e8 853d
000003e0: 4b8d 0b3e b9cb 263e f60e ffbd 9bb6 0b3e
000003f0: 651c 233e 9fa2 683d 6665 fbbd 4f40 183e
