models/neural_networks/regression/2024-08-15_16-48-39/model.pt (torch, 467252 bytes, 5 tensors)

model.0.weight f4 [128, 777]
000000 5f e7 ae 3d 64 a9 d3 3d a2 b8 4b bd fc a3 2f bd
       0.08540224 0.10335043 -0.049736626 -0.042880997
000010 bb d5 15 bc 5d d2 a0 3d 22 78 46 3c bd e5 d4 bd
       -0.009145196 0.078526236 0.012113603 -0.103953816
000020 db 0a 8f bc 01 bd 09 3d 78 02 07 3e 5f da 16 3e
       -0.017461231 0.033627514 0.13184536 0.1473174
000030 b1 2f 07 3e d8 61 5e 3d 9f 62 0f bd 56 35 7e bd
       0.13201787 0.05429253 -0.03500616 -0.062062584
000040 0e 4a c2 bc 30 3f f3 bb 97 10 ad 3d d9 c5 b9 3b
       -0.023716953 -0.007423304 0.0845043 0.005669337
000050 3d f5 54 3d 86 84 a6 bc 1e 48 68 3d 10 30 bf bb
       0.05199169 -0.020326864 0.0567094 -0.005834587
000060 3c 34 24 bc ba c1 16 3d bd ed 2e bd b2 ab 4f 3d
       -0.010022219 0.036805846 -0.042707194 0.05070085
000070 8d bf 8a 3d c7 15 12 3c df 03 8f 3d 32 1c b3 3c
       0.06774817 0.008916325 0.0698316 0.02186403
000080 98 c8 a4 bd bb 5e 8b 3d 97 b8 a1 3d 48 b3 16 3d
       -0.08046073 0.06805178 0.07896536 0.03679207
000090 d1 60 ab 3d a6 c8 2a bd 02 37 e1 3d 9f 3a 39 3d
       0.08368076 -0.04169526 0.1099682 0.04522192
0000a0 00 9c a4 bc 0a f7 78 bc 58 c9 9a bc 40 c9 56 bb
       -0.020093918 -0.015195617 -0.018894836 -0.0032773763
0000b0 20 3e 67 bd 72 f6 4e 3d 48 6d e8 3c 36 c9 80 3c
       -0.05645573 0.050527997 0.028372422 0.015720945
0000c0 32 c1 0f 3d bc c4 ce 3c 38 bf 99 3c f9 61 73 3d
       0.035096355 0.025240295 0.018767938 0.059419606
0000d0 21 b7 21 3d bc 59 a5 3c a4 5d a3 bc 26 42 1e 3d
       0.039481286 0.02018439 -0.019942112 0.038637303
0000e0 e4 ce ab bc 80 dd 9d bb 1e 9a b7 3d 60 05 55 3d
       -0.020972677 -0.0048176646 0.089649424 0.05200708
0000f0 a0 78 15 3c 33 82 96 3d 76 62 be 3d 1b 95 95 3d
       0.0091229975 0.07349052 0.09296124 0.0730383
000100 06 6e 29 3d a0 c3 7f bc a5 0d a3 3d 74 42 6d 3d
       0.041364692 -0.0156106055 0.07961587 0.057924703
000110 6c 14 a7 3c 35 35 41 bb 23 d2 7f 3d 91 24 3d 3d
       0.02039548 -0.0029481177 0.06245626 0.04617745
000120 65 bd 8c 3d 52 9f 97 3d 83 3e 85 3d c9 72 0c 3d
       0.06872062 0.07403435 0.06506064 0.034289155
000130 22 a4 9c 3d 92 8f 3c 3d f2 53 5f 3d 90 9e 8b bc
       0.07648493 0.046035357 0.054523416 -0.017043382
000140 f5 b7 aa 3d d4 ee a6 bd 09 22 ae 3d 25 8b 88 3d
       0.08335868 -0.081510216 0.085025854 0.06667165
000150 1a 3a c3 3d 2b 08 80 bd ea fd 31 bd 77 1c 40 3d
       0.09532566 -0.06251558 -0.043455042 0.046902146
000160 16 72 81 3d 0a 83 94 3d 3e 8f 6a bd 10 24 12 3d
       0.06320588 0.07251556 -0.057265513 0.035678923
000170 a9 ee 65 bc 0d 85 07 3c b5 e0 a2 3d ea d9 1f 3d
       -0.014033952 0.008271468 0.07953016 0.03902618
000180 14 7e cc 3c 70 22 3a 3d 81 c8 84 3d 26 2e 25 bd
       0.024962462 0.045443 0.064835556 -0.040327214
000190 18 c3 5f bc b9 17 b4 3c f6 f4 6a 3d 94 b2 a1 bc
       -0.013657354 0.021983968 0.05736252 -0.019738473
0001a0 e4 f6 a9 3d 2c a4 07 bd 72 6e 48 b9 15 f0 ad bd
       0.08299044 -0.03311555 -0.0001911463 -0.08493058
0001b0 86 89 db bc 76 60 bd 3a d0 70 c6 3c d2 db 94 3d
       -0.026798975 0.0014448303 0.024223715 0.0726849
0001c0 1d da 1d 3d cd fa b1 bd a6 75 32 3d cc a8 83 bc
       0.038538087 -0.086904146 0.04356923 -0.0160717
0001d0 97 49 3c bd 98 66 12 bc 01 cf 41 bd 46 de cd 3c
       -0.04596862 -0.008935593 -0.047316555 0.025130402
0001e0 7d 58 92 3c c6 8c 73 bd fb 64 bd bc 6a ab 88 bd
       0.01786446 -0.059460424 -0.02311944 -0.0667332
0001f0 ed 35 a9 3b 3f 36 88 bd 83 9c 3c 3b 45 63 d5 3c
       0.005163899 -0.066509716 0.0028779812 0.026048312
000200 5f ce aa 3d a0 aa f2 3c b4 93 17 bd 87 27 a2 3d
       0.083401434 0.029622376 -0.037006095 0.079176955
000210 56 54 ac bb ca cd f7 3d bd 6c 85 3d 50 3b 65 bd
       -0.005259077 0.12099798 0.06514881 -0.055964768
000220 a5 b3 b2 3d ac f5 24 bd fb 3a af bd 14 94 36 3d
       0.08725671 -0.040273353 -0.085561715 0.044574812
000230 23 8a 7a 3d cb c0 8d 3d 31 03 e8 3c f6 65 8c 3d
       0.061166894 0.06921538 0.028321834 0.06855385
000240 a0 25 85 3d 5f 20 d0 3d a3 b3 00 bd 2d 24 19 bd
       0.06501317 0.10162424 -0.031421315 -0.037388016
000250 1b b3 80 3d 56 df 45 3d 02 02 d6 bc 5d 01 b6 bb
       0.06284162 0.048308693 -0.026124004 -0.0055543617
000260 31 7c b0 3d b9 84 18 bd 3f 0d 5f bd 83 75 5e 3d
       0.08617438 -0.03723595 -0.05445599 0.054311287
000270 92 bd 2d 3d f3 fa ae 3d 10 8b 29 bd 96 bd e2 3d
       0.042417116 0.085439585 -0.041392386 0.11071317
000280 39 d9 e5 3c e8 84 6d bc b7 05 23 3d 29 d7 1f bd
       0.028057681 -0.014497019 0.039800372 -0.039023552
000290 af c7 98 bd e5 64 a0 bc 12 32 19 bc f3 30 99 bd
       -0.074599616 -0.01957936 -0.009350317 -0.074800394
0002a0 fe 44 db 3d 63 e5 0d 3d 12 44 9c 3d c4 ff b6 3d
       0.107065186 0.03464259 0.07630171 0.08935502
0002b0 4f e3 3a 3d c0 76 8c 3d 4e bd 4a bd a0 d9 24 3c
       0.045626935 0.06858587 -0.04949694 0.0100616515
0002c0 64 d3 51 3d 6e 03 22 3c 93 e1 a5 3d a2 89 0d 3d
       0.05122699 0.009888513 0.080996655 0.034555085
0002d0 2d 56 ec 3d 75 ba 7f 3d 46 01 cc bc fb f9 26 bd
       0.11539874 0.06243368 -0.024902951 -0.040765744
0002e0 08 3f e6 3d bf d3 66 bd 2c fd c3 bc 14 14 c7 3d
       0.11242491 -0.05635428 -0.023924433 0.097206265
0002f0 a9 26 a9 3d 6c 54 cd 3c 7f a8 2d 3c 79 a0 be bc
       0.08259327 0.02506467 0.010599255 -0.023269879
000300 dc 4c 16 3d d3 42 21 bc a8 9c 8b bc 64 c0 68 3d
       0.036694393 -0.009842592 -0.017042473 0.056824103
000310 4f fd 32 bd d0 1f 84 3c 2d e2 33 bd c5 93 2e 3d
       -0.043698605 0.01612845 -0.04391687 0.042621393
000320 e8 c4 8f bd 16 b6 e0 3d 9a 80 53 3c fb 1c a8 bd
       -0.07019979 0.1097223 0.012909079 -0.082086526
000330 39 d1 66 bd 80 b7 e6 bb 7a 36 5e 3d 68 e8 9b 3c
       -0.056351874 -0.007040918 0.05425117 0.019031718
000340 f0 75 a3 ba 15 21 a0 bd 2e 91 04 3d 8a 74 94 bd
       -0.0012471061 -0.0781881 0.032365017 -0.072487906
000350 1d 50 ec 3d f9 25 26 bd 78 48 c0 bc 5e 6e 4e 3d
       0.11538718 -0.040563557 -0.023472056 0.050398223
000360 04 59 0f bd b3 40 d8 3d 75 44 b4 3d b1 6b fc 3d
       -0.034997 0.105592154 0.0880212 0.12325228
000370 b2 5b 86 bc 0c 92 12 3d fb 5a 05 3c 65 ad f5 bc
       -0.016401146 0.035783812 0.008139367 -0.029989908
000380 7b c3 8e 3d f2 e4 79 3d f5 75 93 3d 4d 78 13 bd
       0.06970879 0.061009355 0.07200233 -0.0360034
000390 02 88 38 bd ec 3e 45 3d 6c 10 c4 bb 46 ac 62 3d
       -0.045051582 0.04815571 -0.005983403 0.055340074
0003a0 d4 53 72 bd bf 6c 59 bd 06 aa 87 bd 83 00 7a 3d
       -0.059161976 -0.053082224 -0.06624226 0.061035644
0003b0 83 a2 b0 bd f4 0f 24 bc c9 07 26 3d 22 16 06 bd
       -0.08624747 -0.010013569 0.04053477 -0.03273595
0003c0 13 be c1 bb b4 45 ce 3c de 55 83 bd f2 a7 b0 bd
       -0.005912551 0.025179721 -0.06412862 -0.08625783
0003d0 72 75 71 3d 5c 1e 7c bd d4 28 72 bd 61 c0 ba 3c
       0.058949895 -0.06155239 -0.059120968 0.022796812
0003e0 0c 8e 8c 3d 85 d0 85 bb c2 96 71 3d e0 c2 35 3c
       0.06863031 -0.0040836954 0.058981664 0.011093825
0003f0 59 a5 9f bd f4 5f cd bc 48 74 21 3d 70 a0 9d bd
       -0.077952094 -0.025070168 0.039417535 -0.07696617

model.0.bias f4 [128]
000000 67 28 aa 3d b9 2a d1 3d 7f 18 b2 3d 68 95 e9 3d
       0.083084874 0.10213227 0.086960785 0.1140545
000010 55 ca fb bc 51 4d de 3d 13 bb ca 3d e1 0e e4 3d
       -0.030736128 0.10854591 0.09898963 0.111356504
000020 a2 23 d4 3d 1f b3 82 3d f4 35 e3 3d 3d 35 c2 3d
       0.10358359 0.06381821 0.11094275 0.09482811
000030 11 1a c9 3d 53 5f dd 3d 6d 1e b7 3d 50 fc c5 3d
       0.09819425 0.10809197 0.0894135 0.096672654
000040 15 b5 ee 3d 74 0d da 3d de 9f d3 3d d5 c3 2b 3d
       0.116556324 0.10647097 0.103332266 0.041934807
000050 b2 a0 42 bb 19 66 97 bc b3 32 da 3d b3 32 f2 3d
       -0.0029697833 -0.018481301 0.10654201 0.11826076
000060 57 82 dc 3d 0c 10 3e 3d d3 72 cc 3d e9 3f bf 3d
       0.10767048 0.046402022 0.099828385 0.09338362
000070 1a 8b e4 3d e4 e4 40 3d 9a 15 d5 3d df 36 e1 3d
       0.11159344 0.047093287 0.10404511 0.10996794
000080 a5 45 e0 3d b9 f7 a4 bc 08 f6 ab 3d 4c 81 e8 3d
       0.10950784 -0.020137655 0.08396536 0.113527864
000090 9c 5d cc 3d 39 f5 f0 3d 4d e7 d3 3d 8f 2d e3 bb
       0.09978792 0.117655225 0.103468515 -0.0069329212
0000a0 e0 24 cf 3d 8c c6 dd 3d c6 87 ae 3d da c5 e3 3d
       0.10114455 0.108288854 0.085219905 0.111217216
0000b0 b1 70 b6 3d 2d 4b d0 3d 75 2e b3 3d 18 4e df 3d
       0.08908213 0.10170589 0.08749095 0.10903567
0000c0 b4 31 d1 bb 46 08 a4 3d 35 81 e9 3d 7a 0c d5 3d
       -0.006384099 0.080093905 0.114015974 0.1040277
0000d0 25 eb e3 3d 8b 1b c9 3d c4 70 d7 3d c0 e6 c3 3d
       0.11128835 0.098197065 0.10519555 0.095654964
0000e0 b8 ce e9 3d 0f b7 d7 3d ff 2d 8f 3d da 22 a7 3b
       0.114163816 0.105329625 0.06991195 0.00510059
0000f0 c6 05 e5 3d 35 6f 6f 3d 71 f1 d7 3d 01 d9 e6 3d
       0.11182742 0.058455665 0.10544098 0.11271859
000100 fe dc c7 3d 6d ab c4 3d 7c 99 35 3c ab 52 d6 3d
       0.09758948 0.096030094 0.011083957 0.104649864
000110 55 03 0c bd 87 99 ed 3d 83 9c bf 3d fc 7e f0 3d
       -0.034182865 0.11601549 0.09356024 0.1174297
000120 09 bd ea 3d 91 29 e5 3d 61 40 eb 3d b1 88 cd 3d
       0.11461837 0.11189569 0.11486889 0.100358374
000130 1f 21 ea 3d 09 1f 89 3d e0 4e e3 3d a9 60 cf 3d
       0.114320986 0.066953726 0.110990286 0.10125858
000140 78 ae f4 3d 1b 99 f5 3d 9c 7d 35 3d 25 7d 75 3d
       0.1194734 0.11992093 0.044309244 0.0599338
000150 46 b0 72 3d 07 ee 06 3e 99 ad d4 3d 1f 95 be 3d
       0.05925014 0.13176738 0.103846736 0.09305786
000160 c4 47 e2 3d 46 8e b3 3d 42 f7 18 3d 59 25 11 3c
       0.110488445 0.08767371 0.03734518 0.008859002
000170 46 44 eb 3d e4 03 e8 3b 20 08 c8 3d ac 27 fc 3d
       0.114876315 0.007080542 0.09767175 0.12312254
000180 7b 72 e3 3d a9 49 d0 3d 64 bb 0f bd 9f 2e 44 ba
       0.1110582 0.101702996 -0.03509082 -0.0007483754
000190 e3 40 95 bc cf c6 e7 3d 57 75 d4 3d 71 20 88 3d
       -0.018219417 0.113172166 0.10373943 0.06646813
0001a0 76 68 f1 3c c3 8c de 3d 75 69 ff 3d 48 42 c0 3d
       0.029468756 0.10866692 0.12471286 0.09387642
0001b0 d1 ee c1 3d f2 f9 e7 3d 6f 99 91 3d 8d aa ae bc
       0.09469379 0.1132697 0.07109343 -0.02132156
0001c0 8e 80 8f 3a d8 62 a7 3d dd ac af 3d 59 98 a7 3d
       0.0010948346 0.0817315 0.08577893 0.08183355
0001d0 be 74 d1 3d 17 b3 cd 3d b8 a2 7c 3d 82 13 e1 3d
       0.10227345 0.10043924 0.06167862 0.10990049
0001e0 0c e1 92 3d 36 87 b8 3d 74 55 e3 3d e4 08 cd 3d
       0.071718305 0.090101644 0.11100283 0.100114614
0001f0 5b 43 cb 3d 70 b4 d2 3d cd 59 f0 3d 71 9f cf 3d
       0.099249564 0.10288322 0.11735878 0.10137833

model.2.weight f4 [128, 128]
000000 12 c4 3f 3e 40 59 0a be e1 5f 99 bd 9c 66 3a bb
       0.18727139 -0.13510609 -0.074889906 -0.0028442508
000010 41 10 80 3d fe 25 0f 3e 53 7a 34 3e 1a 65 55 be
       0.062531 0.13979337 0.17624788 -0.20839348
000020 ad 83 03 be 96 16 22 be 11 4a d9 3d 7a ec 1e 3e
       -0.12843199 -0.15828928 0.1060983 0.15519896
000030 5d b4 42 be 2f 05 e1 3c 62 62 80 3c 9f 05 9f 3d
       -0.19014116 0.027468292 0.015671913 0.07764744
000040 ea 0e 6c 3d 99 9f f1 bd 1d 57 0f 3e 5c 8a dd 3d
       0.05763141 -0.11798019 0.13998075 0.108174056
000050 fa 1b 70 be c8 44 c4 3d 30 c1 dd 3d 8a 0d 67 3d
       -0.23448172 0.095834315 0.10827863 0.056409396
000060 c8 c4 a8 bd b2 f6 28 3e 12 a4 e6 3d 3f a8 ac bd
       -0.08240658 0.16500357 0.11261763 -0.08430528
000070 d7 5c 30 be 46 9c 3d be e3 54 48 3d 0a ae 73 be
       -0.17222916 -0.18516645 0.04890908 -0.2379686
000080 4a b2 2d be 01 20 f5 bd 7b 67 6d be 9b f1 88 bd
       -0.16962543 -0.11968995 -0.23184006 -0.066867076
000090 8a 11 c6 3d e6 c0 2f 3e b9 aa 1e 3e 74 51 5b be
       0.09671314 0.17163429 0.15494813 -0.2141779
0000a0 ce 33 99 bd ce 23 49 bd 6c fe eb bd 67 31 ca bd
       -0.07480584 -0.04910641 -0.115231365 -0.09872704
0000b0 e2 1c 05 3e c2 e7 d5 3d 59 fa 33 3e d0 26 4b be
       0.12999299 0.10444595 0.17575969 -0.19839025
0000c0 47 1b 85 bd c6 79 1d be 54 66 c1 3d d6 55 66 3d
       -0.06499343 -0.15378484 0.09443346 0.056234203
0000d0 13 a0 b8 bb a0 14 37 3e 0a 5f b5 3c d8 8b a5 bd
       -0.0056343167 0.17878962 0.022140045 -0.08083314
0000e0 3d 90 6c 3d 20 2c ac bd f9 22 de 3d 0e 23 48 bd
       0.057754744 -0.08406854 0.10846514 -0.048861556
0000f0 b6 2b 21 bd 41 3a 2e bc d9 0b 9f bd 98 29 60 be
       -0.039348327 -0.010634006 -0.07765932 -0.21890867
000100 7f 64 75 be ba 26 17 bd 19 2d 33 be f0 4e f4 3d
       -0.23964117 -0.036902167 -0.17497672 0.11929119
000110 00 fb 55 be 7e d0 88 bd 18 e9 2e be f4 cd 2b be
       -0.2089653 -0.06680392 -0.17081106 -0.16777784
000120 dd 4f 20 3e 3b 61 ad 3d b9 5d dc 3a d9 e5 6d be
       0.15655465 0.08465811 0.00168126 -0.23232211
000130 1d a4 f4 bd de 9d ac 3d 95 ad 15 3e 70 cc ca bd
       -0.119453646 0.08428548 0.14616998 -0.099022746
000140 96 39 f2 3d 21 4a 4e 3d e6 0f 2f be 10 36 2a be
       0.1182739 0.050363664 -0.17095909 -0.16622186
000150 4a 0d 14 3c a0 05 72 be 39 b0 33 be be 21 2a 3d
       0.0090363715 -0.23634958 -0.17547692 0.041536085
000160 81 05 3f be 68 06 08 3e a0 d0 b4 bb 64 19 05 3e
       -0.18654443 0.13283694 -0.005518034 0.12997967
000170 a8 41 47 be eb 06 31 be 15 88 dc bd eb 38 be 3d
       -0.1945864 -0.17287795 -0.10768143 0.092882
000180 96 aa 0a bd b0 61 0c be 8e e0 43 3e fc 7b 9e 3c
       -0.03385409 -0.1370914 0.1912863 0.01934623
000190 0e f1 e0 bc c7 37 24 3e 8a 8e 1d 3e dd 87 3e be
       -0.027458694 0.16036902 0.15386406 -0.18606515
0001a0 88 69 10 3d 79 fc 67 be 98 d3 27 3e f7 ec 2c be
       0.035256892 -0.22654904 0.1638931 -0.1688727
0001b0 4f 99 b8 3d eb c9 85 bd 22 bf 0b 3e d2 2e c5 bd
       0.09013616 -0.065326534 0.1364713 -0.09628071
0001c0 46 19 cd bd 25 12 0e bc ec 34 66 be 76 25 4e be
       -0.10014586 -0.008671318 -0.22481126 -0.20131478
0001d0 42 fd 6a bd b5 a3 ae bd 44 c6 64 be b7 eb 8d bd
       -0.05737043 -0.085273184 -0.22341257 -0.06929725
0001e0 59 c0 2a bd bd 6c fa bd 2b 66 f8 3d 96 d7 cd bd
       -0.041687343 -0.122277714 0.12128862 -0.100508854
0001f0 00 48 eb 3d 26 c4 b6 3d 05 e2 1f 3e 20 40 f5 bd
       0.11488342 0.08924131 0.15613563 -0.119751215
000200 47 43 00 3e 5a 7c fb 3c 03 50 a2 bd 0b 4d 53 3e
       0.12525664 0.030698944 -0.07925417 0.20634858
000210 fa a2 9e bb fc bc 25 3e ab c1 a8 bd 81 dd fd 3d
       -0.0048412057 0.16185373 -0.08240064 0.12395764
000220 db b4 c8 3d d9 5d b4 bc 27 bb ac 3e 3c 3c 66 3e
       0.098001204 -0.022017406 0.33736536 0.22483915
000230 5d fe 6b 3e 90 f7 91 3d 8a eb 9c 3c e8 95 1d 3e
       0.2304625 0.07127297 0.019155283 0.15389216
000240 ce 6c 97 3e 70 91 a6 3e bf 4d 01 bd 8f 29 9e 3e
       0.295752 0.32532835 -0.031568285 0.30891082
000250 4f 2e 38 3e d0 33 eb bd 3f a5 c6 3d ef 2f 8e 3e
       0.17986415 -0.11484492 0.09699487 0.27770945
000260 e6 60 92 3e fd 2d f7 bc a3 ed 85 3e d7 67 49 3d
       0.28589553 -0.030173296 0.26157865 0.049171295
000270 1e e4 6a 3d 9e d8 9d 3e 6e 24 99 bd 4e a9 41 3e
       0.057346456 0.30829328 -0.074776515 0.18912241
000280 4e 0c 67 3e db a8 89 bd b6 6b a6 3e 26 72 53 3e
       0.22563288 -0.0672166 0.32504052 0.20649013
000290 fa d7 d8 3c 40 a2 38 3e 30 97 17 bd b4 55 d6 3d
       0.026470173 0.18030643 -0.037009418 0.10465565
0002a0 ed 3c 65 bc 22 a2 60 3e 25 55 f9 3d 0e e7 ee 3d
       -0.013991577 0.21936849 0.12174443 0.11665164
0002b0 23 0f 78 3e 5a 20 fe 3d ce fe 65 bd 78 c9 8d 3d
       0.24224524 0.12408514 -0.056151204 0.06923193
0002c0 10 69 a3 3e e5 ef 05 3e de 0f 51 3e 48 ff ec bc
       0.31916094 0.13079794 0.20416209 -0.028930321
0002d0 b7 b3 a7 bd 10 d3 6c 3e df 91 c4 3d cb 14 24 3d
       -0.08188575 0.23127389 0.09598135 0.040058892
0002e0 29 7b 02 3e 84 1e 8e 3c 08 e3 ea 3d 54 e4 28 3a
       0.12742294 0.017348535 0.11469084 0.0006442715
0002f0 7d 5c 17 3e c4 c5 85 3e 10 0c 59 3e d1 d0 85 3e
       0.14781375 0.26127446 0.21196008 0.26135877
000300 a6 90 0c 3e 2b a6 a6 3e 78 0e 82 3d 26 e6 3a 3e
       0.13727054 0.3254865 0.06350416 0.18251857
000310 3a c8 6c 3c ee 88 97 3d 2b f4 a4 3d d8 db da 3d
       0.014452035 0.07399164 0.08054384 0.10686463
000320 f1 15 ec bc 3b 20 21 3e 3e 97 56 ba 34 29 84 3e
       -0.028819056 0.15734951 -0.0008185989 0.25812685
000330 1b 61 5f 3e 8b 87 5f 3e a7 8c d7 3d 94 61 db 3d
       0.21814387 0.2182905 0.10524874 0.10711971
000340 0a b5 2f 3a a2 ab 61 3e a0 66 66 3e e2 41 99 3e
       0.0006702697 0.22038129 0.22500086 0.29933077
000350 2e fb 93 bd 95 23 60 3e 86 f0 11 3d 5d f9 cb 3d
       -0.07225643 0.21888573 0.03562977 0.09959672
000360 b7 ee b4 3c d4 0b c4 3d 71 40 f9 3d b7 a4 db 3d
       0.022086484 0.095725685 0.12170494 0.10724776
000370 9f 21 94 3d 4d a0 9c 3e bb bf b5 3d 1a b3 94 3e
       0.07232975 0.3059105 0.0887446 0.29042894
000380 ba 3d 27 3d 4c 9c 1a 3e 2c 6b 8f 3d 23 d6 36 3d
       0.04083035 0.15098685 0.07002863 0.04463781
000390 96 0a f5 3d 36 b6 42 bc 7e be 71 3e 86 00 aa bc
       0.1196491 -0.011884263 0.23607823 -0.020752203
0003a0 f6 43 40 bd ed 5b 54 bd 5c 67 c4 3d 09 13 e2 3d
       -0.046939813 -0.05184548 0.09590027 0.11038787
0003b0 78 88 54 3e 89 84 82 3e 6b d9 3d bd 33 77 40 3e
       0.20755184 0.2549174 -0.046349924 0.18795471
0003c0 de 07 d1 3d e3 e5 a8 3e b8 f1 85 3e 90 5b 8b 3e
       0.10206579 0.3298789 0.2616098 0.27218294
0003d0 d2 0f 8b bd eb ac 83 3e fa 4c 26 3e 8f f4 45 3b
       -0.06790127 0.25717863 0.16240302 0.0030205583
0003e0 c5 00 f8 3d 61 7f dd 3d 21 af 84 3e 11 a2 30 3e
       0.12109522 0.10815311 0.25914863 0.17249323
0003f0 ee 11 20 3e f3 03 b6 3c c4 89 9c 3d 9a c1 eb 3d
       0.1563184 0.02221868 0.07643464 0.11511536

model.2.bias f4 [128]
000000 5c 16 e7 bc 15 21 e7 3d a9 38 bd bc f2 cf db bc
       -0.028208904 0.11285607 -0.023098307 -0.026832554
000010 39 de 00 bd 65 12 c4 bc 23 4d b5 3d 90 eb 83 3d
       -0.031461928 -0.023934552 0.08852603 0.06441414
000020 25 0f 83 3d 75 be eb 3d bf e7 b7 3d f8 52 8d 3d
       0.06399373 0.11510936 0.08979749 0.06900591
000030 13 21 be bc 83 a5 e8 bc c4 06 d6 3d 2c 3d dc bc
       -0.02320913 -0.028399235 0.10450509 -0.026884638
000040 4d 76 b6 3d da 65 9c bc 85 be a9 3d a6 97 de 3d
       0.08909283 -0.019091535 0.08288292 0.108687684
000050 69 93 93 bc 2a 99 ad bc c7 93 ac 3d a4 4c d8 bc
       -0.018014627 -0.021191198 0.08426624 -0.026403733
000060 60 66 cb 3d e4 e0 93 3d de 5f c6 bc 66 7c 8e 3d
       0.09931636 0.07220629 -0.024215635 0.06957321
000070 62 2c 99 3d 11 d7 80 3d 73 cb 9c bc 3b 52 ab 3d
       0.074791685 0.06291021 -0.01913998 0.083652936
000080 0b f4 9f 3d 48 00 a0 bc e7 3f b5 bc f6 3d c4 bc
       0.078102194 -0.019531384 -0.022125198 -0.023955327
000090 cf 60 8b 3d 14 7e b6 bc 50 e7 a0 3d 5b 32 92 3d
       0.06805574 -0.022276916 0.07856619 0.07138511
0000a0 09 0e 9e 3d 17 46 8f 3d fa 6a 0b bd bf 32 b2 bc
       0.07717521 0.069957905 -0.034037568 -0.021752713
0000b0 d3 6f b4 bc 9d 09 a2 3d 14 d1 b3 bc 28 1a 92 bc
       -0.022025978 0.0791199 -0.021950282 -0.017834738
0000c0 e4 0e 9e bc eb 7b bd bc 47 d5 89 3d 0d 1e 8a 3d
       -0.01929421 -0.023130378 0.067301326 0.06744013
0000d0 c1 d3 f4 bc 2e da 85 3d cf 1e d4 bc c6 30 9d 3d
       -0.029886128 0.06535755 -0.025893597 0.076753184
0000e0 c8 9d bf bc c5 7e b5 bc 21 cb c4 3d 09 44 c8 3d
       -0.023390666 -0.022155175 0.09609056 0.09778602
0000f0 db dd 83 bc c7 09 9d bc 8b 26 8b bc 0c b6 a3 3d
       -0.016097 -0.019169701 -0.016986152 0.07993707
000100 c0 32 9e 3d 80 af cd 3d 1a c0 91 3d 81 04 85 bc
       0.077245235 0.100432396 0.071167186 -0.0162375
000110 8d 05 d8 3d d5 d3 ad 3d 5d 3d d2 bc cb 5d ca 3d
       0.10547934 0.084876694 -0.025664026 0.09881171
000120 6f 48 99 3d 1e 2d bf bc 2f aa e3 bc c9 24 c5 bc
       0.07484519 -0.023336943 -0.02779111 -0.024065392
000130 da eb 8b 3d f1 89 1f bc 0a dc f5 bc 9f 33 e7 3d
       0.068320945 -0.009737478 -0.03001215 0.11289143
000140 e1 b4 a8 bc e6 85 b7 bc 6a 33 a7 3d cb 6b b0 bc
       -0.020594062 -0.022402715 0.08164103 -0.021535775
000150 88 4f f6 bc ad e7 c0 bc d5 70 99 3d a6 e1 a7 bc
       -0.03006722 -0.023547972 0.07492224 -0.02049334
000160 88 50 95 3d 20 5f 90 3d 68 96 90 3d f8 a6 bb bc
       0.07290751 0.07049394 0.07059938 -0.022906765
000170 88 29 a8 bc b1 b4 c2 bc 84 75 aa bc b8 dc a0 bc
       -0.020527616 -0.023767801 -0.020807989 -0.019636497
000180 4e 25 bc bc 3e fa ab 3d 2c df d2 bc 63 5a d8 3d
       -0.022967007 0.08397339 -0.025741182 0.10564115
000190 69 96 99 bc e1 e0 bd bc 2a 36 cf bc fd 2b 99 bc
       -0.018748479 -0.02317852 -0.025294382 -0.018697733
0001a0 59 8a cd bc 81 0c 9a 3d 8d fc 88 3d e5 fb 7f bc
       -0.025090383 0.07521916 0.06688795 -0.015624021
0001b0 75 d1 ad bc 09 10 b4 3d 4e 5f 88 bc 49 96 98 bc
       -0.021218041 0.08792121 -0.016647007 -0.018626349
0001c0 b0 24 ef bc 20 6a de 3d a5 a4 b1 3d 59 9a a7 bc
       -0.029192299 0.108600855 0.086739816 -0.02045934
0001d0 aa 55 82 bc 07 de f7 bc c4 73 f7 bc 65 1b f5 bc
       -0.015909988 -0.030257238 -0.030206569 -0.02992029
0001e0 82 af d5 bc 46 ab df bc 39 ec 86 bc 90 36 e2 bc
       -0.026084665 -0.02730335 -0.016470062 -0.027613908
0001f0 14 97 be 3d a4 00 8f bc 2d 81 d3 bc e7 4f c7 bc
       0.093061596 -0.01745636 -0.025818432 -0.024330093

model.4.weight f4 [1, 128]
000000 a2 12 8a bd 50 4b 12 3e 09 28 cc bd f9 c6 9d bc
       -0.06741835 0.14286542 -0.099685736 -0.019259917
000010 66 66 4b bd 23 99 3e be 52 73 a9 3e 79 eb 82 3e
       -0.0496582 -0.18613105 0.33095795 0.25570276
000020 4e bf 93 3e 7a a6 67 3e 0e 73 84 3e ac f2 97 3e
       0.2885689 0.226221 0.2586903 0.2967733
000030 c5 29 17 be 97 30 14 be 34 b3 26 3e bf 9b 1f bd
       -0.14762028 -0.1447166 0.16279298 -0.03896689
000040 3e 41 26 3e c6 a8 4e be c8 98 1b 3e 51 69 ff 3d
       0.16235825 -0.2018157 0.15195 0.124712594
000050 e2 6e d0 ba e2 b6 ed 3b d6 a2 79 3e ef 52 17 bc
       -0.0015902186 0.0072544673 0.24378523 -0.0092360815
000060 45 3e fb 3d a6 ed 9a 3e fa e1 3a be 73 f5 68 3e
       0.12267736 0.30259436 -0.18250266 0.22749881
000070 1f 08 99 3e fd b0 a0 3e 6e e3 cb bc e4 60 40 3e
       0.29889008 0.3138503 -0.02488872 0.18786961
000080 d3 97 4e 3e 52 11 26 be 6b 27 9f bc af 7b 3e 3b
       0.20175104 -0.16217545 -0.019427976 0.002906542
000090 a8 55 76 3e 05 8d 14 bd 9f 4e 6c 3e 23 fa 81 3e
       0.24056113 -0.0362673 0.23076867 0.25386152
0000a0 b4 4e 5e 3e 7f a0 a0 3e c9 bf 25 be 8f 47 a9 bd
       0.2170971 0.3137245 -0.16186441 -0.08265602
0000b0 f7 ab 95 bd 18 bb 8a 3e 89 0a 95 bd a9 5e 1c be
       -0.0730819 0.27095866 -0.072774 -0.15270485
0000c0 23 28 ee bd 2c 76 93 bd 94 75 9b 3e 6a f6 9d 3e
       -0.11628749 -0.07200274 0.30363142 0.30852062
0000d0 a2 94 70 bd 79 a2 94 3e c2 4a 39 be eb cc 53 3e
       -0.058735497 0.29030207 -0.18094924 0.20683639
0000e0 cb d4 da bd 50 6a 88 bd 45 f8 27 3e f5 4f 04 3e
       -0.10685118 -0.066609025 0.16403301 0.12921126
0000f0 b3 d7 25 be 15 87 15 bd 73 bc d5 bb ca e6 63 3e
       -0.16195564 -0.036505777 -0.006522709 0.22256008
000100 c8 cd 38 3e 5a 0d 08 3e b3 34 63 3e b2 c0 17 bd
       0.1804725 0.13286343 0.22188072 -0.037049003
000110 1a ea 3b 3e 46 cb 17 3e e2 3f 41 be d1 63 06 3e
       0.18351021 0.14823636 -0.18872026 0.13124014
000120 bb 93 90 3e 21 c2 d7 bd 36 7a 8d bd 28 f0 41 be
       0.2823771 -0.10535074 -0.069080755 -0.18939269
000130 fe 41 8c 3e a0 8f 7e bd e5 0c 5f bd 01 f8 ad 3e
       0.27394098 -0.06214869 -0.054455657 0.33978274
000140 52 a7 e8 bd ee 2a 84 bc 32 c3 7c 3e ba 30 9b bd
       -0.11360039 -0.016133752 0.24683836 -0.07577653
000150 1f f5 43 bd 7f b0 94 39 f6 ae 69 3e 20 a0 40 be
       -0.047841188 0.0002836026 0.22820649 -0.18811083
000160 86 f2 98 3e 70 de 52 3e b0 d6 64 3e a7 f8 29 be
       0.2987253 0.20592666 0.22347522 -0.1659876
000170 06 9a f8 bd 03 4b 2b be cf 86 8d bd dd e6 7e bb
       -0.12138753 -0.16727833 -0.06910478 -0.003889493
000180 65 0e 42 be 8d 05 3e 3e 1c aa 72 bc 67 e0 1d 3e
       -0.18950804 0.18556805 -0.014811065 0.15417634
000190 1b d9 98 bc 83 2a 13 be 81 b5 f3 bd bb ab 41 bd
       -0.018658211 -0.14371686 -0.118998535 -0.047282916
0001a0 a2 f9 2d bd 71 ce 7c 3e 80 bb 9b 3e 44 08 1a be
       -0.042474397 0.24688126 0.3041649 -0.15042216
0001b0 bd b2 44 bd 92 60 2c 3e e2 fc 7e bd 30 27 2d be
       -0.04802202 0.16833714 -0.062252887 -0.1690948
0001c0 26 93 d1 bc b5 53 0c 3e 10 f1 26 3e 31 47 0d be
       -0.025582861 0.13703807 0.16302896 -0.13796689
0001d0 4b 8a b3 3b 9e 41 42 be ea aa 21 be 91 fd 17 bd
       0.0054791323 -0.18970343 -0.15787855 -0.037107054
0001e0 b0 ae 11 be 31 08 60 bd b6 3c 15 be 4e 41 42 bd
       -0.14226794 -0.054695312 -0.1457394 -0.04742556
0001f0 32 fe 58 3e a3 d9 0a be e7 e0 76 bb d1 43 eb bd
       0.21190718 -0.13559584 -0.0037670673 -0.11487544
