models/neural_networks/regression/2024-08-15_16-16-57/model.pt (torch, 533736 bytes, 7 tensors)

model.0.weight f4 [128, 777]
-0.006539006 0.070316225 0.084807776 0.05684336 0.0723742 0.053084128 0.034702554 0.08070602
0.06310486 -0.05991789 0.054143865 -0.037762623 0.029115159 -0.07173616 -0.07043393 -0.020970985
-0.0038604066 -0.013051271 0.0693877 -0.06560645 -0.04216181 -0.029367968 -0.06069898 -0.03944095
-0.071404606 0.060961608 -0.020674095 -0.0058159153 0.010788046 0.052060835 -0.048661537 0.07300829
0.0152242705 0.025255393 0.025682567 -0.05769274 -0.040111244 0.03998611 0.058236346 -0.048641138
0.010087076 -0.0776522 0.0050637126 -0.06990646 0.021566324 0.02167426 0.06665092 -0.06545441
0.027449906 0.026473584 -0.08246432 -0.065200515 -0.020405509 0.025254816 0.05270563 0.065609016
0.083656244 0.041630797 0.00356268 0.0037288442 0.021404658 -0.03144698 -0.07814995 -0.07097078
-0.050790664 0.004835666 -0.0116395075 0.057111725 0.06784826 0.01894293 0.054521553 -0.021642398
0.051118318 -0.0016852561 0.020161511 -0.0106949955 0.015663074 0.05634763 -0.012102537 -0.029401008
-0.068717085 0.007816389 0.02010718 0.07345661 0.0493283 0.07063138 0.032529157 -0.0303707
0.08154024 -0.033510968 0.060890593 -0.00700691 0.08667966 0.06806231 0.055912457 -0.040163197
0.033699773 0.029896729 -0.06633015 -0.03932661 -0.033097964 0.01498598 0.0014593527 -0.015712045
0.026706927 -0.04914391 -0.048227966 0.07188469 0.0013109101 -0.0020933524 -0.056522105 0.055280842
0.04384888 -0.010049084 -0.009851822 0.005488567 0.0018243417 -0.04726156 -0.07453674 0.032009702
0.021456033 0.06268897 0.039945967 -0.019348979 0.05091896 -0.06480309 0.04111538 0.06793014
0.07092974 0.07042268 0.05175457 -0.052189227 -0.022771522 -0.058948006 -0.073888294 0.021620713
0.044177394 -0.027441818 0.07671846 0.014380887 0.0066445298 0.0050265566 -0.06211006 -0.08515754
-0.04543069 0.026188541 0.081351705 -0.06309394 -0.038237564 0.0018781584 -0.08510423 -0.016902633
-0.06527758 0.08408846 -0.078354694 0.056966193 0.035950616 -0.010978587 -0.024566468 -0.048817214
0.05796291 0.077582955 -0.08049013 -0.07475791 -0.06386343 -0.06398846 0.026140064 0.059701525
-0.0461854 0.071636066 -0.08329343 -0.0800746 0.059316143 0.0460997 -0.016560236 -0.076315545
-0.08096815 -0.06553431 0.0006055981 0.05289098 0.02970783 0.018217944 0.039204247 -0.004665613
0.052779518 -0.003820546 -0.025444891 -0.05717539 0.02078773 0.015048683 -0.085251324 -0.0875145
-0.0116396025 0.032589674 0.081372716 0.06811153 -0.052740563 0.0026469827 0.0066817924 0.029814258
-0.071227476 -0.007245354 0.056813546 0.03162356 -0.07725942 -0.020188048 0.037839748 0.049620785
-0.0450077 -0.0649845 0.07675673 -0.03423871 -0.024138555 0.07356212 -0.067995034 -0.06032256
-0.0047539184 0.012573282 -0.0025985837 0.0060522975 -0.08389324 0.0014555231 -0.067396484 -0.08563828
-0.08625279 -0.031140214 0.017818427 -0.0760641 -0.021249056 -0.077051155 -0.04811777 -0.042253133
-0.01007612 -0.07640094 0.01635325 0.07715469 -0.015676433 -0.01965253 0.027462974 0.021883115
0.015091714 0.016803935 -0.078399815 -0.061285518 -0.015761346 -0.07896948 -0.010124259 -0.010683297
-0.082527734 -0.039491724 0.02038721 -0.022310562 0.07609531 0.00273549 0.016672038 0.0056546703
00000000: 2845 d6bb f401 903d b3af ad3d 95d4 683d
00000010: ed38 943d be6e 593d 4424 0e3d 3349 a53d
00000020: 1f3d 813d 766c 75bd f5c5 5d3d fbac 1abd
00000030: ea82 ee3c 68ea 92bd aa3f 90bd 58cb abbc
00000040: e0fe 7cbb 00d5 55bc 231b 8e3d ad5c 86bd
00000050: ddb1 2cbd 1895 f0bc 7e9f 78bd d58c 21bd
00000060: 943c 92bd e1b2 793d b85c a9bc 6f93 bebb
00000070: 58c0 303c be3d 553d 5251 47bd 5f85 953d
00000080: 386f 793c 66e4 ce3c 3f64 d23c 394f 6cbd
00000090: b04b 24bd 7ac8 233d 3c89 6e3d ee3b 47bd
000000a0: 4344 253c 1e08 9fbd 80ed a53b 1e2b 8fbd
000000b0: dcab b03c 388e b13c 4780 883d f60c 86bd
000000c0: a0de e03c 21df d83c 0ee3 a8bd d987 85bd
000000d0: 7429 a7bc 30e3 ce3c dce1 573d 055e 863d
000000e0: f753 ab3d 0e85 2a3d da7b 693b a05f 743b
000000f0: d258 af3c 8cce 00bd 150d a0bd 2159 91bd
00000100: df09 50bd 8274 9e3b a2b3 3ebc fced 693d
00000110: 07f4 8a3d 342e 9b3c fe51 5f3d 664b b1bc
00000120: 7161 513d d0e3 dcba c129 a53c 103a 2fbc
00000130: d94f 803c c6cc 663d b849 46bc 62da f0bc
00000140: 8bbb 8cbd 5010 003c d0b7 a43c 6b70 963d
00000150: 790c 4a3d 2fa7 903d 4b3d 053d f9cb f8bc
00000160: 92fe a63d cc42 09bd 6a68 793d 399a e5bb
00000170: 1b85 b13d 4164 8b3d 7604 653d 2a82 24bd
00000180: c608 0a3d fce9 f43c 1ad8 87bd f014 21bd
00000190: bb91 07bd c187 753c c047 bf3a 8cb6 80bc
000001a0: 7cc8 da3c 204b 49bd b08a 45bd 4838 933d
000001b0: d8d2 ab3a a030 09bb b983 67bd 2a6e 623d
000001c0: e29a 333d eaa4 24bc 8969 21bc 70d9 b33b
000001d0: c01e ef3a 5695 41bd b8a6 98bd 9b1c 033d
000001e0: 90c4 af3c 1363 803d 629e 233d c081 9ebc
000001f0: 6690 503d 7cb7 84bd 9a68 283d f51e 8b3d
00000200: 9d43 913d c439 903d 9afc 533d 5fc4 55bd
00000210: 588b babc 7773 71bd bf52 97bd ec1d b13c
00000220: 5bf3 343d aacd e0bc 911e 9d3d d09d 6b3c
00000230: 5bba d93b d0b5 a43b 1e67 7ebd 1467 aebd
00000240: 8815 3abd 5a89 d63c b99b a63d 6537 81bd
00000250: fe9e 1cbd 8a2c f63a 204b aebd 6477 8abc
00000260: 40b0 85bd 9236 ac3d 6d78 a0bd 6255 693d
00000270: f440 133d 88df 33bc 9e3f c9bc 8ff4 47bd
00000280: 846a 6d3d d0e3 9e3d 02d8 a4bd ad1a 99bd
00000290: d4ca 82bd 620c 83bd b023 d63c 9689 743d
000002a0: e72c 3dbd eeb5 923d bf95 aabd 27fe a3bd
000002b0: 7cf5 723d 0ad3 3c3d 55a9 87bc 534b 9cbd
000002c0: a1d2 a5bd da36 86bd 00c1 1e3a 36a4 583d
000002d0: d65d f33c cc3d 953c a294 203d 00e2 98bb
000002e0: 562f 583d 2062 7abb ce71 d0bc be30 6abd
000002f0: 084b aa3c c08e 763c 3f98 aebd cd3a b3bd
00000300: 08b4 3ebc c07c 053d bda6 a63d 0f7e 8b3d
00000310: 7d06 58bd 0079 2d3b f0f2 da3b 083d f43c
00000320: b6df 91bd 6f6a edbb 52b5 683d b587 013d
00000330: 303a 9ebd 6861 a5bc dafd 1a3d 2a3f 4b3d
00000340: fe59 38bd 9816 85bd a232 9d3d e43d 0cbd
00000350: 38be c5bc bda7 963d fb40 8bbd ca14 77bd
00000360: c2c6 9bbb 2b00 4e3c 004d 2abb 5a52 c63b
00000370: 38d0 abbd 40c7 be3a 2b07 8abd 1f63 afbd
00000380: 4ea5 b0bd c319 ffbc f3f7 913c 7fc7 9bbd
00000390: 8012 aebc ffcc 9dbd 2417 45bd 9f11 2dbd
000003a0: 4f16 25bc 1978 9cbd 40f7 853c 4703 9e3d
000003b0: dd6b 80bc 58fe a0bc 08fa e03c 3844 b33c
000003c0: 3d43 773c 68a8 893c 1590 a0bd 8606 7bbd
000003d0: f01d 81bc c0ba a1bd 38e0 25bc ff08 2fbc
000003e0: 4d04 a9bd 13c2 21bd 1403 a73c a4c4 b6bc
000003f0: dcd7 9b3d e845 333b cc93 883c d04a b93b

model.0.bias f4 [128]
0.007193829 0.0016437074 -0.0007192959 0.00015797996 0.00054748537 0.0036803235 0.0056702285 0.0031882806
0.0017321928 -0.0012525942 0.00045972332 -0.0012827524 0.0011218028 0.0024197807 0.0021882046 -0.0017787974
0.0014996134 -0.0053927074 -0.0018510864 0.004672434 4.018092e-05 -0.001634096 0.0009490476 0.0007112829
0.00016281284 0.0011840754 0.0025204127 -0.00057595613 0.003204087 -0.00022333009 0.001454145 0.003694207
0.00071883475 0.00090994756 -0.0025028326 0.005135021 -0.00040185393 -0.00013323456 0.0063814577 0.00075139495
0.0023389205 -0.002301076 -0.0028909203 0.0013743456 0.00090940244 0.0013926822 0.002789871 -0.0010192746
0.0048487806 0.00625737 -0.000648711 0.0006389383 -0.0011225025 0.002004308 0.00030574395 -0.0006390371
-0.0006959706 0.0021602546 0.0009971486 0.0028542902 -0.0016200629 -0.0016130924 -0.0027197658 0.0023615325
-0.0003820622 -0.0008915635 -0.003124274 0.001969611 -0.00085327134 0.0007079394 0.0019157521 -0.0016749562
0.002424079 -0.0011128685 0.0023532894 0.0023307803 0.00027798646 -0.0006315704 0.0015202619 0.00024935545
-0.0026511783 0.0026177352 -0.0014054466 0.0011007829 0.0026679528 0.002069274 0.00081210095 0.0026164283
-0.00011110616 -0.00029397084 -0.001746437 0.0012904366 -0.0031601044 0.0019738036 0.0005203552 -0.00022704725
-0.001516065 -0.00096178014 0.0010258029 0.0020516997 0.0049244985 0.0006859755 0.0018296418 0.0044669323
0.0019910827 -0.00042526567 -0.0011083109 -0.0010922187 0.0012856779 -0.0020910706 0.0014781704 0.0023088725
0.00025175384 0.0027102553 0.0021727027 0.0008676852 -0.0013865784 -0.00010761388 -0.0031086674 0.005616041
-0.00017060807 -0.00019717302 0.00031342503 0.0037889304 0.0005493307 -0.0019030272 -0.00028370917 -0.00024457954
00000000: 36ba eb3b ab71 d73a 218f 3cba 6ca7 2539
00000010: 1f85 0f3a 9531 713b 53cd b93b 79f2 503b
00000020: bf0a e33a 162e a4ba 0507 f139 0722 a8ba
00000030: 7509 933a 2f95 1e3b fb67 0f3b 8926 e9ba
00000040: ad8e c43a 4fb5 b0bb 27a0 f2ba 381b 993b
00000050: ef87 2838 2a2f d6ba 82c9 783a 6375 3a3a
00000060: bdb8 2a39 fa32 9b3a 822d 253b c3fb 16ba
00000070: a9fb 513b b72d 6ab9 0299 be3a 821a 723b
00000080: 2f70 3c3a 8c89 6e3a 9006 24bb ae43 a83b
00000090: ecaf d2b9 e1b4 0bb9 8c1b d13b 43f9 443a
000000a0: 9348 193b a6cd 16bb 9875 3dbb 6323 b43a
000000b0: f764 6e3a a98a b63a 45d6 363b 2e99 85ba
000000c0: 85e2 9e3b a00a cd3b 420e 2aba 6c7e 273a
000000d0: ef20 93ba b55a 033b 424c a039 0e85 27ba
000000e0: cc71 36ba 0f93 0d3b c1b2 823a 0b0f 3b3b
000000f0: 4a58 d4ba 666e d3ba 193e 32bb f1c3 1a3b
00000100: 854f c8b9 d0b7 69ba 9fc0 4cbb 9714 013b
00000110: 12ae 5fba 0295 393a f919 fb3a 348a dbba
00000120: 4cdd 1e3b acdd 91ba a539 1a3b 01c0 183b
00000130: b6be 9139 f98f 25ba 8643 c73a ecbb 8239
00000140: 64bf 2dbb 4f8e 2b3b f636 b8ba 2548 903a
00000150: d2d8 2e3b a89c 073b 2ce3 543a 6278 2b3b
00000160: aa01 e9b8 1920 9ab9 b4e8 e4ba de23 a93a
00000170: c119 4fbb ee5a 013b 7268 083a 8813 6eb9
00000180: b3b6 c6ba f91f 7cba 3c74 863a cf75 063b
00000190: b05d a13b 09d3 333a 97d0 ef3a 585f 923b
000001a0: d37c 023b 31f6 deb9 be44 91ba c728 8fba
000001b0: 3184 a83a 580a 09bb 2bbf c13a 7450 173b
000001c0: d4fd 8339 8a9e 313b e763 0e3b 5e75 633a
000001d0: dabd b5ba c3ae e1b8 c9ba 4bbb c406 b83b
000001e0: 41e5 32b9 3bc0 4eb9 3253 a439 b44f 783b
000001f0: f600 103a ff6e f9ba cdbe 94b9 e93a 80b9

model.2.weight f4 [128, 128]
-0.0272256 0.013269557 0.13920489 -0.037149455 -0.118544176 -0.010871858 0.06386092 0.0066232546
0.19149277 0.073697805 -0.10906877 0.08832314 0.1456513 0.010326434 0.01532671 0.19084659
0.11463135 -0.21525979 0.06720721 0.1929843 0.053264014 0.1273329 -0.10271347 0.085927434
0.21646862 -0.03818253 -0.034954812 -0.037696633 0.16346554 -0.015827212 -0.10085429 0.003179809
0.066724114 -0.051416673 -0.10358684 -0.10270229 0.0254872 0.073685616 0.204936 -0.13436686
-0.1805982 -0.025948389 0.023829961 0.17742936 -0.029857595 -0.09053202 -0.12630884 -0.019189145
-0.014478462 0.12693398 -0.00569684 -0.18060987 -0.07675592 0.18048188 0.19351049 -0.1327722
-0.17096217 0.06935738 -0.16498004 0.06133708 0.07425092 -0.0038612827 0.0031099555 0.11059385
0.08297194 0.16823618 -0.14359282 0.13093634 0.06956767 -0.059998784 0.12523435 -0.13171121
-0.20670344 0.1789952 -0.21067862 -0.1746695 -0.1392888 0.014941588 0.20965199 0.10016533
0.037220936 -0.11744522 0.14083919 0.11002281 0.02490683 0.115116596 -0.20256956 -0.043814994
0.05821996 -0.02161568 -0.21417885 0.03819553 -0.1336214 0.029299077 0.12740351 0.13072248
0.20949866 0.04629982 -0.04642377 0.12162881 0.0326964 -0.022639405 0.18783915 0.15081613
0.2002144 0.08872807 -0.11737354 0.11017882 -0.076823734 -0.019687178 0.14176059 0.1311604
0.028435841 0.05895104 0.05782727 0.018092124 0.0929342 0.13272119 0.059960943 -0.013411429
0.1370048 0.20601672 -0.13205633 0.15577883 0.05432642 0.059044354 -0.14849979 -0.15478744
-0.16646539 0.02457501 0.21285932 0.076936945 0.15187548 0.039689768 0.16614915 -0.20205712
-0.112016715 0.09955432 0.1494515 0.054338057 0.044780668 0.02528771 0.19162425 0.15972826
-0.18913473 -0.07222326 -0.074331045 -0.15168929 0.05658538 -0.002164747 0.047366183 -0.18010955
-0.12605703 0.056646656 0.04502133 -0.15788402 0.048201796 -0.05752479 0.09623716 -0.03867022
0.15302627 0.02084205 0.17286691 0.14623658 -0.053988762 0.17275403 -0.0960427 -0.11486095
0.010504989 -0.12273905 0.14724916 0.12698084 0.16770357 0.1769399 0.02664534 -0.09906069
-0.052770905 -0.07063309 -0.065329805 0.13284607 -0.043052733 0.21159841 -0.06912136 -0.15748595
-0.12975244 0.20820946 -0.0007665236 0.06900786 -0.02276747 0.14176482 -0.10660096 0.16098662
-0.00086342497 -0.011741244 0.1934812 -0.14899127 -0.13882211 -0.113417454 0.21124932 0.10471539
-0.044961378 -0.005286156 0.122956246 0.096047685 0.025304846 -0.11435949 0.10986047 -0.11481137
0.0016035707 0.15493625 -0.109453306 0.09313919 -0.15381455 -0.038224906 -0.13057388 0.08908802
-0.09566355 0.2089962 0.06716253 0.082236215 0.15666707 -0.16227816 0.098637976 -0.019050112
-0.1854427 0.1455528 0.06461279 -0.18717995 -0.2087493 -0.15953074 -0.11583322 -0.07179902
0.14455797 -0.19416057 -0.20657867 -0.16434859 0.11305989 0.012730456 0.0030044639 -0.085944995
-0.010478036 -0.011859143 0.030101338 0.18400021 -0.21553665 0.033882767 -0.12706798 -0.08243513
0.06797737 -0.027394969 -0.20681368 0.06308945 -0.05934532 0.16268188 -0.16469085 0.052460447
00000000: 3908 dfbc 8e68 593c ba8b 0e3e 072a 18bd
00000010: 4ac7 f2bd e11f 32bc 84c9 823d e307 d93b
00000020: ae16 443e e0ee 963d 735f dfbd c3e2 b43d
00000030: 9d25 153e 3430 293c e21c 7b3c 4a6d 433e
00000040: d7c3 ea3d 106d 5cbe efa3 893d ad9d 453e
00000050: 5e2b 5a3d 8e63 023e 715b d2bd b9fa af3d
00000060: f3a9 5d3e 4965 1cbd c72c 0fbd c967 1abd
00000070: 8363 273e 12a8 81bc b28c cebd 5864 503b
00000080: a7a6 883d 4a9a 52bd 5625 d4bd 9455 d2bd
00000090: 88ca d03c 7ce8 963d beda 513e 7797 09be
000000a0: bcee 38be b791 d4bc 0d37 c33c 0bb0 353e
000000b0: ea97 f4bc da68 b9bd 1b57 01be 8e32 9dbc
000000c0: 1237 6dbc fbfa 013e 8fac babb cbf1 38be
000000d0: 3532 9dbd 3ed0 383e 9d27 463e 70f5 07be
000000e0: b510 2fbe 3e0b 8e3d 87f0 28be 973c 7b3d
000000f0: de10 983d 930d 7dbb 65d0 4b3b 077f e23d
00000100: 31ed a93d 1b46 2c3e ff09 13be 2d14 063e
00000110: 7f79 8e3d 49c1 75bd 6f3d 003e 4edf 06be
00000120: 11aa 53be 854a 373e 23bc 57be 90dc 32be
00000130: b9a1 0ebe 90cd 743c 03af 563e 7b23 cd3d
00000140: fb74 183d 1f87 f0bd 2638 103e a453 e13d
00000150: 6909 cc3c 40c2 eb3d 656e 4fbe 5a77 33bd
00000160: 0e78 6e3d 5e13 b1bc b351 5bbe eb72 1c3d
00000170: 0cd4 08be 9e04 f03c 1176 023e 1ddc 053e
00000180: d186 563e e1a4 3d3d da26 3ebd 8718 f93d
00000190: a9ec 053d 4676 b9bc e858 403e 8b6f 1a3e
000001a0: 0105 4d3e 10b7 b53d 8a61 f0bd 6fa5 e13d
000001b0: c355 9dbd 0147 a1bc b029 113e e94e 063e
000001c0: 48f2 e83c a576 713d 4adc 6c3d ef35 943c
000001d0: 4954 be3d 10e8 073e 9b99 753d 9cbb 5bbc
000001e0: fc4a 0c3e 0cf6 523e c639 07be 7c84 1f3e
000001f0: 6185 5e3d 7ed8 713d 5410 18be 9980 1ebe
00000200: e775 2abe 8851 c93c cbf7 593e 1e91 9d3d
00000210: 3f85 1b3e bd91 223d 0123 2a3e 10e8 4ebe
00000220: 0569 e5bd 23e3 cb3d d009 193e 9591 5e3d
00000230: ef6b 373d 2c28 cf3c 2639 443e ce8f 233e
00000240: 89ac 41be cae9 93bd e03a 98bd 7054 1bbe
00000250: 12c6 673d 6ede 0dbb 0b03 423d a36e 38be
00000260: 1815 01be 5306 683d 4968 383d 59ac 21be
00000270: 3f6f 453d 1d9f 6bbd fd17 c53d aa64 1ebd
00000280: ebb2 1c3e f2bc aa3c 0604 313e 0bbf 153e
00000290: 5223 5dbd 6fe6 303e 09b2 c4bd 383c ebbd
000002a0: 1e1d 2c3c 9c5e fbbd 7cc8 163e 4407 023e
000002b0: 7cba 2b3e bc2f 353e 5447 da3c 55e0 cabd
000002c0: 4e26 58bd 15a8 90bd a2cb 85bd cd08 083e
000002d0: 1058 30bd 41ad 583e 808f 8dbd ff43 21be
000002e0: d3dd 04be dc34 553e 87f0 48ba fe53 8d3d
000002f0: d882 babc cc2a 113e 9b51 dabd add9 243e
00000300: 7857 62ba 595e 40bc f01f 463e 2b91 18be
00000310: 6227 0ebe 6947 e8bd be51 583e 0675 d63d
00000320: 6c29 38bd 7e37 adbb 7cd0 fb3d a6b4 c43d
00000330: 1c4c cf3c 4f35 eabd 87fe e03d 3922 ebbd
00000340: e72e d23a 9ca7 1e3e 0e29 e0bd c2bf be3d
00000350: 9081 1dbe b891 1cbd 29b5 05be c873 b63d
00000360: 40eb c3bd 1a03 563e 828c 893d 766b a83d
00000370: 556d 203e 3f2c 26be b502 ca3d fb0e 9cbc
00000380: b1e4 3dbe cb0b 153e b653 843d 1aac 3fbe
00000390: 60c2 55be 075c 23be f839 edbd 5d0b 93bd
000003a0: 0107 143e 07d2 46be 5c89 53be ff4a 28be
000003b0: f28b e73d 6793 503c 8ae6 443b ee03 b0bd
000003c0: 11ac 2bbc da4c 42bc 1597 f63c 8d6a 3c3e
000003d0: a4b5 5cbe a8c8 0a3d 1c1e 02be c0d3 a8bd
000003e0: b837 8b3d 6a6b e0bc f7c6 53be 0b35 813d
000003f0: 1414 73bd 1496 263e b8a4 28be c4e0 563d

model.2.bias f4 [128]
-0.0011697105 -0.0021947855 -2.4705672e-05 0.0011262367 0.0063550076 0.00027151493 -0.00020680125 -0.0021749104
0.00022265104 -0.0005713325 -0.0022388273 0.011781785 0.0019920215 0.0051763672 0.0046758843 0.00044586742
0.0004990264 0.002440334 0.0005590173 0.0038341843 -0.00039511287 0.00094849657 -0.00030463413 -0.0012722189
0.0022167761 -0.004332569 -0.00210856 -0.00071495364 0.0013048082 0.003775237 0.00081132445 -0.0011429924
0.007159042 -0.00088540895 -0.003579457 0.0019098229 0.005016821 0.004143726 0.0010170832 -0.001701248
-0.0023655738 -0.0026118222 -0.00017916817 -0.0019581832 -0.0025510998 -0.00066659244 0.000604799 -0.0014761919
0.0015568982 -0.0001631927 0.0025403164 -3.145642e-05 0.0016814267 0.002430438 0.001031948 0.00027973411
0.0053898767 -0.0034525986 0.0043954104 0.002367957 4.9678907e-05 -0.0024087217 -0.0006785667 0.0009778469
0.00018611264 -0.0006290152 -0.0028847458 0.002081683 -0.0017648864 8.0785125e-05 -0.002858339 0.004547217
0.003610764 -0.0007579114 -0.0013661161 0.0038175902 0.00374279 0.00065979396 -0.00091812556 -0.00266432
0.00057814125 -0.0055736424 0.010784716 0.0002285201 0.0064601656 0.0005368191 0.00199044 -0.0018173018
0.002541308 -0.003619566 -0.0026748355 -0.00021750727 0.0022143524 0.0019263389 0.004380331 0.0008760865
-0.0023271665 0.0021103742 -0.0008802111 -0.00019052227 -0.00049302285 0.0014576517 0.00064845977 -0.0006309786
-0.0048316154 -0.0002137495 0.0010032869 0.0022893024 0.0013276974 0.0009074759 0.003134628 -0.0006004675
-0.0033826486 0.0017964634 0.008611475 0.0040400154 0.0014956829 -0.0022083344 -0.0025315378 0.0034650988
-0.0006674569 0.004408001 0.00010412745 -0.0014111814 -0.002465338 4.3341253e-05 -3.2998298e-05 0.0009473212
00000000: f950 99ba 64d6 0fbb 073f cfb7 3c9e 933a
00000010: ab3d d03b 1e5a 8e39 cad8 58b9 f188 0ebb
00000020: 6f77 6939 7ac5 15ba 4ab9 12bb 6308 413c
00000030: 938c 023b 849e a93b 2938 993b 50c3 e939
00000040: 18d1 023a 03ee 1f3b 048b 123a f046 7b3b
00000050: 2727 cfb9 87a4 783a 4db7 9fb9 95c0 a6ba
00000060: 5547 113b 39f8 8dbb c42f 0abb ba6b 3bba
00000070: 1906 ab3a f769 773b 10af 543a 76d0 95ba
00000080: 6696 ea3b ca1a 68ba 5395 6abb 0653 fa3a
00000090: 2564 a43b 18c8 873b a64f 853a 69fc deba
000000a0: be07 1bbb 1b2b 2bbb 17df 3bb9 dd54 00bb
000000b0: 5a30 27bb 43be 2eba 608b 1e3a c87c c1ba
000000c0: d610 cc3a b51e 2bb9 707b 263b 13f0 03b8
000000d0: 5163 dc3a fc47 1f3b 6e42 873a 47a9 9239
000000e0: 909d b03b fe44 62bb 6007 903b ba2f 1b3b
000000f0: 525e 5038 a5db 1dbb d7e1 31ba 192b 803a
00000100: 3b27 4339 7fe4 24ba 010e 3dbb d86c 083b
00000110: c353 e7ba 2f6b a938 f952 3bbb d200 953b
00000120: 91a2 6c3b 93ae 46ba 400f b3ba 8930 7a3b
00000130: 9949 753b 06f6 2c3a 5dae 70ba df9b 2ebb
00000140: 678e 173a 1aa3 b6bb 61b2 303c e69e 6f39
00000150: ccaf d33b 52b9 0c3a 0b72 023b 8832 eeba
00000160: 138c 263b 3e36 6dbb 4b4c 2fbb aa12 64b9
00000170: ab1e 113b 357d fc3a e188 8f3b 2ba9 653a
00000180: 6083 18bb 344e 0a3b f8bd 66ba efc6 47b9
00000190: 343e 01ba ad0e bf3a 66fd 293a 4268 25ba
000001a0: 8752 9ebb f221 60b9 b980 833a 1f08 163b
000001b0: 2206 ae3a ade3 6d3a 556e 4d3b b168 1dba
000001c0: 6daf 5dbb 4f77 eb3a 2517 0d3c 1b62 843b
000001d0: ca0a c43a b4b9 10bb 28e8 25bb b616 633b
000001e0: 46f8 2eba fe70 903b 005f da38 64f7 b8ba
000001f0: 8291 21bb 51c9 3538 a767 0ab8 a655 783a

model.4.weight f4 [128, 128]
-0.101656444 -0.0026364033 -0.066139795 0.081199884 0.05945698 -0.11129535 0.109275654 -0.15902102
0.10065045 -0.16212168 0.096854724 0.10248328 0.06323061 0.07758095 0.12052733 0.04668818
0.1705629 -0.08254135 0.13349116 0.11785829 0.121236555 -0.012790858 0.07624708 -0.048423897
0.14040045 0.1873437 -0.18610162 -0.13642801 -0.21565534 0.17408656 0.14101928 -0.14471917
0.013282814 0.18625376 0.16044949 -0.19953758 -0.051984202 0.047773153 0.009263464 -0.05424974
-0.07493606 -0.15836467 0.049272962 -0.023946835 0.07792663 0.098795615 -0.12770553 0.1740651
-0.1879214 0.009309369 0.09137952 -0.17756878 -0.19974194 -0.1564237 0.10048287 -0.12543947
-0.034891915 0.022837276 0.086280584 -0.08104902 0.14642844 0.1145701 -0.03335582 0.11723167
-0.11325229 -0.18333958 -0.20451576 -0.185774 0.15504725 -0.08229282 0.20161523 0.07501377
0.14327495 -0.010862375 -0.09355505 0.08087582 0.19214766 -0.087914616 0.15218206 0.1434062
-0.06477132 -0.06846583 -0.006264637 0.19156821 0.011380964 0.103078164 0.0063038454 0.009203186
-0.089308396 -0.00215762 -0.16296352 -0.07149361 0.08285996 0.070645206 -0.15458055 -0.20589344
0.11313104 0.15655127 0.19164373 0.049192887 -0.21422864 0.19244641 -0.15382051 -0.0793037
-0.033116404 0.19518395 -0.14307663 -0.018881194 -0.012202324 0.0035601556 -0.14574371 0.063528754
-0.074590795 -0.013496094 0.17146654 0.02106939 -0.09374912 -0.19755666 0.1672939 0.066536166
0.18498437 -0.20259197 0.1923557 -0.12186317 -0.20385431 0.0473636 -0.117786966 -0.13906884
-0.20297673 0.022925487 0.15040486 -0.06495283 -0.13990517 0.054551277 0.07059704 0.009086815
-0.03922936 0.17503503 0.10166385 -0.044320248 0.1311305 0.20728509 -0.018970616 0.10569843
0.025778105 0.14607967 0.099048354 -0.19103722 -0.20506983 0.008860038 -0.1639818 0.016789498
0.060222384 -0.03573857 -0.030592382 -0.07281934 -0.17851762 -0.14987831 -0.17112072 -0.16073617
0.1336158 -0.18372738 0.1862871 -0.1315986 -0.15459174 0.21118267 -0.1316819 0.13645083
0.16033658 0.082124375 0.0043370263 0.1520473 0.1421107 0.1947219 0.11408671 -0.15573633
0.18640313 -0.14684007 -0.01950637 0.17443497 0.043288007 0.09900361 0.16847992 -0.016817825
0.17945571 0.131141 -0.067554496 -0.09074853 -0.06509186 0.1523587 -0.14215478 0.0031151976
-0.09741376 0.084648 -0.2146948 -0.06107967 0.16836399 -0.14049226 0.08107964 -0.14029509
0.007993436 -0.07647806 0.03659223 -0.033692952 -0.20317398 -0.21021678 -0.14284267 0.18717137
0.18734367 0.109505154 0.07584702 -0.02410231 -0.0048744306 0.16144753 -0.1762632 -0.0018002739
-0.12523316 0.18783648 -9.984827e-05 -0.13068366 -0.014341404 0.13528953 -0.1817074 -0.04061815
-0.11432258 0.05704165 0.049778096 -0.10720594 0.018480916 -0.08411744 -0.093487635 -0.18526214
0.029580535 -0.19073127 0.052578762 0.13429618 0.1951607 -0.084693246 0.12612247 -0.03405242
-0.13389102 0.15664345 0.101911925 -0.042372134 0.16008702 0.026687736 -0.07387939 0.19908285
-0.11825092 -0.08549343 -0.20511596 -0.075863145 0.031214634 0.027321879 -0.17964214 -0.0052910475
00000000: 4131 d0bd 82c7 2cbb 4d74 87bd 204c a63d
00000010: 2a89 733d d1ee e3bd eacb df3d 68d6 22be
00000020: d321 ce3d 3a03 26be c55b c63d c1e2 d13d
00000030: 0d7f 813d c3e2 9e3d 08d7 f63d 1b3c 3f3d
00000040: 0aa8 2e3e 700b a9bd e8b1 083e b05f f13d
00000050: df4a f83d bf90 51bc 6e27 9c3d 2358 46bd
00000060: 23c5 0f3e 07d7 3f3e 6c91 3ebe c9b3 0bbe
00000070: c1d4 5cbe bf43 323e 5c67 103e 4331 14be
00000080: 29a0 593c 4eb9 3e3e df4c 243e 9453 4cbe
00000090: 63ed 54bd c8ad 433d c9c5 173c fa34 5ebd
000000a0: 1478 99bd 592a 22be 72d2 493d 272c c4bc
000000b0: ff97 9f3d 5b55 ca3d 3dc5 02be 1f3e 323e
000000c0: 786e 40be 5386 183c 3025 bb3d 97d4 35be
000000d0: 2789 4cbe 892d 20be f7c9 cd3d 3473 00be
000000e0: d3ea 0ebd 3d15 bb3c e0b3 b03d 07fd a5bd
000000f0: 56f1 153e bba3 ea3d 1da0 08bd 2817 f03d
00000100: d1f0 e7bd 5fbd 3bbe 946c 51be 8a3b 3ebe
00000110: b5c4 1e3e 2389 a8bd 3974 4e3e d2a0 993d
00000120: abb6 123e 1af8 31bc ca99 bfbd 39a2 a53d
00000130: 5bc2 443e 940c b4bd 9dd5 1b3e 13d9 123e
00000140: d3a6 84bd d037 8cbd 9647 cdbb 752a 443e
00000150: 3977 3a3c a51a d33d 7d90 ce3b f6c8 163c
00000160: 52e7 b6bd db66 0dbb e9df 26be 3e6b 92bd
00000170: 7cb2 a93d 6fae 903d 5d4a 1ebe bbd5 52be
00000180: 3fb1 e73d fa4e 203e 413e 443e 7b7e 493d
00000190: c15e 5bbe ac10 453e 2083 1dbe fa69 a2bd
000001a0: 11a5 07bd 4dde 473e ae82 12be bcac 9abc
000001b0: 42ec 47bc 8051 693b d73d 15be 5d1b 823d
000001c0: 0fc3 98bd b91e 5dbc ed94 2f3e b799 ac3c
000001d0: 8aff bfbd 4b4c 4abe 184f 2b3e 1d44 883d
000001e0: 8b6c 3d3e 4574 4fbe e5f8 443e 6693 f9bd
000001f0: 2fbf 50be 5600 423d 4b3a f1bd 1068 0ebe
00000200: 22d9 4fbe 3bce bb3c bb03 1a3e fd05 85bd
00000210: 4d43 0fbe 2971 5f3d 2e95 903d dde0 143c
00000220: f7ae 20bd 623c 333e 2335 d03d 2689 35bd
00000230: 1347 063e 8b42 543e 4468 9bbc 6b78 d83d
00000240: 9b2c d33c e995 153e ddd9 ca3d 439f 43be
00000250: d3fd 51be b129 113c d8ea 27be 218a 893c
00000260: bfab 763d 9b62 12bd e09c fabc 4e22 95bd
00000270: 53cd 36be b379 19be 453a 2fbe 0698 24be
00000280: 95d2 083e 0823 3cbe 0cc2 3e3e c9c1 06be
00000290: 4c4d 1ebe 4540 583e 9fd7 06be c4b9 0b3e
000002a0: 462f 243e d330 a83d 9d1d 8e3b 4ab2 1b3e
000002b0: 7885 113e 2e65 473e 4ba6 e93d 5879 1fbe
000002c0: 76e0 3e3e 3e5d 16be d3cb 9fbc 159f 323e
000002d0: c44e 313d 68c2 ca3d 0086 2c3e 89c5 89bc
000002e0: 3dc3 373e d449 063e 035a 8abd 5eda b9bd
000002f0: e24e 85bd eb03 1c3e 0691 11be 5828 4c3b
00000300: de80 c7bd ee5b ad3d f4d8 5bbe ad2e 7abd
00000310: 9c67 2c3e 34dd 0fbe 150d a63d 84a9 0fbe
00000320: e7f6 023c 87a0 9cbd bce1 153d 9f01 0abd
00000330: d70c 50be 1143 57be 5945 12be daa9 3f3e
00000340: 05d7 3f3e 3d44 e03d af55 9b3d 3572 c5bc
00000350: b0b9 9fbb 8052 253e 577e 34be 2bf7 ebba
00000360: 1f3d 00be 3558 403e a265 d1b8 f0d1 05be
00000370: 35f8 6abc 5789 0a3e 8111 3abe 385f 26bd
00000380: f521 eabd 81a4 693d 1ee4 4b3d ca8e dbbd
00000390: 4a65 973c c445 acbd 7276 bfbd 5cb5 3dbe
000003a0: e152 f23c 0f4f 43be d45c 573d f084 093e
000003b0: 35d8 473e a773 adbd 4026 013e 8d7a 0bbd
000003c0: ba1a 09be 2467 203e 33b7 d03d 678e 2dbd
000003d0: daed 233e 3da0 da3c 144e 97bd 60dc 4b3e
000003e0: 8a2d f2bd 2e17 afbd eb09 52be 235e 9bbd
000003f0: d5b5 ff3c 22d2 df3c 1cf4 37be 8660 adbb

model.4.bias f4 [128]
0.006503504 -0.0010366233 0.0029259112 0.0034189718 -0.004586082 0.0031677552 -0.004757235 0.0023203327
-0.006278985 0.0059080515 0.0045782444 0.002125249 -0.0017255752 -0.0010357361 0.00064295676 0.00036829506
-0.0014380743 0.0064833947 -0.0009484711 6.202315e-05 -0.0029685409 -0.00075951545 0.0045927977 0.00022744828
0.0027085138 0.0046495884 -0.0002941609 -0.0040994706 0.00075437676 0.00039149146 0.008512075 0.0035763031
-0.00035759443 -6.7245383e-06 -0.0010433146 0.0005417664 -0.00046693042 -0.0017118284 0.00042872617 -0.0040690373
1.0034834e-05 -0.00046758453 0.0012613176 0.00055654615 -0.000520522 0.006419506 0.0076983315 -0.00025849478
0.0062402175 0.006324771 3.4112418e-05 -0.00095438765 0.0016024017 0.0045241 0.007974787 0.008620216
0.00015131918 0.00011909053 0.008828101 -1.4714704e-05 0.00022046304 0.0018575714 7.948105e-05 -0.0017768985
0.0013903434 0.0029731304 0.005530845 -0.002048567 0.006628515 0.0013380104 0.005337805 -0.0020235092
-0.0039812075 -0.0021741001 -0.005707243 -0.0001398678 -0.000621139 -0.0021018696 0.002946836 0.0067073754
0.0010911244 0.0006927158 0.0084002465 8.691746e-06 -0.0026845583 0.0029142313 0.0044656564 0.00066779595
0.003334832 0.0024242154 -0.0007046988 0.0010257378 -0.0076391455 -0.00018571141 0.004890112 0.0064646318
-0.0019853788 0.002845301 0.0012820963 -0.005600892 -0.0005465623 -0.0012201915 0.0021163628 -0.001131863
0.0045830114 -0.0014004058 0.00010198329 -0.0006106222 -0.0036338554 0.0005580118 0.0003042933 -0.004176905
-0.005122667 0.0017950144 -0.00064338 -0.0021226148 0.0014333307 0.0035114142 0.0006302186 -0.0013320736
0.001925961 0.0027627368 0.003686909 0.0023010895 -0.0020090628 -0.002823061 0.0010995193 -0.0021124799
00000000: 581b d53b 4edf 87ba a5c0 3f3b d410 603b
00000010: d846 96bb 1d9a 4f3b 94e2 9bbb b910 183b
00000020: f2bf cdbb 5498 c13b 1905 963b c347 0b3b
00000030: b22c e2ba 89c1 87ba 198c 283a ba17 c139
00000040: c47d bcba a872 d43b d1a2 78ba 6d12 8238
00000050: da8b 42bb 381a 47ba 2e7f 963b 2f7f 6e39
00000060: 5281 313b 935b 983b 9c39 9ab9 da54 86bb
00000070: 5ec1 453a 1841 cd39 3b76 0b3c 6960 6a3b
00000080: 837b bbb9 58a3 e1b6 d4bf 88ba 5405 0e3a
00000090: 57ce f4b9 6e5f e0ba a7c6 e039 8f55 85bb
000000a0: 495b 2837 2226 f5b9 cc52 a53a 2ee5 113a
000000b0: a473 08ba b85a d23b 4942 fc3b 9586 87b9
000000c0: bd7a cc3b 0640 cf3b ee13 0f38 df2f 7aba
000000d0: ae07 d23a e73e 943b aea8 023c ce3b 0d3c
000000e0: 6fab 1e39 3ec0 f938 bda3 103c 2cdf 76b7
000000f0: 192c 6739 c179 f33a 10af a638 d2e6 e8ba
00000100: 2f3c b63a dad8 423b 173c b53b 4041 06bb
00000110: 0434 d93b 2e60 af3a c1e8 ae3b da9c 04bb
00000120: ca74 82bb 597b 0ebb d303 bbbb 7aa9 12b9
00000130: efd3 22ba 85bf 09bb b41f 413b 8bc9 db3b
00000140: 0f04 8f3a 5f97 353a 30a1 093c c4d2 1137
00000150: 6aef 2fbb b0fc 3e3b a454 923b 070f 2f3a
00000160: 328d 5a3b 96df 1e3b 89bb 38ba 0d72 863a
00000170: cc51 fabb 87bb 42b9 3c3d a03b 43d5 d33b
00000180: 211d 02bb 3b78 3a3b 030c a83a b087 b7bb
00000190: 2d47 0fba d5ee 9fba adb2 0a3b 055b 94ba
000001a0: 162d 963b d28d b7ba dddf d538 2a12 20ba
000001b0: fa25 6ebb 8a47 123a 8e89 9f39 6bde 88bb
000001c0: 0cdc a7bb b046 eb3a 80a8 28ba 911b 0bbb
000001d0: 99de bb3a c11f 663b 4135 253a f998 aeba
000001e0: 8770 fc3a 080f 353b 12a0 713b e0cd 163b
000001f0: 7baa 03bb 1b03 39bb bf1d 903a 8871 0abb

model.6.weight f4 [1, 128]
0.20503323 -0.042860493 0.10638726 0.13568853 -0.18435343 0.07558743 -0.21374784 0.19897963
-0.1652689 0.13988495 0.12888023 0.13107848 -0.042929657 -0.044342574 0.1668532 0.01690904
-0.0349194 0.15172243 -0.20900863 0.033286124 -0.105868764 -0.013827541 0.10834172 0.052476034
0.0912726 0.12062841 -0.21044983 -0.20545726 0.19496076 0.17886668 0.19803298 0.124848545
-0.004339828 -0.0685173 -0.1295788 0.022163227 -0.025726698 -0.037540756 0.13371086 -0.10062878
0.079448886 -0.03317868 0.05707117 0.14389923 -0.015791351 0.16496241 0.20522127 -0.064008296
0.17552832 0.16763535 0.16371743 -0.01984128 0.058160394 0.1131131 0.21628416 0.20902881
0.1214468 0.17224815 0.20287676 -0.029681262 0.027878974 0.15182845 0.04672608 -0.04377079
0.052504126 0.11869253 0.2129632 -0.14416763 0.16423494 0.073526226 0.1468149 -0.0644684
-0.084476486 -0.045806862 -0.1430262 -0.009296633 -0.020850526 -0.10920504 0.19876194 0.1553418
0.09115196 0.062378187 0.22028331 0.067357495 -0.07408307 0.07444169 0.21025252 0.054869477
0.15338774 0.15671588 -0.05229693 0.08262189 -0.17961863 -0.1198532 0.13461594 0.17672029
-0.15886195 0.09900224 0.17327067 -0.18665124 -0.022279039 -0.050996296 0.052019555 -0.10215057
0.18732028 -0.060124863 0.14906135 -0.097213626 -0.12304209 0.03036213 0.038290806 -0.14162284
-0.16240576 0.049285106 -0.02869696 -0.07204458 0.06936763 0.12325826 0.05169046 -0.06691074
0.07734921 0.119554505 0.12909944 0.07643915 -0.14234227 -0.20563993 0.07786326 -0.0964538
00000000: 3bf4 513e 7c8e 2fbd 90e1 d93d eff1 0a3e
00000010: 25c7 3cbe 95cd 9a3d b7e0 5abe 51c1 4b3e
00000020: 403c 29be 003e 0f3e 2ef9 033e 7039 063e
00000030: 02d7 2fbd 8fa0 35bd 91db 2a3e d484 8a3c
00000040: a507 0fbd 205d 1b3e 5c06 56be 0857 083d
00000050: b9d1 d8bd e98c 62bc 44e2 dd3d 1cf1 563d
00000060: 21ed ba3d 070c f73d 2980 57be 6363 52be
00000070: cba3 473e d428 373e 28c9 4a3e 98b0 ff3d
00000080: 1e35 8ebb cc52 8cbd 4eb0 04be a88f b53c
00000090: ccc0 d2bc 56c4 19bd 80eb 083e 7616 cebd
000000a0: 19b6 a23d 5ee6 07bd 76c3 693d 525a 133e
000000b0: dd5c 81bc e8eb 283e 8625 523e c816 83bd
000000c0: b2bd 333e 9aa8 2b3e 8ba5 273e 2e8a a2bc
000000d0: 9839 6e3d d7a7 e73d 9879 5d3e a60b 563e
000000e0: 1ab9 f83d d261 303e edbe 4f3e 1e26 f3bc
000000f0: 7262 e43c eb78 1b3e d963 3f3d 0049 33bd
00000100: 910e 573d 1215 f33d 0613 5a3e aea0 13be
00000110: 342d 283e eb94 963d a556 163e 0208 84bd
00000120: 0202 adbd fa9f 3bbd 7675 12be e850 18bc
00000130: b9ce aabc e4a6 dfbd 4088 4b3e ec11 1f3e
00000140: e1ad ba3d 4580 7f3d f391 613e baf2 893d
00000150: ddb8 97bd e374 983d 704c 573e d1be 603d
00000160: ad11 1d3e 217a 203e 4e35 56bd aa35 a93d
00000170: f2ed 37be 9875 f5bd c3d8 093e 2af6 343e
00000180: b5ac 22be b0c1 ca3d de6d 313e 8121 3fbe
00000190: 8882 b6bc 7ee1 50bd 7512 553d 5134 d1bd
000001a0: e3d0 3f3e 7d45 76bd 8aa3 183e f017 c7bd
000001b0: 7efd fbbd 00ba f83c d2d6 1c3d 9405 11be
000001c0: b24d 26be 2edf 493d e315 ebbc 1c8c 93bd
000001d0: 9e10 8e3d d46e fc3d 60b9 533d 8008 89bd
000001e0: 4369 9e3d fed8 f43d a532 043e 218c 9c3d
000001f0: 2cc2 11be 4693 52be c676 9f3d 9289 c5bd
