models/neural_networks/regression/2024-08-17_21-54-04/model.pt (torch, 477416 bytes, 7 tensors)

model.0.weight f4 [128, 667]
000000 c4 8c b0 3d 1c bc ba 3d b8 9f 8e 3b de 2c 63 bd
       0.08620599 0.0911791 0.004352536 -0.05546271
000010 07 90 18 bd f7 9b 61 bd 22 02 45 bd a1 fa 6c bd
       -0.03724673 -0.05508038 -0.048097737 -0.057856206
000020 9c f7 c8 3c 53 e8 5b 3d 85 68 10 bd 1c 18 83 3d
       0.024532132 0.05368836 -0.035255928 0.06401083
000030 e4 da a2 3d fe ab ec 3c 90 ca a5 bd 90 a3 9c 3d
       0.07951906 0.028890606 -0.08095276 0.076483846
000040 30 c0 a0 3d 7e e8 cd 3c 78 84 09 3c 01 75 12 bd
       0.07849157 0.025135275 0.008393399 -0.035756115
000050 14 31 b9 bc 10 0f 95 bd b8 ab bc bc 00 ec 63 3b
       -0.02260641 -0.072782636 -0.0230311 0.0034778118
000060 f2 da 73 3c 12 ea 8c bd 7a ec c3 bc 9c ac ca bc
       0.014883744 -0.06880583 -0.023916472 -0.02474051
000070 80 f4 81 ba d3 1e 30 bd 49 68 5d bd f4 7c a7 bc
       -0.0009914786 -0.042998146 -0.054054532 -0.020445324
000080 a8 68 bb bc 30 d6 81 3b b0 30 d9 3c 38 fb c8 bc
       -0.022877052 0.0039623007 0.026512474 -0.024533853
000090 21 57 bf bd 40 d6 68 3c 9e 5a ad bd 3b b6 ef 3c
       -0.093427904 0.014211237 -0.084645495 0.029261699
0000a0 a8 b7 c1 bd a4 d6 48 3d 68 2c 13 3d 80 0d 0f bd
       -0.09458858 0.049032822 0.03593102 -0.034924984
0000b0 2b 5f 33 bd 7c 30 1e bd 1c b3 41 3d c0 1d ae bb
       -0.04379193 -0.038620457 0.047289953 -0.005313605
0000c0 80 ac 5a 3a 3c ec 58 3c 18 ee 08 bc 3a 6f c7 bc
       0.00083417445 0.013239916 -0.008357547 -0.02434503
0000d0 bc df bd bc 14 1b 2a bd a0 3a 9f bd 90 88 9e bb
       -0.023177974 -0.04152973 -0.07774854 -0.004838057
0000e0 a1 f1 25 bd f4 0e 3c 3d f0 c9 ee bb f8 eb 89 3d
       -0.04051364 0.045912698 -0.0072872564 0.067344606
0000f0 96 fb 91 3d d9 82 83 3c b4 e6 88 3d 20 f6 86 bd
       0.07128064 0.016053604 0.06684628 -0.06589913
000100 e3 71 bc bd 38 28 50 bc 7c 6b 4f bd a3 36 1c 3c
       -0.0920141 -0.012704901 -0.050639614 0.009534511
000110 ba e3 bf bb a5 86 70 bd 62 47 8f bc c0 ba 30 3b
       -0.0058560045 -0.058722157 -0.017490093 0.002696678
000120 24 c3 c0 bd 03 fa a8 bd ae 5b 95 3d cf 59 ca 3b
       -0.0941222 -0.08250811 0.07292877 0.006175257
000130 50 ed bf 3c 90 b1 4c 3c b5 1a 86 bd 2e cf 88 3d
       0.02342859 0.012493506 -0.06548063 0.066801414
000140 90 ae 30 bd 25 03 9e 3c 21 95 ae 3d 26 49 bb bd
       -0.043135226 0.019288609 0.08524538 -0.09144811
000150 a0 6c 4c 3d 80 aa 51 3a f3 7e 1d bc 30 83 35 bc
       0.04990828 0.0007998124 -0.009612787 -0.011078641
000160 b7 87 9b bd 69 2f 34 bd 1c 57 12 3d d0 ea b4 3b
       -0.07594245 -0.043990526 0.035727605 0.005521156
000170 10 60 98 3d 10 f8 1c bc 86 f0 93 bd 30 6b 91 3b
       0.074401975 -0.009580627 -0.072236106 0.0044378266
000180 e2 21 80 3d 05 45 23 3d 7c d7 0a bd 9c c2 40 3d
       0.06256463 0.039860744 -0.03389691 0.047060594
000190 cf 32 f5 3c a1 62 ae bd 1d ca 0e bd dc e5 d2 bc
       0.029931454 -0.08514906 -0.03486072 -0.025744371
0001a0 99 09 90 bd 78 02 fe 3a 0c ff 59 3d 20 2d 47 3d
       -0.070330806 0.0019379398 0.053221747 0.04862702
0001b0 cf 29 1b bd de 2a 18 bd c4 db 9c 3d 90 35 ba bb
       -0.03788167 -0.037150256 0.076591045 -0.0056826547
0001c0 24 eb fb bc b8 15 9c 3d b8 82 5e bc c8 38 9e 3d
       -0.030751772 0.0762133 -0.0135809705 0.07725674
0001d0 f0 3f e1 3c 73 16 ad 3d d4 9c b2 bc 97 26 a6 bd
       0.027496308 0.084515475 -0.021803297 -0.08112829
0001e0 0c 74 2a 3d b4 3c 50 bd 27 b2 7b 3c bb 6b 68 bd
       0.041614577 -0.05083914 0.015362299 -0.056743365
0001f0 dc 53 95 bc 91 a9 73 3d 36 ff b4 bd 4c 5e d5 bc
       -0.018228464 0.059487883 -0.0883774 -0.02604594
000200 b5 d0 5b 3d aa 1c 94 bd a7 59 9c bd da 42 bd 3d
       0.053665835 -0.0723203 -0.07634287 0.092412665
000210 6a 59 aa 3d e8 0e 8b bc 18 64 e8 3c dc 22 4d 3d
       0.08317836 -0.016974881 0.02836804 0.050082073
000220 42 50 8c 3d 88 25 4d 3d d0 fa 3f bd b0 c9 a5 3c
       0.068512455 0.05008462 -0.046870053 0.020237774
000230 50 7a f8 3b 1a cc 15 bd ef 04 90 3d 48 9e 92 bd
       0.00758294 -0.0365716 0.07032191 -0.07159096
000240 74 c8 ca 3c 9c 31 87 3d 58 5f aa bc 45 1b 9c bd
       0.024753787 0.06601259 -0.020797417 -0.07622389
000250 90 1e 00 3d 18 24 17 3c eb 7a 97 3a 5d 05 1a bd
       0.031279147 0.009224914 0.0011557018 -0.03760277
000260 3a ca 61 bd 3d b7 6d bd c3 98 b2 3d e4 a2 2d bd
       -0.0551245 -0.058036078 0.08720543 -0.042391673
000270 70 bb 36 3d 08 08 ee 3b 10 7b 50 bd 86 3b a0 bd
       0.044612348 0.007264141 -0.05089861 -0.07823853
000280 bc c6 25 3d 5d 6a 20 3d bc de 84 bc a0 ad 32 3d
       0.04047273 0.039163936 -0.01621949 0.043622613
000290 f9 93 be 3d 18 70 f9 3c 84 d8 82 3d 00 fd 70 bc
       0.09305567 0.030448958 0.06388953 -0.014708757
0002a0 12 2c bf bd 00 a8 2d bc 7e 02 a7 3c 80 22 83 3a
       -0.093345776 -0.010599136 0.02038693 0.0010004789
0002b0 68 c5 3d bb ce b4 a3 3d 5a a0 3b 3d e0 8e b3 3d
       -0.0028956775 0.0799347 0.04580722 0.087674856
0002c0 58 0d 28 3c 3a e0 7f bd f0 5b 69 bd 31 2e c0 3d
       0.010257088 -0.0624697 -0.056972444 0.0938381
0002d0 6e 4a 6f bd a0 47 bd bc 04 39 19 3d 00 3d 5a 3b
       -0.05842059 -0.023105443 0.03740789 0.003330052
0002e0 00 20 bd bc 8f 50 e5 bc 7f ff 52 bd 98 75 91 3d
       -0.023086548 -0.027992515 -0.05151319 0.07102507
0002f0 38 6a 8f 3d 3a ac ad 3d 6e 52 ad bd 88 9b af ba
       0.070026815 0.08480115 -0.08462988 -0.0013397792
000300 e4 ad 8b bc cc f2 b9 bc 99 2b 62 bd f2 a0 9d bd
       -0.017050691 -0.022698782 -0.05521736 -0.076967135
000310 b5 ad 09 bd 28 48 4d 3d 1c a1 aa bc a0 a3 4e 3c
       -0.033612926 0.05011764 -0.020828776 0.012612253
000320 c0 52 21 bb 2c d3 a0 bd c2 9b 88 bd c4 f4 65 bd
       -0.0024615973 -0.07852778 -0.066703334 -0.05614163
000330 e8 e7 30 bd 1b f5 99 bc d8 6e 23 bc af 7e c0 3d
       -0.043189913 -0.018793633 -0.009975158 0.09399163
000340 38 04 0a 3c 28 6f 1a 3d 02 fa 98 3d 14 7d 6e 3d
       0.008423857 0.037703663 0.0746956 0.058224753
000350 fc 86 fb bc b8 f2 c0 bd b4 93 ac bd 7d be 1a 3d
       -0.030704014 -0.09421295 -0.0842661 0.03777932
000360 35 39 6b 3d 87 c3 1c 3d 96 dd 29 3c 8f 4b 64 3d
       0.057427604 0.038272407 0.010367772 0.05573612
000370 30 ef 76 3d 42 92 0b bd 70 ab 43 3c 6e ae 69 3c
       0.0602867 -0.03407503 0.011942729 0.014262779
000380 08 82 28 bc 90 e4 9c 3d 03 cc 71 bd 24 14 a9 bc
       -0.010284908 0.07660782 -0.05903245 -0.020639487
000390 da 84 82 3d 20 91 7e 3c 48 4a 13 3b 28 95 e6 3c
       0.06372996 0.01553753 0.0022474695 0.028147295
0003a0 9c 04 ae 3c d8 19 81 bd 24 2b cf bc ec fe 53 3d
       0.021242432 -0.063037574 -0.025289126 0.051756784
0003b0 1b 92 52 3c 19 b2 9e 3d 74 c7 c1 3d 53 0d 42 bd
       0.012852217 0.07748813 0.09461871 -0.04737599
0003c0 cd ce b3 bd 98 be 77 bd fd f8 9e 3d 23 e1 be bd
       -0.087796785 -0.0604845 0.077623345 -0.09320285
0003d0 eb 7e 2d 3d 26 50 29 bd 40 fe c1 3d fc b3 b4 bc
       0.042357367 -0.0413362 0.094723225 -0.02205848
0003e0 80 e1 2e 3a a3 fa a8 bd e0 e7 b0 bd e8 d7 91 bd
       0.00066711754 -0.0825093 -0.08637977 -0.07121259
0003f0 20 16 47 3c df 9d a9 bd ef ed 1b bd 20 a9 77 bb
       0.012151271 -0.08282065 -0.038068708 -0.0037790015

model.0.bias f4 [128]
000000 90 ba 7a b9 a7 b3 75 3a 38 0e 81 ba 50 d2 a3 3a
       -0.00023911358 0.00093727786 -0.0009846156 0.0012498591
000010 e2 08 07 3b b8 c6 0f 3a 2e 43 ec 3a f8 61 c4 ba
       0.002060466 0.00054846285 0.0018025392 -0.001498281
000020 57 9b 6c ba a7 eb dd ba ae 01 c0 3a b2 c5 42 bb
       -0.0009025833 -0.0016931192 0.0014648938 -0.0029719886
000030 5c 96 c5 3a a6 f6 2f 3b 31 98 63 3b 91 81 48 b9
       0.0015074718 0.0026849895 0.0034728164 -0.00019121754
000040 35 ea 7e 3a f8 b4 26 3b b8 29 35 bb af 89 47 3b
       0.00097242306 0.0025437456 -0.0027643275 0.0030447056
000050 3a 0b cf ba 8c aa 2c bb 7e 66 89 ba 10 12 8a b9
       -0.0015796192 -0.002634677 -0.0010482816 -0.0002633487
000060 9c fe 84 3a 30 68 41 bb 23 ff 87 ba 7c 15 68 b9
       0.001014668 -0.0029511563 -0.0010375719 -0.00022133248
000070 f8 69 04 ba 8a d3 92 39 f4 76 81 3b 7f aa b2 3a
       -0.0005051191 0.000280049 0.003950948 0.0013631134
000080 d0 57 27 3b ac ea 98 39 3e 0c 24 bb 10 1d 65 3a
       0.0025534518 0.00029166543 -0.002503171 0.00087399874
000090 fe ea c7 39 b5 bc 63 3a ab a4 50 39 59 21 2e 3b
       0.0003813132 0.00086874823 0.0001989777 0.002657017
0000a0 6b 83 cc 3a 85 7a 8e ba 8d b0 4d ba 4e 74 0b 3b
       0.001560313 -0.0010870254 -0.00078464375 0.002127904
0000b0 5a bf a4 3a 66 a0 ff ba 8e a8 72 3b 81 64 48 bb
       0.0012569234 -0.0019502759 0.0037026736 -0.0030577483
0000c0 72 af e7 ba 2b 0a 0d 3b 84 3f 8a ba b5 10 8a ba
       -0.0017676188 0.0021520953 -0.0010547494 -0.0010533544
0000d0 62 c2 e5 ba 1c 7c df 39 3f 83 39 3a f4 d8 14 ba
       -0.0017529244 0.00042626343 0.0007076747 -0.00056780805
0000e0 74 83 97 ba dd 2c 05 bb 35 80 00 b9 12 2c 65 bb
       -0.0011559562 -0.002032093 -0.00012254792 -0.0034968895
0000f0 f7 34 07 bb 14 3f c0 3a 88 ba b9 3a 21 77 98 39
       -0.0020630935 0.0014667236 0.001416997 0.00029080457
000100 79 6b 4f bb 21 23 26 bb 89 5f 65 ba 55 24 5b 3b
       -0.0031649752 -0.0025350528 -0.00087498926 0.0033438404
000110 b0 97 23 b8 b2 45 77 39 de 2b e5 3a 45 14 35 3a
       -3.90035e-05 0.00023581719 0.0017484387 0.00069076224
000120 71 b2 ab 3a 87 6a f8 ba d2 2a bd ba 6c 43 91 ba
       0.0013099444 -0.0018952646 -0.0014432317 -0.0011082715
000130 e8 9e 14 b9 82 17 4e 3b cc dc 70 3b 49 42 b6 3a
       -0.00014173577 0.0031447117 0.00367527 0.0013905253
000140 7b dd 04 bb 0d 8b 67 3a a3 cb 9d 3a 0f 66 57 bb
       -0.0020273614 0.0008832671 0.0012038838 -0.0032867228
000150 3d df 63 ba 2d 80 24 b8 d7 ec 77 3b b5 bb f4 3a
       -0.0008692628 -3.922002e-05 0.0037830377 0.0018671664
000160 cd 32 d5 ba 39 18 c0 ba 11 8c 24 b9 5c 09 0f 3b
       -0.001626575 -0.0014655656 -0.00015692438 0.0021825647
000170 97 17 0f 3b ba c7 a3 3b 99 63 b9 ba 42 cb 62 ba
       0.002183413 0.0049981745 -0.0014144062 -0.00086515036
000180 30 23 20 3b 46 7b 2c 3a 25 7e 52 3a 80 80 92 39
       0.0024435036 0.00065796485 0.0008029661 0.0002794303
000190 20 0a 38 3b d4 a9 5f 3b 3d 85 46 3b 27 3f 52 38
       0.0028082207 0.0034128325 0.0030291819 5.0126717e-05
0001a0 01 70 20 b9 95 45 e7 ba c4 0b c2 39 5c 72 81 ba
       -0.00015300514 -0.0017644638 0.0003701133 -0.0009876001
0001b0 61 4a 6a 3a 85 cd be 3b 21 94 23 3a 45 c7 d2 39
       0.0008937475 0.0058228397 0.00062400295 0.0004020279
0001c0 bc 1c 19 bb c7 5b a4 bb a7 56 4f 3b b1 ad 7c 3a
       -0.0023363074 -0.0050158235 0.0031637342 0.0009638919
0001d0 fc 80 c5 ba 76 bd 1b 38 97 70 b8 39 d7 8d 10 3b
       -0.0015068348 3.713133e-05 0.000351791 0.00220572
0001e0 20 94 34 ba ed 63 37 3b d4 4c 5c bb a3 2b 35 3b
       -0.00068885274 0.0027983144 -0.003361513 0.0027644418
0001f0 da 88 69 b9 ef d4 22 ba bb e2 70 ba dd 73 8b 39
       -0.00022271593 -0.0006211539 -0.0009189059 0.0002659847

model.2.weight f4 [128, 128]
000000 95 f6 11 3a a7 44 b1 bd 06 a2 18 3e 03 c5 1d be
       0.00055680546 -0.086556725 0.14905557 -0.15407185
000010 1b bf a5 bd 4f dd 7b 3d d7 ae 2c 3c 3e 89 1e be
       -0.08093091 0.061490353 0.010539732 -0.15482041
000020 a8 eb 2f 3e d7 42 44 3e f7 5d 4c 3e 09 6b 63 3c
       0.1717974 0.19166122 0.1995772 0.0138805
000030 ed f3 f6 3d e6 44 2e 3e 83 80 a9 bd a8 1c 05 be
       0.12058244 0.1701847 -0.08276465 -0.12999213
000040 f4 db 31 be a9 6d 21 bc f5 dd 1e be a8 07 43 3d
       -0.17369062 -0.009852805 -0.15514357 0.047614723
000050 96 cb ee 3b 94 8b 4b bd b4 f2 5b 3d e9 bd 3b be
       0.007287453 -0.04969366 0.053698257 -0.18334164
000060 de ed fc 3c f5 e9 5a bd 52 50 a2 3d d9 15 d4 3d
       0.030875143 -0.053445775 0.07925476 0.103557296
000070 86 f3 84 ba ae 45 2f be 32 d6 53 be 4e 5e a3 3d
       -0.0010143376 -0.17116424 -0.20687178 0.079769716
000080 38 c3 19 ba 81 6c ca bd a7 01 7b 3d 6b ed 56 3e
       -0.00058655767 -0.09883977 0.061280873 0.20989005
000090 78 e5 d2 bd 8c 49 51 3e 45 9e 02 be 04 e6 20 be
       -0.10297674 0.20438212 -0.12755688 -0.15712744
0000a0 71 1d a9 3d b2 e3 0b be 4f 33 8b bc 25 fd fb 3c
       0.08257569 -0.13661078 -0.01699224 0.030760357
0000b0 74 65 5a bb a8 a3 c3 3d 60 f1 23 3e f3 d1 4c 3c
       -0.003332463 0.09552699 0.16010046 0.012501228
0000c0 84 83 b8 bd 09 15 36 3e cf 98 e3 bc 8a 1d bd 3d
       -0.090094596 0.17781462 -0.027782826 0.0923415
0000d0 f0 ee c5 3d 36 b3 98 3d 2c 85 36 be bd 22 fc bd
       0.09664714 0.07456057 -0.17824239 -0.12311313
0000e0 9e 0e a4 bd d4 a6 75 bd 67 d9 85 bd 39 66 f3 bc
       -0.080106005 -0.059973553 -0.06535607 -0.02971183
0000f0 5d 69 17 bd 3f 00 43 3a 73 a0 53 3e 77 ff 9c bd
       -0.036965717 0.00074386963 0.20666675 -0.076659136
000100 c7 94 52 3e 2d 61 b7 bd 4d c7 a3 bd 67 99 30 be
       0.20564567 -0.08954082 -0.07996998 -0.17246018
000110 67 58 3c be 9b f0 3f be c7 5b 5a 3e ac 7a 30 3e
       -0.18393098 -0.18744127 0.21324073 0.17234296
000120 c5 77 59 bc ca 1e 48 be 88 97 bd 3d 7f ea be 3d
       -0.013273184 -0.19542995 0.09257418 0.0932207
000130 48 cd f0 bd 98 6e 29 3e 54 10 cd bc 1b 7f 00 bd
       -0.11757904 0.16546094 -0.0250322 -0.031371217
000140 09 7e 57 3e 3f fc 51 3e e9 76 db bc 83 3a 12 3e
       0.21044172 0.2050638 -0.0267901 0.14280133
000150 e9 64 43 3e e4 60 6c bd 2c 31 1c be f3 ee aa 3b
       0.19081463 -0.05770959 -0.15253133 0.0052164732
000160 e6 2e 1c be 88 b7 90 3d f0 1f 02 be ea ef 20 3e
       -0.15252265 0.07066256 -0.12707496 0.1571652
000170 4a 12 89 3d 56 c9 cd 3d 93 3b 52 3e b0 00 28 3e
       0.066929415 0.100481674 0.20530538 0.16406512
000180 2d 6e bf bb fb aa b1 bc 3a 0c 07 be 30 d2 64 3d
       -0.0058419914 -0.021687975 -0.13188258 0.055864513
000190 30 1c a2 bd 3e 18 bc 3d e6 de 57 3d 70 ba ea 3d
       -0.079155326 0.09184311 0.052702807 0.114613414
0001a0 78 25 dc 3d c7 87 2a 3e fe b7 00 3d 76 a9 4d be
       0.10749334 0.16653357 0.03142547 -0.20084175
0001b0 7d 28 82 bb d8 61 f1 3c 27 ee b2 bc b4 7b 05 3e
       -0.0039721117 0.0294656 -0.021842076 0.1303547
0001c0 4f 20 50 be 20 1e 3a be 5a dd 8d 3d 78 a6 33 3d
       -0.20324825 -0.18175554 0.06926985 0.04385993
0001d0 34 8b c0 3d fe 7d 50 3d f4 93 f5 3a 2b aa a7 bd
       0.09401551 0.050901406 0.001873611 -0.08186754
0001e0 86 8f b2 3d dc 14 e7 bd 13 2c cf 3d 15 95 ec bc
       0.08718781 -0.112832755 0.10115828 -0.028879682
0001f0 fd 35 14 be f2 1a cf bc 2a d4 45 3e 58 75 e7 3d
       -0.1447372 -0.025281403 0.19319215 0.113016784
000200 31 43 57 be 9b c0 76 3d be 80 62 3c ed 9e e0 3d
       -0.21021725 0.060242277 0.01382464 0.10967813
000210 0b d2 b0 bd db 8b 0c 3e d0 91 27 3e 18 44 61 3d
       -0.086338125 0.13725226 0.16364217 0.05499658
000220 0a 8f 2c 3e 15 fe 09 3c 1f a6 77 bd 66 9e 39 be
       0.1685144 0.008422394 -0.06046116 -0.1812683
000230 2a 91 dd 3c 37 ab 46 be 69 9b 12 bd b2 a8 1b 3d
       0.027046759 -0.19401251 -0.035792742 0.038002677
000240 d0 47 0a 3a ab 82 82 3c 4c 94 c3 3c 5b e7 d6 3d
       0.0005274983 0.015931448 0.023874424 0.10493346
000250 18 a2 a7 bd 41 2b 23 be 38 0d 16 be e8 da 48 be
       -0.08185214 -0.15934469 -0.1465348 -0.19614756
000260 a2 f8 05 be 4d eb db bc 2b ae 15 3c fe 1a c4 3c
       -0.13083127 -0.026845599 0.009135763 0.023938652
000270 70 6c dd 3d dc ec 44 be f6 93 95 bd 13 0f 3f 3d
       0.108116984 -0.1923098 -0.07303612 0.046645235
000280 09 fb 6a 3d 4e ea dc bd 38 1e 9d bc e1 0a 84 bc
       0.057368312 -0.107868776 -0.019179448 -0.016118469
000290 6d 15 3b 3e 62 fb bb bd 97 ce 93 bd 6c 51 57 be
       0.18269892 -0.09178807 -0.07217138 -0.21027154
0002a0 d6 c9 13 3e f6 a0 2d 3d b1 0a ea bd 29 26 2f be
       0.14432463 0.042389832 -0.114278205 -0.171044
0002b0 2d ff cd 3d 5e 8d 45 be e0 ff 18 3d 7f 65 95 bd
       0.100584365 -0.19292209 0.037353396 -0.072947495
0002c0 4d 05 ff 3c 3c dc a4 3d 02 e2 0c bd 89 4c 14 be
       0.031130457 0.08049819 -0.034395225 -0.14482321
0002d0 3a fc 27 be 3f b6 95 bd 52 13 b4 3d 67 5d 4c be
       -0.1640481 -0.07310151 0.087927476 -0.19957505
0002e0 cb 21 1f 3d 9c 00 3b be 61 b5 59 3e 99 a1 1c bd
       0.038850587 -0.18261951 0.21260597 -0.03824005
0002f0 ce e4 7d bd 42 a7 4b 3e 9c 56 36 bd a8 83 44 bc
       -0.061985783 0.19888023 -0.04451619 -0.01199428
000300 3d fb 28 3e a3 3f d8 3d a9 35 54 be e8 2b 1e 3e
       0.1650209 0.10559013 -0.20723595 0.15446436
000310 36 8e 2b 3e b8 5c 2a 3e c8 ff 45 3e 4c 24 36 3d
       0.16753468 0.16636932 0.19335854 0.04446821
000320 b2 ae 01 be e4 9d 59 be 98 75 61 bc 7d 4a 87 bd
       -0.12664297 -0.21251637 -0.013760947 -0.066060044
000330 b6 40 5e bd 0c 6d 1e 3e 45 46 00 3e 22 19 31 bd
       -0.054260932 0.15471286 0.12526806 -0.04323686
000340 b8 74 e5 3d 43 be 3c be ad 26 48 3d 17 89 1d be
       0.11203903 -0.18431954 0.04886501 -0.15384327
000350 09 ea 23 bd e1 45 34 3e 70 b5 ad 3c cd 37 20 3e
       -0.040018115 0.17604782 0.02120468 0.15646286
000360 af 72 73 3d 6c 96 4c be 86 2e 30 3e 37 d9 d7 bd
       0.059435543 -0.19979256 0.17205247 -0.10539477
000370 86 c4 73 3d ed fc d4 3c e1 8f 38 3d 18 5f f8 bd
       0.05951359 0.02599951 0.04505909 -0.12127513
000380 a6 1b 80 3d 9b ac 5c be 50 4b ab bb bb a4 47 3d
       0.062552735 -0.21550219 -0.005227484 0.048741084
000390 90 47 1f 3e 37 cd 9f bd a9 8b ce 3d cf 51 3a be
       0.15554643 -0.078028135 0.10085232 -0.1819527
0003a0 29 11 ae 3d 6f 98 28 3e 4e 8c 39 3e e9 75 04 be
       0.08499367 0.16464399 0.18119928 -0.12935604
0003b0 39 aa 02 3e c1 5e 5d 3e 03 bf 2b 3e f3 2c c0 bd
       0.12760247 0.21618177 0.16772084 -0.093835734
0003c0 9c 3d 34 3d b9 ea 0c 3e 27 b0 48 3e 7c 33 11 be
       0.044004068 0.13761415 0.19598447 -0.14179796
0003d0 c6 97 57 be 7b b0 2d bd 97 4b d8 3d f3 89 46 3e
       -0.2105399 -0.042404633 0.105612926 0.19388561
0003e0 5e 00 b5 3a 7b 74 46 bb 30 0e a3 bd 6d 73 c1 3d
       0.0013809314 -0.003028183 -0.079616904 0.09445844
0003f0 9f f7 27 be 8e e0 3a be 91 ed 4a 3e 46 23 54 3e
       -0.16403054 -0.18249723 0.19817187 0.20716581

model.2.bias f4 [128]
000000 96 57 13 3b c5 03 8e 3b 1d 4a 07 b7 a7 e3 0d bb
       0.0022482625 0.0043339455 -8.063883e-06 -0.0021650584
000010 6f c9 ec 3a 8d 16 b6 3a f1 67 67 3b 6b 5d c4 b9
       0.0018065403 0.0013892219 0.0035309757 -0.00037453635
000020 8d 5d e3 3a b7 a4 b0 ba ec 91 18 ba 41 cb ba 3a
       0.0017346606 -0.0013476823 -0.0005820084 0.0014251248
000030 2e 6c 7c 39 00 81 a1 3a 25 12 52 bb b6 1f b5 ba
       0.00024072893 0.001232177 -0.0032054272 -0.0013818655
000040 c2 2f 3f bb 94 b0 23 ba e7 9e 1d b7 16 48 a5 3b
       -0.0029172753 -0.0006244269 -9.394927e-06 0.0050439937
000050 bd f8 67 3a 20 81 1a b8 6c b9 b8 b8 af 5b cc 3b
       0.00088490156 -3.683672e-05 -8.808341e-05 0.0062365155
000060 1a f4 b3 3b d1 7e 16 3b 02 52 a6 bb ab 2c 14 bb
       0.0054917457 0.0022963772 -0.005075694 -0.0022609632
000070 dd b2 7f ba 2f 1e 9c b9 56 97 27 bb eb 37 f0 ba
       -0.0009754131 -0.00029777127 -0.002557238 -0.0018327212
000080 be 90 37 3b c3 5b 26 3b c6 68 97 ba 59 55 ba 3a
       0.0028009857 0.0025384284 -0.0011551611 0.0014216109
000090 41 ca 76 3b 15 4a 71 3b ee 00 bb 38 63 6c 0f bb
       0.0037657174 0.0036817838 8.917028e-05 -0.0021884672
0000a0 3c be 60 b9 42 8b 23 ba 0c cd 8a 3a 77 94 aa 3b
       -0.00021433173 -0.00062387076 0.0010589673 0.0052056867
0000b0 81 b9 30 b9 2f be 64 ba 5e 4a f8 3a 37 72 3c ba
       -0.00016853774 -0.00087258493 0.0018943062 -0.000718865
0000c0 d3 43 20 bb 0a ec dc b7 10 ed d7 b8 d4 98 49 bb
       -0.002445449 -2.6335958e-05 -0.00010296155 -0.0030761259
0000d0 6b 00 de 3b 25 65 16 bc 98 f8 6c b9 cd be df 3a
       0.006774952 -0.009179388 -0.00022599322 0.0017070413
0000e0 d9 97 f5 ba 99 55 59 3a 6d 75 b8 ba cf 5b a0 39
       -0.0018737271 0.0008290648 -0.0014073082 0.0003058598
0000f0 2e 53 86 bb a3 1e 8a bb 0d 2d 08 3c 77 7c e7 3a
       -0.0040992713 -0.004215078 0.008311522 0.0017660995
000100 de 24 6a b9 f9 b5 fc ba 42 a9 12 bb cc 16 0a bb
       -0.00022329713 -0.0019280306 -0.0022378718 -0.0021070717
000110 e3 e1 9d ba 98 b8 47 ba a7 43 27 38 2e d2 72 b9
       -0.0012045469 -0.0007618754 3.987891e-05 -0.00023157216
000120 c5 da 55 3b bb 15 bc 3b e1 c4 a0 ba 2d 03 1a b7
       0.0032631618 0.005739895 -0.0012265706 -9.179855e-06
000130 38 0d ea b9 3e af 0b 3b 67 6f 5e 3b fa fe 16 b8
       -0.00044641807 0.002131417 0.0033940913 -3.6000252e-05
000140 b4 7c 44 3b 48 10 61 3a 4d 90 83 bb 9d 1c 0b 3b
       0.0029981555 0.0008585495 -0.0040150047 0.0021226772
000150 7b 43 90 39 a3 09 57 39 bb 87 51 ba 02 70 75 3b
       0.00027516097 0.00020507588 -0.00079929427 0.0037450795
000160 03 b7 1e ba 61 fb 24 bb de 8c 0d bb b9 e0 93 3b
       -0.00060544926 -0.0025174248 -0.0021598856 0.004512873
000170 f3 dd 0b 3a 37 96 35 3a f8 ab c1 b8 b5 20 b6 3b
       0.0005335502 0.0006926986 -9.234989e-05 0.005558098
000180 9c d2 8c ba e2 82 20 bb 0f d7 32 3b dd 49 b6 b9
       -0.0010743919 -0.0024492075 0.002728883 -0.00034768778
000190 c1 52 42 3b 6b 31 a7 3b e7 a3 85 3a f2 60 34 39
       0.0029651376 0.0051023266 0.0010195941 0.00017202253
0001a0 8f 4f 05 3a 53 19 39 38 2d 99 32 3a 69 53 ca bb
       0.00050854025 4.4131022e-05 0.0006812986 -0.006174494
0001b0 9b 89 89 3b 20 ee ce 38 39 4a d2 ba 1f 4e 30 bb
       0.004197312 9.8672e-05 -0.0016043849 -0.0026902033
0001c0 06 35 4e 3b 61 05 91 ba 27 3b bc 3a e5 a5 a7 ba
       0.003146471 -0.0011064225 0.001436089 -0.0012790529
0001d0 47 42 ad b8 85 dc 95 3b 81 f9 2a ba f6 c1 bc 39
       -8.261628e-05 0.004573407 -0.00065221643 0.00036002666
0001e0 20 84 23 ba 53 d2 42 3b bb a7 8c 39 33 ff 08 ba
       -0.00062376447 0.0029727414 0.0002682785 -0.0005226016
0001f0 e7 03 ea ba 92 45 99 3a 99 8c 8b b9 73 0a ad 39
       -0.0017853946 0.0011693707 -0.000266169 0.00033004917

model.4.weight f4 [128, 128]
000000 a4 85 f4 bc c0 30 55 bd eb 1d 46 bc bf cf b2 3d
       -0.029848881 -0.052048445 -0.012092094 0.08731031
000010 aa ab 20 bd be 56 32 3e 45 a1 2e be 7d ee 9e bd
       -0.03922621 0.17415902 -0.17053707 -0.07760332
000020 9a 64 42 3d 68 c8 5c be 8f 4b 72 3d f5 0e ad 3d
       0.047459222 -0.21560824 0.05915409 0.084501185
000030 41 22 68 3d ae ca 9f 3c b0 c8 e6 bd fe 9b 52 bd
       0.056673292 0.019505825 -0.11268747 -0.051418297
000040 97 bf e4 bd 10 4a 06 3c a2 d2 b2 bd 6c b9 aa 3d
       -0.11169355 0.008196369 -0.08731581 0.08336148
000050 d5 cc 5e bd 35 ba 56 be b4 90 35 be d1 6a a2 3d
       -0.05439456 -0.2096947 -0.17730981 0.0793053
000060 88 5b 58 3e d9 49 d6 bd 34 d5 0c be 13 1b e1 bd
       0.21128666 -0.10463304 -0.13753206 -0.10991492
000070 93 90 32 be 8b bd 4f be 0a d9 20 be ef 9c 94 3d
       -0.17437963 -0.20287149 -0.15707794 0.07256495
000080 c7 d8 8d 3d c8 36 50 3d 7c 21 1d 3e 9e 60 f5 3d
       0.069261126 0.050833493 0.15344805 0.11981319
000090 8f f0 cb bd ca 44 1d bc 43 a6 8d bc 63 75 f0 3d
       -0.09957992 -0.00959892 -0.017291194 0.1174114
0000a0 b9 92 a5 3d d9 9c 9b ba 88 b7 e8 3c fe 7d 06 be
       0.08084626 -0.0011872306 0.028407827 -0.13134
0000b0 ea da b6 3a 75 2b 0c 3e 54 7c 67 3d f5 3d 54 be
       0.001395074 0.13688453 0.056515053 -0.2072676
0000c0 a0 45 39 be bd 96 07 be fe d3 91 3d af 86 4f bd
       -0.18092966 -0.13241096 0.071205124 -0.050665554
0000d0 43 7c 9e bd ad e4 bc bd 53 6c b5 bd 7e 4e 60 bc
       -0.07738545 -0.09223304 -0.08858552 -0.013690589
0000e0 02 91 05 3e b9 a6 49 3c 7b ee 2d be 34 9e ef 3d
       0.13043597 0.012307816 -0.16985504 0.11700097
0000f0 64 eb c7 3d b0 0b 0f be 58 66 54 3e 31 07 8a b9
       0.09761694 -0.13969302 0.20742166 -0.0002632677
000100 71 2f e3 3b 07 31 44 be f3 07 6d bd 08 92 6b 3d
       0.0069331457 -0.19159327 -0.05786891 0.057512313
000110 f3 f9 27 3e 67 ad 13 bd a6 e4 37 be 2e 03 24 be
       0.16403942 -0.03605404 -0.17958316 -0.16016838
000120 69 fa c1 bd 79 44 62 3c 53 d6 ed 3d 84 ad e3 bd
       -0.0947159 0.0138102705 0.11613145 -0.1111708
000130 87 8a d1 bd 4a aa 39 be 7e ff 9a bd f0 47 8d bd
       -0.102315 -0.18131366 -0.075682625 -0.068984866
000140 9f 7d 12 be 2c 41 b9 3d e8 bb 90 bc b4 4d 82 bd
       -0.14305733 0.09045634 -0.017667726 -0.06362477
000150 69 98 54 bb 71 bd a1 3d aa f8 d4 3d f8 75 07 be
       -0.0032439476 0.07897461 0.103989914 -0.13228595
000160 ed 33 0e 3e 71 a5 8f bc 74 39 34 3e 6f 69 8b 3d
       0.13886996 -0.017534943 0.17600042 0.06807219
000170 d2 34 44 3e 01 fe 08 3d 55 44 ce bd 15 cd be 3d
       0.19160774 0.033445362 -0.10071627 0.0931646
000180 dc 53 6b bd b0 e7 c0 3d 41 78 02 3d ce 7f 48 be
       -0.05745302 0.09419191 0.031852964 -0.19580004
000190 06 be 30 bd ab 46 4b be ea e0 35 be 53 cb e0 3d
       -0.04314997 -0.19851176 -0.17761579 0.10976281
0001a0 c2 d8 09 be 20 17 5a bc d1 a1 c5 3d 59 0c 16 be
       -0.13461593 -0.0133111775 0.09650005 -0.14653148
0001b0 88 04 97 3c 89 06 f3 bd 48 0e 05 be f0 63 2c be
       0.018434778 -0.11866481 -0.12993729 -0.16834998
0001c0 3f 88 54 3e 6a ba c1 3d ae 2d 45 be 31 18 35 be
       0.20755099 0.09459384 -0.19255707 -0.1768501
0001d0 19 36 a3 3d 62 a7 41 3e 1e 25 58 3e 64 c2 d6 3d
       0.07969303 0.18911508 0.21107909 0.10486296
0001e0 28 ab b6 3d 62 8d 06 be 78 fa a5 3d 3d e2 c8 3d
       0.08919364 -0.13139871 0.08104414 0.098087765
0001f0 9c c6 49 3e 23 f3 33 bd 9a b7 36 be 9f d5 3f 3e
       0.1970467 -0.043933045 -0.17843476 0.18733834
000200 ee 9f 50 be 50 b3 48 be 6a 5f fc 3d c7 f1 16 3e
       -0.20373508 -0.19599652 0.12322886 0.14740668
000210 59 7d 46 be f2 f1 a2 bc 6c 9c ca bb 5e d3 f6 3d
       -0.19383754 -0.01989076 -0.0061831977 0.12052034
000220 0a ed 62 bc 86 8a b0 3c a5 71 34 be ae ce 3f 3d
       -0.01385046 0.021550428 -0.17621477 0.046827964
000230 4e 9a 56 be 5d e6 d7 3d 83 d7 04 be 93 5c 5a bd
       -0.209573 0.10541985 -0.12972836 -0.053310942
000240 68 65 48 be 2d 7c 07 3e fb df 80 bd d6 d0 0f 3e
       -0.19569933 0.13230963 -0.06292721 0.14044508
000250 23 2b 00 be 4f ee 30 be 03 6c 10 be 06 75 e3 bd
       -0.12516455 -0.17278408 -0.14103703 -0.11106305
000260 6d 70 39 be 0f 0b ec bc 99 c2 37 be bb 28 1b be
       -0.18109293 -0.028813867 -0.17945327 -0.15152256
000270 d0 43 a7 bd 95 6c f4 bd 77 e6 04 bb 72 b1 08 be
       -0.08167231 -0.11934773 -0.002027897 -0.1334894
000280 f3 14 09 3e f6 68 84 bc 6b 99 22 be b8 11 c4 3d
       0.13386898 -0.01616333 -0.15878837 0.09573692
000290 b9 b2 a0 bd cb 88 fa 3d 1e e1 34 3e 76 5b 9a 3a
       -0.07846589 0.122331224 0.17664 0.0011776525
0002a0 df 2e 3b be 1b 57 19 3e 53 f7 54 3d c7 fc 2d bc
       -0.18279599 0.14974634 0.05199368 -0.010619349
0002b0 1e 0b 52 3e 14 34 26 3d cb 8a 11 be a6 c9 44 3e
       0.20512053 0.04057701 -0.14213102 0.19217548
0002c0 3f 45 79 3a 55 8c 42 3e 23 ef c8 3d 1d 1e 37 3e
       0.00095089147 0.18998845 0.09811237 0.17882581
0002d0 04 0b dd bc f8 83 68 3d 08 50 3c be 79 bd a0 bd
       -0.026982792 0.05676648 -0.18389904 -0.07848639
0002e0 8c 36 9a bd 63 73 40 bd 09 b5 28 3e 93 4e 1a 3d
       -0.07529935 -0.04698504 0.1647531 0.03767259
0002f0 bb 62 ff bd 6a 18 00 be 93 64 aa 3c f4 cd 16 3e
       -0.12470003 -0.12509313 0.02079991 0.14727002
000300 a2 63 28 3e ac 89 5b 3e 4e 2d 47 bd 21 75 41 be
       0.16444257 0.21439236 -0.04862719 -0.18892337
000310 4c f0 c5 3b 9b b6 7e 3d 9f bc 42 3e 09 67 58 be
       0.0060406085 0.062185865 0.19017266 -0.21133055
000320 87 80 dd bd 52 bd 16 be 5c f5 56 3e 11 67 c7 bd
       -0.1081553 -0.14720657 0.20992035 -0.09736455
000330 bc 76 19 be 4f 82 4a be 43 d4 cf bd 0a 37 49 be
       -0.149867 -0.19776271 -0.101479076 -0.19649902
000340 b0 8c be bd 2e 3f 37 3e d6 82 06 3e 9a 7c 22 be
       -0.09304178 0.17895195 0.13135847 -0.15867844
000350 16 5d 37 be e1 7c 0d 3e f4 d9 eb bd 72 22 a0 ba
       -0.17906603 0.13817169 -0.11516181 -0.0012217297
000360 f3 a2 37 bd 25 d9 e9 bd 40 55 b2 3d 44 8e 4b bd
       -0.044833135 -0.1141837 0.087076664 -0.049696222
000370 88 d8 00 bd 37 8a 91 3d 35 81 91 3d 70 46 a4 bd
       -0.0314565 0.071064405 0.071047224 -0.080212474
000380 7c d8 44 be 7e 7f a0 bc 7f 1d 6e bd fd c2 f7 bd
       -0.19223207 -0.019592043 -0.0581336 -0.12097738
000390 49 b9 0c be b0 ab e3 3d b2 41 22 3c f6 3a ec bc
       -0.13742556 0.11116731 0.009903358 -0.028836709
0003a0 45 0f 78 bc 3c 68 28 3d 60 e3 25 3e 05 83 d9 39
       -0.015140359 0.04111503 0.16200018 0.00041487082
0003b0 3a 3f 8a bd dd 17 36 be 4f 6a 0f be 4b f7 1e bd
       -0.06750341 -0.1778254 -0.14005397 -0.038810056
0003c0 53 0d 56 3e dd 80 0a 3e b7 01 38 3e 13 b1 81 bd
       0.2090352 0.1352572 0.17969404 -0.06332602
0003d0 80 ea 62 bd 77 47 51 3d da 1a 47 bd 8b a2 78 bd
       -0.055399418 0.051093545 -0.048609592 -0.060701888
0003e0 d6 72 10 be 38 9d 0d be 32 c0 3c be 44 af 01 be
       -0.14106306 -0.13829505 -0.18432692 -0.12664515
0003f0 81 70 39 bd 0d cd da bd 46 dc 0f bc ec 7a eb bd
       -0.045273308 -0.106836416 -0.008780545 -0.11498055

model.4.bias f4 [128]
000000 02 b8 1f 39 0a d6 05 b9 fc d4 60 ba e3 8a b2 3a
       0.0001523197 -0.00012763604 -0.0008576659 0.0013621714
000010 d3 16 8d bb 5c 4d 8e 3a d2 7f 72 3b 15 40 24 bb
       -0.0043056994 0.0010856795 0.0037002456 -0.002506261
000020 66 81 c1 38 9e 7f 51 bb a6 ae dd 3a e7 9b 71 bb
       9.2270595e-05 -0.0031966935 0.0016913011 -0.0036866607
000030 70 f8 1b 3a 5c e7 52 3b 0d 48 a9 bb 93 0f 2b 3b
       0.0005949801 0.0032181358 -0.00516606 0.0026101812
000040 64 a6 71 ba 36 00 2d bb fe 60 0d b9 e6 25 5d 39
       -0.00092182145 -0.002639783 -0.0001348294 0.0002109032
000050 f4 6a 72 3b 6c 02 08 3a db d7 51 ba df d1 3c 3a
       0.0036990019 0.0005188349 -0.0008004882 0.0007202904
000060 2d 9d ab b8 42 e5 b8 ba 5e a8 6f 3a 23 30 1f b9
       -8.183192e-05 -0.001410641 0.0009142215 -0.00015181354
000070 e6 61 74 bb 00 00 00 00 f0 d9 fa b9 ee 94 21 bb
       -0.0037289797 0.0 -0.00047846092 -0.002465542
000080 a9 97 36 3a 8f b1 16 b8 bc 36 ec b8 d4 11 a5 ba
       0.0006965348 -3.592815e-05 -0.00011263552 -0.0012593814
000090 76 2f 14 bb d4 10 ba bb 13 2b 8a b9 0e a3 ba bb
       -0.0022611297 -0.0056782756 -0.00026353504 -0.005695707
0000a0 5b 94 80 3a 5c 59 a0 3b e5 d2 29 3b b5 3d 54 3a
       0.0009809838 0.004893465 0.0025913056 0.0008096353
0000b0 08 6e 9c 39 6f e7 a1 3b 26 15 8b 3b 22 6e 5a bb
       0.00029836618 0.004940919 0.0042444644 -0.0033329804
0000c0 10 ca d0 35 0e 17 5e 3a 2f 00 dc 39 57 ed b8 3a
       1.5556016e-06 0.00084720633 0.00041961807 0.0014108819
0000d0 03 11 85 3b a1 79 a2 bb 44 7a a1 ba 92 49 d9 3b
       0.004060866 -0.004958347 -0.0012319763 0.0066310847
0000e0 2a ff 58 bb ed a6 8d ba 33 89 e3 b8 33 4f a6 3b
       -0.0033111074 -0.0010807194 -0.00010849759 0.0050753593
0000f0 ba c8 4c bb ca e5 df bb 6f 76 a3 bb e0 b6 01 ba
       -0.0031247572 -0.006832813 -0.0049884836 -0.000494821
000100 a4 e2 88 3b b3 44 21 3a 6f e7 9a 3b ef 47 13 b9
       0.0041774083 0.00061518996 0.004727296 -0.0001404581
000110 c1 ad 01 3b 82 cc 4c bb 0a 42 7d bb 46 8f 4c 3b
       0.0019787403 -0.0031249826 -0.0038644099 0.0031213327
000120 cb 21 be ba f3 8e 3b ba 18 1f fc ba fa 50 85 ba
       -0.0014505921 -0.0007154785 -0.0019235341 -0.0010171228
000130 61 94 c0 bb 84 16 bc 3b 0a 3b 09 39 50 cd 29 3b
       -0.005877063 0.0057399888 0.00013087332 0.002590973
000140 db 49 e5 b8 68 84 03 bb 99 58 ab 3b 8c d9 04 3c
       -0.000109333276 -0.0020067934 0.0052290675 0.008108508
000150 29 67 60 38 91 da a7 3b 44 66 25 3b 9a 7c a0 3b
       5.3501837e-05 0.0051224907 0.0025237957 0.004897666
000160 2a b9 06 3b 42 57 32 ba 55 98 3d 3a f9 eb 91 bb
       0.0020557144 -0.00068031636 0.0007232477 -0.004453179
000170 4e 40 a4 bb ab f7 2b b9 3b 96 be b9 9f ea d1 3b
       -0.0050125485 -0.00016400094 -0.00036351554 0.006406143
000180 5d fd cf 3b 12 ee 7b 37 8d 76 54 bb dc 2e 7f 38
       0.006347342 1.5016196e-05 -0.0032419295 6.084038e-05
000190 1f be 33 3b bc 63 c8 3b 16 52 dc b4 82 90 3a 3a
       0.0027426553 0.006115405 -4.103792e-07 0.000711687
0001a0 e1 92 a7 38 39 93 97 3a 6c f4 bd b8 52 7b 04 3c
       7.990539e-05 0.0011564262 -9.0577494e-05 0.0080860425
0001b0 0d 01 ac b8 a0 01 bb bb 2c ca c6 3a 75 8b 13 b9
       -8.201795e-05 -0.005706981 0.0015166453 -0.00014070964
0001c0 81 e4 7b 3a 85 85 af 3b b0 46 c5 b9 b6 42 57 b9
       0.000960894 0.005356493 -0.00037627434 -0.0002052885
0001d0 86 71 a7 b8 b2 7e 30 b9 54 55 89 b9 fa 3a 27 b7
       -7.984326e-05 -0.00016831866 -0.0002619425 -9.967707e-06
0001e0 3e 7c d5 3b 66 c4 4f bb c5 02 4b b7 5a b7 54 3b
       0.006515055 -0.0031702756 -1.2100388e-05 0.003245792
0001f0 3f 52 08 3b 0d 9b 5a ba d8 eb a3 3a a7 94 0c ba
       0.0020800976 -0.00083391444 0.00125062 -0.0005362727

model.6.weight f4 [1, 128]
000000 f0 dd b7 3d b9 69 62 bd 54 2f 60 bd 47 7c 3f 3e
       0.08977878 -0.055276606 -0.054732636 0.18699752
000010 4a be 1d be 28 8e 7a 3d 99 3a 01 3e 9e 86 84 bd
       -0.15404621 0.061170727 0.1262001 -0.06470989
000020 85 e1 db 3c 31 04 eb bd a1 43 ba 3d a2 74 c6 bd
       0.026840935 -0.11475409 0.090949304 -0.09690215
000030 5e ff d5 3d bd 12 5d 3e 36 ab 38 be b5 c7 2c 3e
       0.10449098 0.2158918 -0.18034062 0.16873057
000040 5e 75 fa bd f3 1b 30 be a2 fa cf bc 3c 4a 4e 3c
       -0.12229417 -0.17198162 -0.025388066 0.012590941
000050 66 e0 db 3d 75 5f 01 3d 9b 28 04 bd e9 f2 c2 3c
       0.1073616 0.031585176 -0.032265287 0.02379747
000060 22 c6 53 bc 72 e8 48 be 6e 3b 16 3d a0 4c 17 bc
       -0.0129256565 -0.19619921 0.03667777 -0.009234577
000070 52 d2 d6 bd b0 e5 c0 bc e4 fa e3 bd 55 14 84 bd
       -0.10489334 -0.023547024 -0.11131838 -0.064491905
000080 20 92 2b 3e 8d 90 8a bb 57 a1 c3 bc d2 e2 f3 bd
       0.16754961 -0.0042286576 -0.023880644 -0.11908497
000090 83 fc 5f bd e4 d8 59 be d4 69 7c bd 7f 1c 19 be
       -0.054684173 -0.21274143 -0.061624363 -0.14952277
0000a0 4e 7e fd 3c a1 04 0a 3e 33 0e cf 3d d7 c9 cf 3d
       0.030944016 0.13478328 0.1011013 0.1014592
0000b0 a2 7b 24 3e 7b d9 4d 3e e6 9a 30 3e 8e 73 1e be
       0.16062787 0.20102493 0.17246589 -0.15473768
0000c0 b1 9a 07 3a 51 51 53 3d 06 49 d7 3c 48 f2 32 3d
       0.0005172892 0.05159122 0.026279937 0.04368809
0000d0 3e 19 25 3e f2 b1 1e be a4 24 fd bd b4 19 5a 3e
       0.1612291 -0.15497568 -0.12360504 0.21298867
0000e0 27 93 11 be 57 a6 fc bd 4d 71 83 bb e1 f5 2e 3e
       -0.1421629 -0.12336414 -0.0040113092 0.17085983
0000f0 59 06 59 be e8 09 3d be bf 09 28 be f6 29 fb bc
       -0.21193828 -0.1846081 -0.16409968 -0.030659657
000100 54 8b ef 3d f3 19 14 3d b2 b1 26 3e b2 d3 90 bd
       0.116964966 0.03615756 0.16278723 -0.07071628
000110 8b cb b7 3d 35 b4 d9 bd b9 de 04 be be cd 24 3e
       0.089743696 -0.10630075 -0.12975587 0.1609411
000120 89 35 1c be 5c 3a e6 bd 7b ee 87 bd 5e ca 7d bd
       -0.15254797 -0.112416 -0.066372834 -0.06196057
000130 b8 4e 38 be af ce 24 3e 75 23 e4 3b 60 03 22 3e
       -0.17998779 0.16094469 0.0069622346 0.158216
000140 ff e8 29 bd f8 28 c5 bd 1e 68 32 3e db ed 60 3e
       -0.041481968 -0.09626955 0.1742253 0.21965735
000150 ef ef 81 3b 57 30 1a 3e 0e da 96 3d 7f bf 13 3e
       0.00396537 0.15057503 0.073658094 0.14428519
000160 6f 78 25 3e 80 86 4c be bc c5 20 3d 24 3a 27 be
       0.16159223 -0.19973183 0.039251074 -0.16330773
000170 c5 32 15 be 77 b4 83 bd b6 4a da bc eb 4d 54 3e
       -0.14570148 -0.06430905 -0.026646953 0.20732848
000180 79 77 5d 3e 59 04 22 3d 6d 0a 2d be b0 7a 80 3b
       0.21627606 0.039554927 -0.16898508 0.0039208755
000190 65 80 3f 3e ad 3c 48 3e 6b dc 2e bd bc 76 3d 3d
       0.18701322 0.19554396 -0.042690676 0.046255812
0001a0 23 e6 87 3d cf b1 76 3d 63 d6 63 bc 8d 53 5f 3e
       0.06635692 0.060228165 -0.013906094 0.21809216
0001b0 b4 73 64 bd 1e 5d 57 be 72 e3 14 3e 6c f9 fc bb
       -0.055774406 -0.21031615 0.14539889 -0.007720163
0001c0 86 fe 95 3d 99 a9 48 3e 83 6f 18 be 9a d5 2c bd
       0.07323937 0.19595946 -0.14886288 -0.042195894
0001d0 13 f6 e3 bd 2b 8c a2 bd a4 f2 9b bb 89 a2 82 b9
       -0.11130919 -0.07936891 -0.0047591496 -0.0002491663
0001e0 4d 9e 3f 3e bf 9a 0a be 64 7c dd bb 2d 30 19 3e
       0.1871273 -0.13535593 -0.0067592133 0.14959784
0001f0 2e ea 07 3e 08 79 0e bd d3 cb 41 3d 47 29 50 be
       0.13272926 -0.034783393 0.047313523 -0.20328246
