models/neural_networks/regression/2024-08-17_21-54-05/model.pt (torch, 477416 bytes, 7 tensors)

model.0.weight f4 [128, 667]
00000000: a4fb 09bd c389 07bd 5c76 80bd 5827 713d
00000010: 90f7 8e3b 2cba b73d 808c 87bd f8f1 3ebd
00000020: 156a 003d 6c34 a0bd a479 46bd 67cf 00bb
00000030: 5278 a43d 5919 1cbd 505d 3abd bffc 103d
00000040: e214 93bd d5fc c13b 0d29 1c3d 6aa1 e63c
00000050: cc7b 593d 9698 1bbd 099f 12bd f860 87bc
00000060: 98e0 253d a3e9 b0bc 9e49 5dbd 04ac 9cbd
00000070: 7f5c ad3b f64b 8cbc eeb9 b0bd 264e 813b
00000080: cdde 19bd 2856 c53c 78b7 953d f06a 28bc
00000090: fc65 8f3d 01da 843d 2a3a 5ebd 6fb0 853d
000000a0: 3821 69bc 8827 16bc 8474 723d 80c8 98ba
000000b0: fd60 0c3c ee88 bf3d 075c 67bd 0355 833d
000000c0: 63a0 d33c b6a0 6abd 88e4 903d c82a aabc
000000d0: 749e afbd 0e95 923c b12b b2bd 4982 53bd
000000e0: 1caf 0b3a 6008 8abd 8bf0 a6bd 2b5c 8fbd
000000f0: 50a2 083c 5024 7d3d d87c b23c ea67 42bd
00000100: a47e 42bd 00b3 bd3d 5f37 bebd 01e7 8fbd
00000110: f3b6 a6bd 7cb9 3a3d 031d 133d 3d58 bfbc
00000120: eabd bcbd 5e1c 86bd 7b5c 493d 9d04 3dbd
00000130: e8a3 5a3c fc39 383c 80f9 d43b 153e 393d
00000140: cc35 253d 7892 163c afef 64bd 6279 b7bc
00000150: bce6 4d3d c03d 0c3b 0a48 98bd f896 503d
00000160: 7ab0 c03c ba2b b8bd b0cd 2f3d 2bed b43d
00000170: 12fc babd 3ba5 8d3d b870 82bc c0b6 5fbc
00000180: a913 a33d 949c 443d ea60 bbbd 22aa 863d
00000190: 457a 60bd 10bf b4bd 6863 293d 95e3 4cbb
000001a0: 84c8 643d 7275 8fbd 5a22 7a3d dda8 2c3d
000001b0: 7493 b13d 3449 80bd 91bc a3bd 00fb f83a
000001c0: ad78 c0bd e462 80bc f34e ecbc 86de 0bbd
000001d0: d708 8a3d b427 14bd ace9 77bd 6daa 76bd
000001e0: ea1e a1bd a8c5 643c 4030 d43b 9bdf 5c3d
000001f0: aec0 9dbd b2d1 ac3d 0400 58bd 5790 ad3d
00000200: 1c38 363d 5f7d 6ebd ef66 d0bb f457 b93d
00000210: 401c 41bb 4882 9ebc 3ddb a9bd 00de c1bd
00000220: 834f 72bd 4cb9 b93d f456 e03c 0064 02bc
00000230: f0c3 c53c 2c67 0a3d 0c15 bbbc cd71 083d
00000240: 8c27 773d 809b 25ba 8807 7a3d 9ec8 6abd
00000250: 1bc3 13bd d0fe 05bd 62ff 2ebd 20eb 83bd
00000260: 5044 95bd 0530 3f3d efb2 4dbd 328f b0bd
00000270: 9cfe 83bd 0e93 73bd b6b3 433d 1e50 60bd
00000280: cd8e a1bd a4e6 dcbc 9f70 bebd def0 183c
00000290: 7331 433c 6057 6d3c c09b 9c3c bb49 743c
000002a0: ba96 c63c a008 e9bb 0514 15bd 0e21 33bd
000002b0: ece2 aa3c 56ec 253d 6671 39bd 23da 6fbd
000002c0: f2c5 993d 96f6 38bd d403 ad3c 2c83 e5bc
000002d0: c421 98bd 2d40 c23c 0ae6 87bd 8853 293d
000002e0: 5581 b73c 1fc3 bd3c b966 853d 200b 0ebc
000002f0: a0e2 5e3c 611e ba3d 64b4 1c3d c080 f03c
00000300: 9b7b 87bd e747 b1bd c0dd c9bc 65b1 a4bd
00000310: 815e 67bd 80f6 7dbb cf02 1dbd e8fe 3c3d
00000320: 3778 be3d 0062 3a3d 8486 9a3d ea3c 55bc
00000330: e4ad b43c e69f 1cbd e729 8d3d 37ab 69bd
00000340: 62b0 883d 7430 9abc 80ce 9cba 2081 973b
00000350: 824b 92bd 812d 073d f866 4e3c 8d68 6abd
00000360: 56a2 963d be2f 52bd 5437 a6bd 1464 023d
00000370: aa70 993d f14a f33c 8f35 263d 5a6e 803d
00000380: 167d 9bbd 68d8 19bc de74 61bd 748d 6b3d
00000390: 8047 adbb 8a43 f13c ac72 593d d6ee 6ebd
000003a0: ed31 3fbc f3e5 a6bd 5309 1e3d 18c3 f5bc
000003b0: 0769 703d 947d 883d 582d c0bd 0820 a7bd
000003c0: 440e 873d b09b 193d 1ca3 6a3d 69cd 81bc
000003d0: 86d7 0ebd 000d 45bb a09b 983d 5ce4 383d
000003e0: baac 15bd 04e8 7bbd 30f7 593d 07fe 9a3d
000003f0: 0d5c babd 807a b4bb 33c0 10bd a8d5 89bd
-0.03368725 -0.033090364 -0.06272575 0.05887541 0.004363008 0.08971056 -0.06618595 -0.046617478
0.031351168 -0.07822499 -0.04845585 -0.0019654871 0.08030762 -0.03811011 -0.045499146 0.035397287
-0.071817175 0.0059200325 0.038125087 0.02815314 0.053096578 -0.037987314 -0.0357962 -0.01652573
0.040497392 -0.021595782 -0.054025285 -0.07649997 0.0052905674 -0.017126065 -0.08629213 0.0039460836
-0.037565995 0.024088934 0.073103845 -0.010279402 0.07001874 0.064868934 -0.05425469 0.06527793
-0.014229111 -0.009164698 0.05919315 -0.0011656433 0.008568046 0.09352289 -0.05648425 0.06412699
0.025833314 -0.057282172 0.07074839 -0.020772353 -0.085751444 0.01789334 -0.0869974 -0.05163792
0.00053285225 -0.06739879 -0.08151349 -0.070000015 0.00833948 0.06180221 0.021788046 -0.04746238
-0.047484055 0.09262657 -0.09287905 -0.070264824 -0.081403635 0.045587048 0.03591634 -0.023357505
-0.09215911 -0.06548379 0.049160462 -0.046146978 0.013344742 0.011244293 0.0064994693 0.04522522
0.040334508 0.009190194 -0.055892643 -0.022396747 0.050268874 0.002139911 -0.07435615 0.050925225
0.02352165 -0.08992715 0.04292077 0.08834299 -0.0913011 0.06916281 -0.01592289 -0.013654411
0.07962734 0.048000887 -0.09149344 0.06575419 -0.054804105 -0.08825505 0.041354567 -0.003126358
0.05585529 -0.07004823 0.061067916 0.042153228 0.086707026 -0.062639624 -0.079949506 0.0018995702
-0.09398017 -0.015672155 -0.02884624 -0.03414776 0.06739967 -0.036170676 -0.06052558 -0.060221124
-0.078672245 0.013963141 0.0064754784 0.053924184 -0.07702766 0.08438434 -0.05273439 0.08474796
0.044487104 -0.058225032 -0.006359927 0.09049979 -0.0029466301 -0.019349232 -0.082937695 -0.09466171
-0.05915786 0.09068546 0.027385212 -0.007958412 0.024141282 0.0337898 -0.022837184 0.033311654
0.06034045 -0.0006317422 0.06104234 -0.05732023 -0.03607474 -0.03271371 -0.04272402 -0.06441331
-0.0728842 0.046676654 -0.050219472 -0.08621062 -0.06445047 -0.059466414 0.047778808 -0.054763906
-0.07888565 -0.026965447 -0.092988245 0.009334771 0.011913645 0.014486164 0.019117236 0.014910157
0.024241794 -0.007111624 -0.036396045 -0.043732695 0.020860158 0.04050859 -0.04527416 -0.05855764
0.07508458 -0.045157038 0.02111999 -0.02801665 -0.07428315 0.023712242 -0.06635673 0.041339427
0.022400538 0.02316433 0.065137334 -0.008669645 0.013603836 0.090878256 0.03825797 0.029358268
-0.06615373 -0.086562924 -0.024641871 -0.08041648 -0.05648661 -0.0038751662 -0.038332757 0.046141535
0.09300273 0.045503616 0.07545188 -0.013015011 0.022055574 -0.03823843 0.06892758 -0.05704805
0.06674267 -0.018821932 -0.0011963397 0.004623547 -0.07143308 0.03300238 0.012597792 -0.057228614
0.07355182 -0.05131506 -0.08116022 0.031833723 0.07492192 0.02969882 0.04057842 0.06271048
-0.075922176 -0.009389974 -0.055043094 0.057507947 -0.0052880645 0.02945115 0.053087875 -0.05833324
-0.011669618 -0.08149328 0.03858311 -0.030000255 0.058693912 0.06664577 -0.09383649 -0.08160406
0.06594518 0.03750199 0.05728446 -0.015845018 -0.034873508 -0.0030067563 0.07451558 0.045139655
-0.036541678 -0.061500564 0.053214252 0.07567983 -0.090995885 -0.005507767 -0.035339545 -0.06730205

model.0.bias f4 [128]
00000000: 1bbe 513c 700e 2c3b ae03 24bb bfc5 6f3b
00000010: 9c46 623b ee10 0d3b c09d ab3c 7f53 843c
00000020: 7f5d 9e3c 2219 1c3d 24eb 263a 8fe9 cabc
00000030: 3608 cfbc a69c 78bb dc63 25bc e5e6 0dbc
00000040: d62e 73bb 047b 0c3b 6f70 503d 9583 2c3c
00000050: 908c 9b3c 9792 a0bc 4787 b63c 76e8 eaba
00000060: f409 5f3a 3fa7 193d c355 323c 7c47 933c
00000070: 3f37 323d 5a20 c13c eb29 95ba e0ca 2d3d
00000080: 8dcf 673c ce54 20bb 2fed 98bb 5309 dd3c
00000090: 3719 b13c fd8a 513c 7bf4 b9bb 4c78 023c
000000a0: ab04 b73c 7384 813c 4e67 e0b8 11aa 72bc
000000b0: fb6a a0bc ef17 093b fcd7 383d e023 163d
000000c0: 86b8 19bc 08b8 cfba 73dd 263c 4da6 78ba
000000d0: e232 89bb 9430 0f3d 0c25 113c f355 ce3b
000000e0: 0f90 023d a56c cbbc e9e4 78bb 0f00 ed3c
000000f0: bdf9 15bb c1a9 413d b098 de3b 1c60 013d
00000100: 03b3 e03b 214e 4c3d a798 63bc 8155 983b
00000110: 24c0 16bb 1f19 4cbc 4360 95bc f2d4 6b3c
00000120: d917 b43c 618f 1c3c bc29 1d3c a9ec 8e3c
00000130: f722 8cbc 6ef2 02bd 12b5 193d b2da 5b3c
00000140: dee5 e73b 549c 603d 4151 9abb 5ddf 89bb
00000150: deed 0b3c fef2 edbb e9c2 393c f05a 813b
00000160: db21 be3c 2b5b 983d 6f55 d4bb 0209 96bb
00000170: e51c 26bd 164a e13c 2f15 39bc 111c 9d3c
00000180: 8b4b d4bb f0e8 63bc 7286 853c 1a0b 8ebc
00000190: 7433 03bd 7240 f7bc 6b92 fd3c 0fd6 a0b9
000001a0: a0cc f6b9 f4b4 56bc 4446 a6bc c466 953c
000001b0: b963 1d3c 53ee 143c 6121 ec3c 2161 7bbc
000001c0: a772 8cbc fb01 da3c 1a40 203d 4144 e13c
000001d0: 4046 95bc 13a7 293c 616c e03c 23b5 c3bb
000001e0: 8fc1 fd3b 308f cc3b 4ad5 f03b 18b1 a73c
000001f0: b484 903c 9628 513c d6ce b43d 9c49 fd3c
0.012801672 0.0026253723 -0.0025026607 0.0036586372 0.003452695 0.0021524983 0.020949244 0.016153095
0.019331692 0.038109906 0.0006367436 -0.024769573 -0.02527247 -0.0037935167 -0.010094609 -0.008661007
-0.0037106774 0.0021435628 0.050888475 0.0105294185 0.018987924 -0.01960115 0.022281302 -0.0017922062
0.0008508258 0.037513014 0.010884705 0.017978422 0.043509718 0.023574997 -0.001138029 0.042429805
0.014148605 -0.002446461 -0.0046669464 0.026981985 0.021618469 0.012789485 -0.0056748963 0.007963251
0.022341093 0.015810227 -0.00010700394 -0.014811055 -0.019582262 0.0020918807 0.045127854 0.036655307
-0.009382373 -0.0015847692 0.010184634 -0.000948523 -0.004186974 0.034958437 0.00885893 0.006296867
0.031875666 -0.02483208 -0.0037978238 0.028930692 -0.0022884451 0.04728103 0.006793104 0.031585798
0.0068572774 0.049879197 -0.013891376 0.0046488647 -0.0023002708 -0.012457161 -0.018234378 0.014394032
0.021984028 0.009555669 0.00959247 0.017446833 -0.017106516 -0.03196948 0.037526198 0.01341884
0.007076963 0.054836586 -0.0047093933 -0.004207535 0.008540599 -0.007261633 0.011337974 0.003947608
0.023209503 0.07439264 -0.006479911 -0.0045787105 -0.0405549 0.027501147 -0.0112965545 0.019178422
-0.006478732 -0.013910517 0.01629946 -0.017339278 -0.03203149 -0.030182097 0.030953607 -0.00030677064
-0.00047073234 -0.013104666 -0.020297177 0.018237479 0.009606295 0.009090024 0.02882451 -0.015342982
-0.017144514 0.026612272 0.039123632 0.027498366 -0.018221974 0.010354775 0.02739543 -0.005972521
0.0077440212 0.006242655 0.007349645 0.020470187 0.017641403 0.012766024 0.08828513 0.030918889

model.2.weight f4 [128, 128]
00000000: 635b f93d ca56 c93c 346b fe3d 8d31 3c3e
00000010: a80b da3d 2bed 8bbc ae7c a93d 4fd5 b1ba
00000020: 8a96 6dbd ce38 ebbd 5d95 a5bd 0f9e 9a3d
00000030: 2cd0 eebd 66d4 6e3d afbe 983d 0b50 a83d
00000040: cd99 203e 6c5d 173c b267 2cbe a623 d9bd
00000050: fdc1 ba3d dc85 323e e466 67bb dcdf d8bd
00000060: 5781 26be 82f8 bb3d 5ee7 c73d 6db6 373e
00000070: acc5 eb3d 2c68 71bd 3f07 03be 8894 413e
00000080: 8501 a9bd ff1d 20be d12c ce3d a099 14be
00000090: dfdf f5bc 7071 1ebe 2334 0e3e 5e08 09be
000000a0: cb9b fd3d 0d68 233e 2185 32be d4ff 4d3e
000000b0: 68f4 e1bc 2c78 84bc 8983 0fbe 186a ac3d
000000c0: b64d 4bbe 8f21 043e aac8 1a3e 73c6 c2bd
000000d0: b654 293e cca2 e5bd e031 863d 3a02 e9bd
000000e0: 7f10 b33c 92ea f13d 0188 0a3e e33a 3fbc
000000f0: 1e83 333e 4bdc 05bc 402f 9cbd 5a3a c13d
00000100: e735 17be 5fc9 11be 74f0 35be 7f7a a93d
00000110: c7c6 263e cafa 07bd bad1 f3bd a60b 5ebe
00000120: 6e31 febd d433 3a3e 01a7 bf3d c6d5 4b3e
00000130: dbb1 4ebd a945 09bd c26c 29be d6da 0fbe
00000140: 5445 423b b4d2 0f3e 00e7 36be 2391 49be
00000150: 5929 4fbe 8519 05be 5da6 a1bd cab3 943d
00000160: 4b9b 1c3e 4d5f 1a3e 301b f13d d654 3e3e
00000170: b826 ecbd 064e 16ba d412 8cbc 7113 10be
00000180: fc3f 833d 29a2 53ba 0cf7 593e 53cc 38be
00000190: c07c 22bc 5c4f 50be 5cde c43c 5954 dc3a
000001a0: 7ad9 6dbd c6c8 5a3e 5352 3fbe 842e 2bbc
000001b0: 3319 013e 29c5 d7bd 2869 51bd 1c67 47be
000001c0: 1dac 41bd b9fc 6ebc 42a9 c53d 1483 193e
000001d0: fdfa 133e 2a12 f0bd 0962 51be 8910 c33c
000001e0: c462 463e eb80 0ebe 3f43 3abe bd68 07be
000001f0: 9313 4a3e b806 2fbd edbf 3bbe 95aa 80bd
00000200: 397b 733d 0053 e6bc 0ae5 a6bd 4c17 04bd
00000210: 9002 3cbd bc4c 383e a04a 0dbc 3038 3d3e
00000220: dc7d 07be 5c46 1f3e 1fb9 0f3c adb5 083e
00000230: 1bf9 14be dd57 22bd bf77 cebd 468c ffbd
00000240: ef35 38bc 6669 6f3d c3c2 adbd c5b1 b4bc
00000250: 9674 b4bd 2900 473e ea19 b0bd 6447 04be
00000260: aec5 44bd d998 30be 08c5 ccbc 822c c5bd
00000270: 47cc 253d ecb4 853d d362 0b3d 9646 9a3d
00000280: 5ebb bcbb debe 87bd 0934 95bc 222c 40be
00000290: 991d 613e 9a77 b93d e2a2 063e 2245 2cbd
000002a0: f487 6dbc 8845 3ebe a90f 213e fd45 193e
000002b0: e6f1 d1bc d20a 11be 6460 1dbe 9c11 45be
000002c0: a7cd 41bd fefe a3bd 57fe b63d 85c4 3fbe
000002d0: 96f4 14be d011 04bc 697c 023e bb0b eebd
000002e0: e834 a1bd aa9b 1b3d 94fa 0b3e bce0 31bd
000002f0: 0ab7 85bc 544d 1d3e c801 cebd 94e2 fc3c
00000300: 7d51 ed3c 6737 573e 01ac 343e 8c82 c7bb
00000310: 3715 06be ebc4 36be 496e de3d 3425 da3d
00000320: 8c33 5bbe bc45 5a3d b7e9 1d3e b832 093d
00000330: 69e2 1ebe e632 23be d4f5 c83d 7454 1f3e
00000340: 2d4e 313e 8354 223e 7076 433e 2b5f 2fbc
00000350: 98b5 31be 6c36 e5bc 5997 03bd d72b 193e
00000360: 37eb 0fbe 6404 5c3d b340 1f3e ad39 e63d
00000370: 8fa0 32be 1e9c 19bb 0f59 393e 3fc6 063e
00000380: 8bfb 2dbd 57bb 643d 98b3 60bb 0817 50be
00000390: ae79 363d 37c7 87bd 2c66 5bbe 935f a1bd
000003a0: 5e18 dfbc 6868 1dbe c955 47be 7780 8f3d
000003b0: 3bab 9d3d af6b 783c 4a73 4f3e 4b21 d6bd
000003c0: fa1c b5bd fd67 153d d8c9 853b ced4 3fbe
000003d0: 4de9 043e 2610 f73d 20ab c03d 1729 14be
000003e0: b588 20be 0886 a4bd 2261 45be e706 0fbe
000003f0: 5411 cf3d a178 3a3e 9057 a73d ab69 463e
0.12175634 0.024577517 0.12422791 0.18378277 0.106467545 -0.017080864 0.08275734 -0.0013567599
-0.058004893 -0.11485444 -0.080851294 0.075496785 -0.116607994 0.058308028 0.07458245 0.08218392
0.1568367 0.009238582 -0.16836432 -0.106025025 0.091190316 0.17433876 -0.003530913 -0.10589573
-0.16260277 0.091782585 0.09760927 0.17940684 0.11512312 -0.058937237 -0.12795733 0.18904316
-0.08252243 -0.15636443 0.10067142 -0.14511728 -0.030013977 -0.1547296 0.13887076 -0.13382098
0.12383231 0.15957661 -0.17433597 0.20117122 -0.027582362 -0.016170584 -0.1401502 0.08418673
-0.19853863 0.12903427 0.1511561 -0.095105074 0.16536221 -0.11212692 0.06552482 -0.11377378
0.021858452 0.11812319 0.13528444 -0.0116717545 0.17530486 -0.008170198 -0.076262 0.09434958
-0.14766656 -0.14236973 -0.17767507 0.082753174 0.16286765 -0.033198155 -0.119052365 -0.21684131
-0.12411772 0.18183833 0.09358025 0.19905767 -0.050462585 -0.0335137 -0.16545394 -0.14048323
0.0029643374 0.1404522 -0.17861557 -0.19684272 -0.20230617 -0.12998016 -0.078930594 0.072608545
0.15293615 0.15075417 0.11772764 0.1858705 -0.115308225 -0.00057336723 -0.017098822 -0.14069916
0.064086884 -0.0008073175 0.21285647 -0.18046694 -0.009917438 -0.20342773 0.02403181 0.0016809806
-0.05806873 0.21365651 -0.18683748 -0.010448102 0.12607269 -0.10535652 -0.051125675 -0.19472927
-0.04728328 -0.014586621 0.09651424 0.14991409 0.14451213 -0.117222145 -0.20447554 0.023811596
0.19373614 -0.13916366 -0.18189715 -0.13223548 0.1973403 -0.042731017 -0.18334933 -0.06282536
0.059443686 -0.02811575 -0.081491545 -0.03224878 -0.04590088 0.17998022 -0.008623749 0.18478465
-0.13231605 0.15554184 0.008772164 0.13350554 -0.14548151 -0.039634574 -0.100814335 -0.12477927
-0.0112433275 0.058450125 -0.084844135 -0.022057423 -0.088112995 0.19433655 -0.08598693 -0.12917858
-0.048040085 -0.17245807 -0.024996296 -0.0962763 0.040478017 0.06528649 0.034029793 0.075329944
-0.0057596406 -0.06628202 -0.018213289 -0.18766835 0.21983947 0.09056015 0.13148072 -0.042058118
-0.014497746 -0.18581212 0.1572863 0.14968105 -0.025628041 -0.14164284 -0.15368801 -0.19244999
-0.047315266 -0.0800762 0.0893523 -0.1872731 -0.14546427 -0.008060887 0.12742771 -0.11623331
-0.07871419 0.03799025 0.13669807 -0.043427214 -0.016322631 0.1536153 -0.100589335 0.03086976
0.02896952 0.21017228 0.1764374 -0.0060885604 -0.1309403 -0.17848556 0.10860879 0.10651627
-0.21406382 0.05328916 0.15421186 0.033495635 -0.15516056 -0.15937385 0.09812513 0.1555956
0.17314978 0.15852551 0.19088149 -0.010703842 -0.17354429 -0.027980052 -0.03212676 0.1495813
-0.14054571 0.053715125 0.15552025 0.112414695 -0.1744406 -0.0023439 0.1810038 0.13161562
-0.04247622 0.055842724 -0.0034286734 -0.20321286 0.044549637 -0.06629794 -0.21425694 -0.078795575
-0.027233299 -0.15371859 -0.19466318 0.070069246 0.07698675 0.0151623925 0.20258823 -0.10455569
-0.088434175 0.036476124 0.0040828995 -0.18733522 0.12979622 0.12063627 0.094076395 -0.144688
-0.1567715 -0.08033377 -0.19275334 -0.13967477 0.10110727 0.18210079 0.08170998 0.19376247

model.2.bias f4 [128]
00000000: 51f3 36bc 635e cb3c dba8 e53b e070 113c
00000010: d04e c33c 4a0b 8a3d 186f 83bc 2ea8 a33b
00000020: a958 b03d 8124 913b 6021 babc 6425 e03c
00000030: 2383 6fbb 5d54 0e3d ce70 00bc 0848 503b
00000040: aac8 dc3b 2def 8e3c c6e1 753d 3cab c53c
00000050: 8dcc ff3c 70ab f43c e86b 5c3b 8a24 cfba
00000060: d8f9 89bc 613e 213b ab41 733c c7a3 833b
00000070: 057d 1cbb 6afd 3b3a c9c1 0d3c ce63 a9bb
00000080: af31 b93b 65b8 5a3c 17d1 39bc 4996 d6bb
00000090: 39e5 62bc 9b1e 2dbc a462 7f39 3866 c13c
000000a0: e8d3 b6ba 62eb a6bb 82be cd3c e53a c93c
000000b0: 0087 b8b9 7044 e93c a404 e5bc d251 813c
000000c0: 588f 1a39 5a4c 133d 9016 913c 3c3b 083a
000000d0: 353d 513d 7b40 143d 205c b83c 0425 2eba
000000e0: e123 f9bc cd38 df3c 0e9f 773d 1907 83bc
000000f0: 4d65 1b3b 38ec 953c f340 48bc c0f7 783b
00000100: 9027 db3b c0f2 c23c ea99 ccbc 5f0c 9d3a
00000110: 1ac6 073b 06cd 88bb 0e3a 83bc 34ed 80bc
00000120: 5b00 ec3c 2f17 3fbd 5f79 833c 0f39 c83b
00000130: a303 85bb 36fa f3bc 456f 1b3b bb4c 463c
00000140: 6104 f43b 7e96 2f3b b8f8 153b 167b 50bc
00000150: 2436 a33a 45c6 243d 4e76 c03b e19e 3ebc
00000160: c925 9039 3cb3 3739 3196 acbc deb3 79bb
00000170: 277d 2d3c 8ea4 4a3d 61e3 0abc 6e33 84bb
00000180: 86cd 063c ae07 b4bc 0a2f ffbb 23b8 083c
00000190: 3a96 12bd 953c af3d 8378 573c be78 efbb
000001a0: 25bc 193b b8cb 363c efdb 043b 1eac 753d
000001b0: dc25 05bb 052c 8e3d 6ef3 59bb 117f ad3a
000001c0: 4df4 33bc e1e2 d43b 560c 733c b8c8 533c
000001d0: 2d59 f2bb 7c78 d83d 59ba 653c fda9 2dba
000001e0: 844e 5c3a 67db ae3d 65ec 3fb9 d18b 8ebb
000001f0: a300 0abb 35c8 05bc e0d8 e03c af85 fbbb
-0.01116641 0.02482528 0.0070086545 0.008877009 0.023841292 0.067404345 -0.016044185 0.004994414
0.086106606 0.0044294004 -0.022720993 0.02736158 -0.003654667 0.034748424 -0.007839395 0.0031781215
0.006737788 0.017448032 0.060029767 0.024129502 0.031225467 0.029866904 0.0033633653 -0.0015803736
-0.016842768 0.002460383 0.014847199 0.0040173265 -0.0023878228 0.00071712455 0.008652159 -0.0051693683
0.0056516747 0.013349627 -0.011341355 -0.006548677 -0.013848596 -0.010566379 0.00024355442 0.023608312
-0.0013948651 -0.005093978 0.025115255 0.024564216 -0.00035195798 0.028475016 -0.027956314 0.015786085
0.00014739984 0.035961486 0.017710954 0.0005196815 0.051083762 0.036194306 0.022504866 -0.0006643089
-0.030412616 0.027248764 0.06045442 -0.015994595 0.0023711503 0.018301114 -0.012222516 0.0037989467
0.006688066 0.023797393 -0.024975736 0.0011981836 0.0020717443 -0.0041748313 -0.016018894 -0.015738107
0.028808763 -0.04665297 0.016049085 0.0061103175 -0.0040592714 -0.029782396 0.0023717445 0.012103255
0.007446811 0.0026792581 0.0022883844 -0.0127246585 0.0012452048 0.040228147 0.005873478 -0.011634559
0.00027493972 0.0001751901 -0.02106771 -0.0038101594 0.010588921 0.049473338 -0.008477063 -0.004034451
0.008227712 -0.021976318 -0.00778759 0.008344683 -0.0357878 0.08556477 0.013151291 -0.0073080948
0.002345809 0.011156969 0.0020272692 0.059978597 -0.0020316755 0.0694199 -0.0033256668 0.0013236721
-0.010983539 0.0064967726 0.014834484 0.012926273 -0.0073958845 0.105698556 0.0140214795 -0.00066247565
0.0008404034 0.085379414 -0.00018303243 -0.0043501635 -0.0021057508 -0.008165409 0.027447164 -0.0076758484

model.4.weight f4 [128, 128]
00000000: 61fe 5c3e 8eb6 16be c6a8 9b3d d456 1dbe
00000010: 6eee 243e bd21 5bbe d2d7 d2bc ff43 883c
00000020: 5e3d 2dbc 6d11 ee3d 3f7f 34bd 6c27 0c3e
00000030: 5e02 163e 9585 293d 4108 133c 33ae c13d
00000040: d1cf 3bbe e193 7dbd 01df 573e f7ed 673d
00000050: 9a58 68bd c8e4 83bd 04ce 883d 00b9 143e
00000060: f990 11be e679 3d3e 53aa 54be e56a b73c
00000070: f325 9c3b c1fd 0e3e 9eb3 ecbc 5d1f 943d
00000080: 2e16 11bc 94ec b6bc f0b5 adbc 0b9f 003e
00000090: 22d1 343e bbf8 f63d 5e10 0c3e c532 eb3d
000000a0: b544 29bd 9c86 65bd b4b2 483e 1d6a 82bd
000000b0: ea82 003d 2836 eb3b 1728 f43d d6a9 ca3d
000000c0: b616 bbbd bce0 023e b58b e8ba 5aed a43d
000000d0: 840d 61be 564c 463c 22d2 1abe f93d c4bd
000000e0: d8e4 bebd 02aa 133e eb1d 573e cee6 d1bd
000000f0: b2f4 e6bb d13b 95bd 06fd cb3d e2c2 863d
00000100: 745c 403e 9bd7 51be 9f99 0f3e bac9 453e
00000110: 6d6c 563e c259 313c a096 cebd 5fbe 0b3e
00000120: ed2a b93d 0327 043e 6578 e2bd 2ccd abbd
00000130: e70b 503b 9d37 91bd e391 033e 8840 c33d
00000140: c752 183e 4549 98bd 96b3 e5bd 083d 543e
00000150: 8bb2 3e3e aabd 483e 5db7 d23d aecb e3bd
00000160: aebb 373e 3dd7 33be 0946 c33d a450 f63d
00000170: fba9 12be a67c 123e 3f2e 2ebe d8cd 1c3e
00000180: 788e ae3c 2748 b13d ea02 0abe b315 2cbe
00000190: 94ed 9d3d 68f8 003d 9ba8 1abd 765e 583c
000001a0: c2c1 263e 1ed6 e23d 83e2 413e 1d75 783b
000001b0: e34d dcbd 9d30 3c3e e15d 3ebe 2b6a a53c
000001c0: 9046 ebbd 16f3 063e fe00 3dbe 39cc f6bc
000001d0: 36ad 413e 7e34 113d ef28 05be 70c1 57be
000001e0: bb8e fcbd 4f72 683c e439 b73d dd0c a5bd
000001f0: 33c7 9ebd 28ca 13bd bf16 1cbe f94a 38bc
00000200: 5729 41be 71b8 6cbd 5c7e c53d 7d05 09bb
00000210: be07 03be ddda e5bd 601a 36be 0835 833d
00000220: 0532 f0bc 6b8e 69bd 2e98 13be 1060 06be
00000230: 53a6 99bd a117 bdbd ccae 88bd 4e1b 20bd
00000240: 5f3d f83d e0fb 3d3c d5b2 9bbc 9098 a13d
00000250: 29c2 203e da5c a53d db26 2b3e ab56 373e
00000260: e7ec 483e d46f 233e e345 bc3d 391c 893d
00000270: a895 5cbe e63e 00be 2d59 cd3d 8a67 98bd
00000280: 4b14 353d 946a 21be c991 3c3e b6ee 443e
00000290: 347a de3c 34ff ef3d 91a0 823d f8b9 683c
000002a0: 0836 adbd 740d 4a3d f999 a93d d013 243e
000002b0: fd66 043d 0b15 92bd c999 25be 505a c83d
000002c0: 0dd0 3e3d 41b7 433d 1e87 e43d 7491 533c
000002d0: a322 303e 5625 4d3e c0da 3abe 8c1b bbbd
000002e0: 2a92 3ebd 4e11 e03d 782b 23be 62b7 073e
000002f0: 5174 e5bd 1647 debd a529 4ebd 268a 0bbe
00000300: d84d a53c f7e6 fa3d 04aa 2c3e 3f54 38bd
00000310: 829d fabd dcf8 da3d 26a8 03be 3bea fa3d
00000320: 5f3d 80bd e5b1 f83d a8f1 3f3e 660b 4a3d
00000330: 0c24 163e 4d68 48bd da1f 81bc 2d54 1fbe
00000340: fceb 56be 1af6 273c 4f2c dc3d c051 3d3e
00000350: 9d80 76bd 86ea 2fbe c1e1 2abc 9771 06be
00000360: 25cc 963d c202 34bd 4535 513e 4290 ffbd
00000370: 251c 30be 393d 19bd da49 e83d 30bd 523e
00000380: 7f5a 54bd c33c 023e e51c 3c3e 230c 4b3e
00000390: 914f 5b3e dfb4 d73d 19b9 6eba 88e3 ae3d
000003a0: 4d68 213d b0ab 953d 0c9f 593e 8ad1 963c
000003b0: 0f10 5dbe 0b3c 913d 000d d5bd 1974 5ebd
000003c0: 6c0a 17be 107c 31be de17 5dbe 1eea 823d
000003d0: a23f 373e 3d89 453e 0702 233e 8f9f 903d
000003e0: 07b2 823d 3bfd 3cbe 4b7a d83d 0d7f 04be
000003f0: dd4c 0d3e fd2c 0a3e 052e 09be 3107 44bd
0.21581413 -0.14718077 0.0760055 -0.15365154 0.16106579 -0.21399589 -0.025737677 0.016633986
-0.010573713 0.116244175 -0.044066664 0.13686913 0.1464934 0.04138716 0.008974136 0.09457054
-0.18340994 -0.061908606 0.21081163 0.056623425 -0.056725122 -0.06440121 0.06679919 0.14523697
-0.14215459 0.18503532 -0.20768099 0.022389838 0.004765266 0.13963987 -0.028894242 0.072325446
-0.008855386 -0.022329606 -0.021204919 0.1256067 0.17657903 0.1205916 0.13678119 0.11484293
-0.04132529 -0.056036577 0.1959942 -0.06367896 0.03137485 0.007178087 0.11921709 0.09895675
-0.09135191 0.12781042 -0.0017741831 0.08053084 -0.21977812 0.012103161 -0.15119222 -0.09582133
-0.09320992 0.14420322 0.21007507 -0.102491006 -0.007048213 -0.072868 0.0996037 0.0658014
0.18785268 -0.20492403 0.14023446 0.19315234 0.20939799 0.010824623 -0.10087323 0.1364684
0.090413906 0.12905507 -0.1105812 -0.08388743 0.0031745376 -0.070906855 0.1284862 0.09533793
0.14875327 -0.0743585 -0.11215894 0.20726407 0.18622796 0.19603601 0.1028888 -0.11122833
0.17942688 -0.17562576 0.095348425 0.120271 -0.14322655 0.14305362 -0.17009829 0.15312898
0.021308169 0.0865634 -0.13477674 -0.16805153 0.0771133 0.0314869 -0.03775845 0.013206115
0.1628485 0.11075996 0.18934064 0.0037911602 -0.10757043 0.1837792 -0.185905 0.020192226
-0.11488068 0.13178667 -0.1845741 -0.030126678 0.18913731 0.03545045 -0.13003896 -0.21069884
-0.12331911 0.01418741 0.08946589 -0.08059094 -0.07752838 -0.036081463 -0.15243052 -0.011248344
-0.18863426 -0.057793085 0.09643242 -0.0020907812 -0.12795922 -0.112233855 -0.17783499 0.06406599
-0.029320726 -0.057020586 -0.1441352 -0.13122582 -0.07502427 -0.092330225 -0.06673965 -0.03908854
0.121210806 0.011595696 -0.019006172 0.07890427 0.15699066 0.08074351 0.16714041 0.17904155
0.19621621 0.15960628 0.09193017 0.06694836 -0.21541464 -0.12523994 0.100267746 -0.074416235
0.044208806 -0.15763313 0.18414988 0.19231686 0.02715788 0.11718598 0.06378282 0.014204495
-0.08457571 0.049329236 0.08281321 0.16023183 0.03232478 -0.0713292 -0.16171946 0.09782851
0.04658513 0.047782186 0.11158584 0.012913097 0.17200713 0.20033774 -0.18247509 -0.091361135
-0.04652611 0.109408006 -0.15934551 0.13253549 -0.11203826 -0.10853402 -0.050332684 -0.13626918
0.02017872 0.12251084 0.16861731 -0.04500222 -0.122370735 0.106919974 -0.12857112 0.12251707
-0.062617056 0.12143306 0.18744528 0.049327277 0.14662188 -0.048927594 -0.015762258 -0.15559454
-0.20988458 0.010251546 0.10750639 0.18488216 -0.06018125 -0.17179307 -0.0104298005 -0.13129269
0.07363156 -0.043947943 0.20430477 -0.12478687 -0.17198236 -0.037411902 0.11342211 0.20579982
-0.051844116 0.12718491 0.18370397 0.19828849 0.21417071 0.10532545 -0.0009106561 0.08539492
0.03940611 0.073081374 0.21252078 0.018410463 -0.21588157 0.070915304 -0.1040287 -0.054309938
-0.1475007 -0.17332482 -0.21591136 0.063923106 0.17895368 0.19290633 0.15918742 0.070616834
0.06381612 -0.18455975 0.105702005 -0.12939091 0.13798852 0.13493724 -0.13396461 -0.04785842

model.4.bias f4 [128]
00000000: e5fb 84bc 64ff 13bd 1e28 85bc d241 babc
00000010: 13e7 debc 39c1 663d d5a2 383b e80e b4b7
00000020: e685 423b 8424 89bc c780 4cbc 013c bc3c
00000030: e2a8 cbba 7f00 f43b 195d a2bb 503c b9bb
00000040: c954 1dbc 44a0 543b 85e2 11bd f3df a0b9
00000050: c6b1 b7bb 54b9 293c d1e9 b0bc 03f3 f539
00000060: 3b60 06bb 734d 113d f51f 1f3b 1161 7c3b
00000070: 9336 81bc 5deb 61bc d03b 42bb fcf4 863d
00000080: d94c 283d a758 d53b b2d7 bebc f005 6dbc
00000090: 435f 3e3d 2a75 4fbc 1617 4c3d e485 6e3a
000000a0: f024 55bc 5c91 ea3c dd72 3abb e0cc 87b9
000000b0: 72fb 483d 5825 18bb 0451 10bd 1293 573d
000000c0: c17c acba f417 c83c 6cf8 7a3d 296e 7e3d
000000d0: ddb7 813d f39c 20bd ec61 503a c191 ef3c
000000e0: eaa7 733d 3797 953d 7fb8 b23a 97fc 023d
000000f0: 3434 45bc 7370 53bc 9613 ddbb 6f6d 7ebc
00000100: f47b c9bc 8f32 7e3c 2801 4ab8 95e7 063d
00000110: f21f 6ebc f723 34bb 014f 8e3c d1a3 7d3b
00000120: bd1d 803b dca9 a6bb b591 05b8 0000 0000
00000130: 8385 583b 38e8 bcb8 d8c6 183d 8abf bfb7
00000140: db32 29bc c7a3 96bb fb54 a7bb ea95 bd3c
00000150: abaa dc3c 58de a43c c50c 5cbc 2a89 a93b
00000160: c9b3 8a3d 68a2 03bc 644d e73a e8f1 74bc
00000170: 7afc f93b 6349 32bb 5594 0e3c 442e b63c
00000180: a440 9f3c 0b97 15bd eac8 89bb 4c0d e03c
00000190: 9ecf dc3a 56a7 763d 50c6 4d3d 919a 0839
000001a0: 7ad4 2bbb 6c41 da38 ed0a 67bb bcf8 353b
000001b0: 8517 663d b2cb c13a 5b6d 313d 06db d8ba
000001c0: d35a 0e3b 7cc6 a9bb faf5 abbb 599c 92bb
000001d0: 43f1 10bb 28f9 d13b 35ff 10bc 769c 9cbc
000001e0: ee01 4f3d f1d6 acbc 405d 003d 31d0 20bc
000001f0: bacb 383c d9f0 713d 6ae4 62bc 7c68 3dbb
-0.016233394 -0.03613223 -0.01625448 -0.022736464 -0.027209794 0.056336615 0.0028173227 -2.1464613e-05
0.002968186 -0.016741045 -0.012481875 0.02297783 -0.0015538002 0.007446348 -0.0049549458 -0.0056529418
-0.009602734 0.0032444159 -0.035616416 -0.00030684433 -0.005605909 0.010359127 -0.021595867 0.000469111
-0.0020504135 0.035474252 0.0024280522 0.0038510005 -0.015773093 -0.013789025 -0.0029637702 0.06589696
0.041088913 0.0065108123 -0.02329621 -0.014466748 0.046477567 -0.012662211 0.049826704 0.0009098931
-0.013009295 0.028633766 -0.0028449812 -0.0002590185 0.049067922 -0.0023215618 -0.035233513 0.05263049
-0.0013159738 0.024425484 0.06127207 0.062116776 0.06333897 -0.03921218 0.0007949162 0.029244306
0.059486307 0.073042326 0.0013635306 0.03197917 -0.012036372 -0.012905228 -0.0067467196 -0.015529021
-0.024595238 0.015514984 -4.816163e-05 0.032935698 -0.014533984 -0.0027487257 0.017371656 0.0038702379
0.003909795 -0.005086167 -3.184537e-05 0.0 0.0033038564 -9.007793e-05 0.037299007 -2.2858167e-05
-0.010327066 -0.0045971605 -0.005106566 0.023142774 0.02693685 0.020125553 -0.013430779 0.005173822
0.067725725 -0.008034326 0.0017646966 -0.014950253 0.0076289745 -0.0027204386 0.008702357 0.022238858
0.019440003 -0.036521 -0.004204859 0.02735009 0.0016846543 0.060218178 0.050237954 0.00013027551
-0.0026219175 0.00010407236 -0.0035254315 0.0027766665 0.056174774 0.0014785437 0.04331718 -0.0016544766
0.0021721616 -0.005181132 -0.0052478286 -0.0044742045 -0.002211646 0.0064078756 -0.008849909 -0.019117575
0.05053895 -0.021098586 0.03133893 -0.009815262 0.011279041 0.05906758 -0.0138484035 -0.002890139

model.6.weight f4 [1, 128]
00000000: 9741 cdbc 81f9 adbd 998e e2bd dd44 afbd
00000010: 1fa7 23be c60d 853e 127f 483d 8035 18ba
00000020: 1ffd 063d b965 0bbe 7737 b3bd 6397 e43d
00000030: 3f60 13be be54 3a3e c5c2 7cbc 7612 11be
00000040: aae0 1fbe 89c1 253d e6e6 23be 6a58 ecbc
00000050: ba5b 26bd b6ff f53d 2050 08be cb8c 6c3c
00000060: 5a66 c9bc e2de 363e 85e8 b03c 341c de3d
00000070: 4337 71bd edef 42be fa0d 20be 0bc3 963e
00000080: 654c 623e 9d9f 543d 5778 3cbe 7c8f 18be
00000090: 6b3e 5c3e 1395 d2bd 95c3 5a3e 152a d93d
000000a0: cf36 49be cb89 0f3e 878e 15be 65ed 1f3d
000000b0: ff55 613e 39ee 40bc 3b18 42be 89fb 6a3e
000000c0: 8b55 c0bc 443a 383e 87cf 803e 7f12 883e
000000d0: 3661 8c3e 51d1 2ebe a28d 953d 0fad 1c3e
000000e0: 3a04 983e a674 aa3e 0276 3f3e de7f 173e
000000f0: f701 d6bd 16c6 1f3b b21d 42bc 2fcd 1abe
00000100: 55f2 a6bd a551 b33d fedf fabb 3d11 303e
00000110: a8dd 25be d41c 9fbd 8780 de3d c0e9 8d3d
00000120: ce7f 3e3e 3857 5bbe ce3a f0bc 712c 243e
00000130: 2725 dc3c 08f8 c9bd 345d 353e 7bbb bfb9
00000140: ae6c 44bd 7b47 a9bd b4d1 44bc 9e1b fe3d
00000150: 706e 113e 2ac2 473e 4b07 6cbd bc43 3f3d
00000160: b49b 943e e821 7ebb b52d bb3d 4bce 61bd
00000170: bdc1 543d e8b3 09bd 6274 9d3d 3ac0 023e
00000180: 1097 f03d 9590 f7bd ed4f 2ebe 371a 153e
00000190: bc5d 003e 3787 863e 88e7 5b3e 72be cb3c
000001a0: 4d1c 40bd 8fc6 e43c 50f9 65bd 7227 0c3d
000001b0: 5527 823e c318 ec3d 376e 703e ec5e 913b
000001c0: 2607 af3c a88d dbbd 6060 8fbd 567f 58be
000001d0: c923 a8bc 5776 2b3e 8426 01bd 6a30 8cbd
000001e0: 5013 833e 0074 9abd 72e5 113e 35d3 2ebe
000001f0: 255e a03d fe3e 823e 8a76 0cbe 83ce 58be
-0.02505569 -0.08494855 -0.110623546 -0.085580565 -0.1598172 0.2598707 0.04894931 -0.0005806312
0.03295624 -0.13613023 -0.087508135 0.11161687 -0.14392184 0.18196389 -0.015427296 -0.14167199
-0.15613046 0.040467773 -0.1600605 -0.028850753 -0.04061482 0.120116636 -0.13311815 0.014437865
-0.024584938 0.1785846 0.021595249 0.10845223 -0.058890592 -0.19036837 -0.15630332 0.2944568
0.22099455 0.05191003 -0.18405281 -0.14898485 0.21508186 -0.1028234 0.21363671 0.1060373
-0.19649814 0.14017408 -0.14605151 0.039044756 0.22005461 -0.011775547 -0.18954556 0.22947516
-0.02347829 0.17990977 0.2515833 0.2657661 0.27417916 -0.17072035 0.07302405 0.15300392
0.29690725 0.3329212 0.1869736 0.14794871 -0.104495935 0.0024379543 -0.0118479 -0.15117334
-0.0815169 0.08755807 -0.0076560965 0.17194076 -0.16197836 -0.077691704 0.108643584 0.0692935
0.18603441 -0.2141999 -0.029324915 0.16032578 0.026873184 -0.09861761 0.17711335 -0.00036570043
-0.047955208 -0.08265587 -0.012012888 0.12407611 0.14202285 0.19507661 -0.057624143 0.046695456
0.29025042 -0.0038777534 0.09139577 -0.055128377 0.051942576 -0.033618838 0.07688214 0.12768641
0.11747563 -0.12088124 -0.17022677 0.14560781 0.12535757 0.26275036 0.21475041 0.024871085
-0.04690199 0.027926711 -0.056145966 0.034217305 0.25420633 0.115281604 0.23479544 0.0044363644
0.021365713 -0.10720378 -0.07000804 -0.21142325 -0.020524876 0.16744362 -0.031530872 -0.06845172
0.25600672 -0.075416565 0.14247683 -0.17072757 0.07830457 0.25438684 -0.13717094 -0.21172528
