models/neural_networks/regression/2024-08-15_16-12-13/model.pt (torch, 218420 bytes, 5 tensors)

model.0.weight f4 [64, 777]
00000000: b2d0 093e 85bc 0c3e 25b9 27be 64aa 993d
00000010: 1f7c df3d 98d0 d63d ea64 093e 7ad7 e1bd
00000020: dbff 2b3e 8e2d 1c3e 8bcc 293e f27c 2d3e
00000030: e1af 093e 9fe3 0e3e e6a1 1b3d d60d 983c
00000040: 3ece a13d 9c83 eebc 8a89 863c 19db ef3c
00000050: b6da a9bc 803a 48ba 0f7f 4c3d 7799 f2bc
00000060: 08cb b03c 384a 013d f2bb bbbc 5e9c 0ebc
00000070: 0ea8 903d 3e9a ed3c 1aad 123d 12f2 293d
00000080: 31a8 e03c 2b24 843c 3f57 ec3c aedf ba3c
00000090: 1136 f93c 5ea5 5f3d 5e43 8f3b db74 403d
000000a0: ee2c 27bc 7aba 2d3d 2c99 653d 0958 823d
000000b0: 58ed 533c 7878 eb3c 585d d43b 2b39 8c3d
000000c0: 4713 a13c fef1 d93c 62b0 893d ebe9 f23c
000000d0: e434 363c a651 593c c8c9 8b3d 000e 07b9
000000e0: e003 d73a c2ac 103d 6a92 cbbc 4089 1cba
000000f0: c691 2dbc e298 8a3d 0897 193c 75f8 953c
00000100: acbe 74bc bf32 f73c 8047 b23c 30a1 debb
00000110: f796 8b3d bdca cfbc 0de5 a53d 77e5 0a3d
00000120: d4bb 353d 1a13 7f3d dd70 3f3d 6351 343d
00000130: a08c a83a 8f78 a13d 8afc 60bc f8bc ba3c
00000140: ee8f 8e3c 46a7 4a3d c460 c6bb bcc7 9e3c
00000150: 5ecf ae3c 197d 9b3d 798c 243c 78b3 2a3d
00000160: 841b 8c3d fd51 9a3d c0aa 5e3d ad17 0f3d
00000170: 69ea 003d abc9 9e3c 4c60 0abd 50a3 963b
00000180: be26 a23d 2224 b2bc e1ee 8a3d 59b3 003d
00000190: c044 f53b ca27 853c b03a 893d 3769 783d
000001a0: c2d1 5c3d f31a ef3c 121f bb3c 2d66 bbbc
000001b0: e2ce c9bc b5d1 3a3c 92bf bd3d 760f b73d
000001c0: 3cc2 febb d14c 6e3d 30c4 ed3c a36a 863d
000001d0: d4c0 14bc 4cbf 033d 64c6 063c de43 293d
000001e0: 1e17 633d f614 083d aa47 a6bc da8e 803d
000001f0: e812 e0bc 0e4d a6bc 90be 1d3d b6ef c03c
00000200: b5c2 953d c635 f63c 789d 12bd 2872 b93b
00000210: 8888 dcbc 00e4 433c 8091 fbb9 80be 07bd
00000220: 0074 ecb8 602b 673d e03a 8b3c 0091 4db9
00000230: 7f74 253c eaf4 a3bc 9068 bebc d895 133c
00000240: acb0 893d 6127 893d b938 4b3d f137 cd3d
00000250: 3e5a 943c 38a8 ad3c 455d 8b3d 783f b13c
00000260: 5e8d aa3c 913b 3a3d f441 e83c e01f 6d3d
00000270: 1ba6 3c3d 465a 1a3d fbdc 833d 8c8e 2a3c
00000280: 4cb8 f73c 306d 11bd 5cfd b23c 43ff 083d
00000290: 86b2 41bc 88d5 963d a6c4 963d 71a6 9b3d
000002a0: 1c70 373c 9056 bbbc 46ab 09bc 6ca9 8c3c
000002b0: 735b f93c 1497 9c3d db44 643c 559a bd3a
000002c0: 0847 6d3c e0a1 0d3c d57d a33d 569c 4ebc
000002d0: ce8f 0d3d 2903 193d 1e0e e13c f61d 203d
000002e0: 24c1 503d 2557 adbc 6033 013d 0f68 dabc
000002f0: 1ea5 ecbc 6c51 cbbb 2043 483d f8cc 223c
00000300: 4c72 76bc 80cd d23c c09c 17bc 3890 d03d
00000310: f7bf 063d 30ed dbbb b80f a9bc 71b1 643d
00000320: 0353 863c ab6d 813c bc6e b93d 1442 803a
00000330: 7983 a5bc f1a9 273d 0f1c f53c 1d8a 4d3d
00000340: 0cac b5bb 0ff7 893c 786f 573d def9 7bbc
00000350: 0785 6d3d 04b9 973c 91f5 083e 4989 003d
00000360: e0a3 a13d 4d5c dc3c 4c91 013d 70d7 fd3c
00000370: 68d8 953d bce2 273c 7406 dd3c 6a3c 12bc
00000380: 58fe 1f3d f7ca ef3c 295d 753d eb13 713d
00000390: 602c debb a569 0a3d 34eb 853d 2214 2abc
000003a0: 0e37 29bb 8b39 013d ee4e 98bc b405 aa3c
000003b0: 3032 843c 1b7c 3a3d e107 f83c e036 c73b
000003c0: 07d4 1a3d 7327 e2bc 45dd 89bc 0bea f7bc
000003d0: e484 723c c6fa f9bc 385f 0f3d 7d95 a03d
000003e0: 1ebc febc 158f 4f3d 07a9 893d 3c73 613d
000003f0: f6cb 023d cc9a 0d3c 0543 db3c 2b40 8e3c
0.13458517 0.1374379 -0.16379221 0.075032026 0.10912346 0.10489005 0.13417402 -0.11027427
0.1679682 0.15251753 0.16581933 0.16942194 0.13445999 0.13954018 0.037996195 0.018561285
0.07900666 -0.02911549 0.016423006 0.029279279 -0.020734172 -0.0007638112 0.04992586 -0.029614193
0.021581188 0.03156492 -0.022916768 -0.008704273 0.07063304 0.029004212 0.035809614 0.041490622
0.02742395 0.016130527 0.028850196 0.022811737 0.030421289 0.054601066 0.0043720445 0.046986442
-0.010203583 0.042414166 0.05605428 0.063644476 0.012935005 0.028743967 0.006480854 0.068468414
0.019662512 0.026604649 0.067230955 0.029652556 0.011121009 0.013264095 0.06825596 -0.00012879819
0.0016404353 0.035321005 -0.02485009 -0.00059713796 -0.010593837 0.06767441 0.009374388 0.01830695
-0.014938038 0.030175565 0.02176261 -0.0067941174 0.06815904 -0.025365228 0.081003286 0.03391024
0.04436858 0.062274076 0.046738494 0.04402293 0.0012859292 0.07884323 -0.013732085 0.022795185
0.017402615 0.04947593 -0.006054016 0.01938235 0.021339115 0.0759222 0.010043257 0.04167506
0.06841186 0.07535169 0.05436206 0.03493469 0.03147355 0.019383272 -0.033783242 0.004597105
0.07917546 -0.021745745 0.06783844 0.03142104 0.0074850023 0.016254324 0.06700647 0.060647216
0.05391098 0.029187655 0.022841964 -0.02287587 -0.024634782 0.011402537 0.09265055 0.08938496
-0.0077746194 0.058178727 0.029024214 0.06563308 -0.009079177 0.032164857 0.008226011 0.04132449
0.05544197 0.033223115 -0.020297844 0.06277247 -0.027352765 -0.020300414 0.038511813 0.023551803
0.07312528 0.030054938 -0.035794705 0.0056593604 -0.026920572 0.011956215 -0.00047982857 -0.03314066
-0.000112749636 0.05643785 0.016995847 -0.0001960434 0.010098576 -0.020014245 -0.023243219 0.0090078935
0.067231506 0.06696964 0.04961464 0.100204356 0.018109437 0.021198377 0.06804899 0.02163671
0.020819362 0.045466963 0.028351761 0.057891726 0.046056848 0.037683748 0.06438633 0.010409962
0.030239247 -0.03550452 0.021849327 0.03344656 -0.011822348 0.073649466 0.073617265 0.076001056
0.011196163 -0.022868425 -0.008402651 0.01717063 0.030439114 0.07646003 0.013932432 0.001446555
0.014482267 0.008644551 0.07982985 -0.012610516 0.03456097 0.03735653 0.027472552 0.039091073
0.050965443 -0.021159718 0.031543136 -0.026660947 -0.028887328 -0.0062047746 0.04889214 0.009936564
-0.015041899 0.025732756 -0.009253681 0.101837575 0.032897916 -0.0067116246 -0.020637378 0.055833284
0.016397005 0.015799364 0.09054324 0.0009785318 -0.020204293 0.040933553 0.029920606 0.050180543
-0.005544191 0.01684144 0.05259654 -0.015379397 0.057988193 0.01852084 0.13374926 0.031380925
0.07892585 0.026899481 0.031632707 0.030986518 0.07316667 0.010246929 0.026980616 -0.008925537
0.03906092 0.029271586 0.059903298 0.058856886 -0.0067801923 0.033792157 0.06539002 -0.010380777
-0.0025820169 0.031549018 -0.018592324 0.020754673 0.016137213 0.045528512 0.030277194 0.0060795397
0.03779986 -0.027606701 -0.016829142 -0.030262968 0.014802191 -0.030515086 0.035002917 0.078410126
-0.03109556 0.050673563 0.067216925 0.055041537 0.031932794 0.0086428635 0.026765356 0.017364582

model.0.bias f4 [64]
00000000: 22f4 3b3e 9f9b 1c3e bb6c 2f3e 7213 2b3e
00000010: 288c ea3d ce82 3e3e 90c2 d83d 604b 133e
00000020: 3b31 253e 24df 3f3e 2e17 3b3e 2d31 273e
00000030: fb6f 253e f926 323e ae70 383e 9f43 1d3e
00000040: ef14 1c3e 20c5 7b3d 8550 dc3d 4766 223e
00000050: aef9 413e 0ca5 f03d 9e4a 273e 2d67 073e
00000060: 3374 ec3d bbd5 0d3e 015d 333e 5c56 243e
00000070: b744 e33d 1024 0a3e daec 1b3e f99a 2e3e
00000080: ea77 cc3d c3c3 0e3e 9102 073e 3ecd ff3d
00000090: 5164 243e a0a4 cc3d 0619 0d3e cd7f 223e
000000a0: 9012 183e 71a1 363e 6c2d 173e 101f 0a3e
000000b0: 33b2 b43d 8a80 0f3e 9fbc 1d3e 5090 fa3d
000000c0: 5b0e 123e 4aaa 1f3e b425 253e cbc0 fd3d
000000d0: 24ca 783d 375c 443e 52c5 273e 5eb4 0a3e
000000e0: 4107 003e a6f1 323e aa12 f23d 8dcb 383e
000000f0: 3dbd 003e 86dd 113e fcaa 2c3e 5528 0e3e
0.18354848 0.1529374 0.17131321 0.16706637 0.11452514 0.18604586 0.10583985 0.14384222
0.16132061 0.18737465 0.18270561 0.16327353 0.16155998 0.1739768 0.18011734 0.15357827
0.1524236 0.06146729 0.107575454 0.15859328 0.18942901 0.1175023 0.16337058 0.13222952
0.11545601 0.13851063 0.17515947 0.16048568 0.11097091 0.13490319 0.1522707 0.17051305
0.09983809 0.13941865 0.13184573 0.12490319 0.16053893 0.09992337 0.13779077 0.15869065
0.14850831 0.17835023 0.14763421 0.13488412 0.08823051 0.14013878 0.15403984 0.12234557
0.14263289 0.15592304 0.16127664 0.12390288 0.06073965 0.19175802 0.16383865 0.13545367
0.12502767 0.17474994 0.11819966 0.18046398 0.12572189 0.1424466 0.168621 0.13882573

model.2.weight f4 [64, 64]
00000000: 21a4 753d 923f 053d b93a 12be 601a de3c
00000010: dfc3 2f3d 65ee eebd eca0 1d3d 2e78 9dbd
00000020: f09f d3bd a99c 6abd fe3b e5bd 3c63 d8bd
00000030: ae80 00be 6c78 12be ea4e ffbd ae5b 00be
00000040: fa48 56bc 699a a9bd 04f2 83bd 06d6 403d
00000050: 27da 80bd 0474 673d 826f 1abe 0ef3 ea3b
00000060: ba05 433d 08cb a53d d915 ea3c 17cb 22bd
00000070: 2c3b cd3b cd30 adbd 6e8b cabd f91b 8bbc
00000080: 735d 333d 37b8 aa3d c704 c5bd cdf0 5f3d
00000090: 09cf 11be 8e8d c33d f270 56bb 0cb4 8a3d
000000a0: 4203 0fbe 6bdd 91bd b123 13be 4f15 923d
000000b0: d816 d53d 0070 07be 17d0 a6bd bd17 c73d
000000c0: 5d65 b3bb 1fb2 13bd 8a8c f4bd 760c 81bd
000000d0: f895 8abb e67c 0a3d 861e bbbc 2e95 353d
000000e0: 093f 13bd 8de0 d53c 0045 fc3c a9b0 633b
000000f0: afe8 67bd 053b cabd 6796 8b3d 84d7 b13c
00000100: 9664 313e 719e 143d c0d0 a23c b495 663e
00000110: 3f26 3a3e 33ea 763e b87f f93d 6525 733c
00000120: ad22 033d 50cb 313e 13ff 603e 169c 603e
00000130: e3ae 973d 5cf3 1f3e 3672 0b3e 56ce 603e
00000140: 295a 2e3e b24e dbbc 92fe 183e 6e9a 6b3e
00000150: 8e0e 913d 93a6 533e 104f 603e e79f 3f3e
00000160: 700d 1a3d 1f95 9e3d a069 7b3e cf11 5a3d
00000170: fefd c63c 994d 683e 3911 a23c 7ce4 9b3d
00000180: ccaf 173e 0435 3d3e 341d 6a3e 52f3 653e
00000190: 0099 253c d5c3 5c3d d592 783e 85bb 0b3e
000001a0: 1cf4 973d dd2d b93d 391c 5e3e 63b0 e73d
000001b0: 7117 2e3d 3341 4b3e 1d78 693e 9461 ea3c
000001c0: badc 6c3d 5249 b83d 7f51 5b3d e453 c33d
000001d0: 133a 54bc 06a1 a03d 82c0 023e 9fb3 403e
000001e0: 3280 b13d 6f16 7d3e e348 c83d d20f 053d
000001f0: a5a6 1a3d 5afd 053e c313 3f3e 9d37 4b3e
00000200: 479f 093d f4b4 8ebd 6a7c 013b 7e25 4a3d
00000210: a5f7 8abd ad52 04be 21b5 bf3d 4339 7abc
00000220: 6870 e9bd 5367 fcbc 5ddb 89bd 9a3f 16bd
00000230: 95ff 423d c228 a8bd 5607 543d 05bc 15be
00000240: a6c4 89bd a718 413d e5b6 7b3d 373a 7e3d
00000250: e059 403d d157 8e3d b73d ccbd 7209 e5bd
00000260: 3ef9 f4bd 3ec5 8abd 4891 793d a134 0abe
00000270: 07e1 8cbc ff17 8b3d 29ba 34bc a228 873d
00000280: 115a cc3d 8b0b ef3b 2e3b 3b3d bd03 f63c
00000290: 1be0 243d fe4b 97bd e1ef 473d 0762 6a3d
000002a0: 55f5 1e3c 1593 be3c 89dc a03d 71ff abbc
000002b0: 53ec cbbd 95a3 fdbc 0dbe 0fbe 4de6 6dbd
000002c0: 3b31 4d39 aa77 4b3d 4b84 a13c 7ad7 f83c
000002d0: 82be b1bb af22 bcbd 5d3c fdbd 734a 673d
000002e0: 4374 8d3d 3963 353c c878 39bd 9ff8 ba3d
000002f0: 74c2 b23d 98ad c0bd f645 f0bd 9f24 3abc
00000300: 9d47 513e 4f16 953d bce4 413e 30f1 d63d
00000310: 24c7 b83d 3e52 cf3d 91a2 373e 4ce0 b03d
00000320: 9de1 c93d b9c1 233d 4323 113e 749e d23d
00000330: fd2e 213e 6435 bc3d 0fdd 593e fe92 4f3e
00000340: da26 8e3e 6083 18b9 a8a3 2e3d 678c 2f3d
00000350: fd69 323d 6921 fa3d 60f3 a13d aadd 6c3e
00000360: 745f 813d 0b9b ee3d 6eb6 2d3e d7fd 623d
00000370: 453b 863d a848 e03d 4aa2 c03d e518 883e
00000380: 9400 ca3d 46ea 473e 19e2 5e3e a7cc 813e
00000390: d1fa b03d 5595 5f3e 64f7 893e 8b0a cf3d
000003a0: 95cc 163d 8572 763e 7b99 1a3e 73dd 8f3e
000003b0: 2d55 703e f439 a33d 27e4 e73c f7ba 093e
000003c0: 8cc6 eb3d 8e31 3b3e 77bb ee3c efc1 153e
000003d0: e31c 123d b32a 803e 7889 073e d815 c13d
000003e0: 4940 223e db57 603d 860f 843e 43e5 9b3d
000003f0: 60c5 e03d 4a12 9e3d e54c 823d d849 713e
0.05997098 0.03253133 -0.14280213 0.027112186 0.042911407 -0.11666564 0.038483545 -0.07688938
-0.1033324 -0.05727831 -0.11193083 -0.105658025 -0.12549087 -0.1430375 -0.124662235 -0.12534973
-0.013078922 -0.082814045 -0.06442645 0.04707911 -0.06291609 0.056507125 -0.150816 0.0071700877
0.047612883 0.08095366 0.02857487 -0.039744463 0.0062631574 -0.08456574 -0.09889875 -0.016981112
0.043790292 0.083359174 -0.09620052 0.054673005 -0.14239134 0.09548484 -0.003272113 0.067726225
-0.13966087 -0.0712231 -0.14369084 0.071329705 0.10404748 -0.13226318 -0.08145159 0.097213246
-0.00547473 -0.03605854 -0.11940868 -0.06301205 -0.0042293034 0.03381052 -0.022841703 0.044331722
-0.035948787 0.02610805 0.03079462 0.0034742749 -0.05661839 -0.09874538 0.06815796 0.021709211
0.17323527 0.036283914 0.01987493 0.22518045 0.18178652 0.24112777 0.121825635 0.0148404585
0.03201549 0.17362714 0.21972303 0.21934542 0.07406404 0.15620178 0.13617787 0.21953711
0.17026581 -0.026770923 0.14940861 0.23008129 0.07082854 0.20669012 0.2190516 0.18713342
0.03761047 0.07743286 0.24552011 0.05323964 0.024291035 0.22685851 0.019783603 0.07611939
0.14813155 0.18477255 0.22862703 0.224561 0.010107279 0.053897697 0.24274762 0.13645752
0.07419607 0.09041951 0.21690454 0.1131294 0.042502824 0.1984909 0.22799726 0.028610982
0.05782769 0.0899836 0.053544518 0.09537485 -0.012953299 0.07843213 0.12768748 0.1881852
0.086670294 0.24715589 0.09779527 0.03248579 0.03775658 0.13084927 0.18659882 0.19845434
0.033599164 -0.06968108 0.0019757994 0.04935216 -0.06785516 -0.12922163 0.093607195 -0.015272441
-0.11398393 -0.030810988 -0.06731293 -0.03668175 0.047607023 -0.08210899 0.05176481 -0.14622505
-0.06726961 0.04714265 0.06145372 0.062067237 0.04696071 0.069503434 -0.09972709 -0.11183442
-0.11961602 -0.06775902 0.060929567 -0.13496639 -0.017197145 0.06791686 -0.011030712 0.06599547
0.09978116 0.007295077 0.045710735 0.03003108 0.040252786 -0.07387541 0.04881275 0.057222392
0.009702046 0.023263494 0.07854564 -0.020995827 -0.09957185 -0.030961791 -0.14037342 -0.05808096
0.00019568663 0.049674667 0.019716403 0.030376185 -0.0054243216 -0.09186303 -0.12365029 0.056467485
0.06906941 0.01107102 -0.0452812 0.09129452 0.08728495 -0.094081104 -0.11732094 -0.01136127
0.20437475 0.07279646 0.18934911 0.104952216 0.09022358 0.10123108 0.17933108 0.08636531
0.098574854 0.03997967 0.14173608 0.10284129 0.15740581 0.09189871 0.21275733 0.20270917
0.27764016 -0.0001454479 0.042636544 0.042858507 0.04355811 0.12213404 0.07907748 0.23131433
0.06317034 0.11650666 0.16964123 0.05541786 0.065542735 0.10951358 0.09405954 0.26581493
0.098633915 0.19522962 0.21765937 0.2535145 0.086415894 0.2183431 0.26946557 0.10109433
0.0368162 0.24067123 0.1509761 0.2809864 0.23469992 0.07970038 0.028307034 0.13450228
0.11512479 0.18280622 0.029142125 0.14624761 0.03567208 0.25032577 0.13236034 0.094279945
0.15844835 0.054771286 0.25793093 0.076120876 0.10975146 0.07718332 0.06362323 0.23563325

model.2.bias f4 [64]
00000000: 5c5e 953d 8227 2c3e 6816 273c 5e8c 253e
00000010: 66b5 e93b 08b0 213e 2bbd c1bd 7709 3b3e
00000020: b2e2 353e 0fdd aabd 7a49 aebd cf59 8f3d
00000030: ebc2 ae3c 7dcf 783d 483e a6bd d5a6 633c
00000040: 858d 673e bc99 dd3d ccd9 ccbd 0533 e4bd
00000050: 6d66 0d3c 9438 c43d 4852 bfbd 4656 463e
00000060: dfa2 b83d c11f 6f3e bf68 94bd d821 0fbe
00000070: 1dce 4f3e 500a 073d ec72 ea3d 2e3e ea3c
00000080: 96cd f83d 22c1 953c 796d eebc 37b0 953d
00000090: 20be 453e 9306 cfbd f7da 8c3d b583 c43d
000000a0: 869a 9a3d 3bb4 7a3d 7828 f2bd 6eb5 463e
000000b0: d2a4 7c3e 2003 bd3d 086c 4a3e a563 053e
000000c0: ce69 1c3e fb0c 843e 43cb 9cbd 4869 fabd
000000d0: c57b 013e f576 783e 0d37 763e 67e2 dc3d
000000e0: 97a9 5e3e 2885 73bd 8e6b 593e 5fae ed3d
000000f0: ac97 123e 8653 e13d 7c43 4d3e de19 e3bd
0.07293388 0.16811946 0.010198213 0.16166827 0.00713222 0.15789807 -0.09459909 0.1826533
0.17762259 -0.08342945 -0.08510108 0.069995515 0.021333179 0.06074475 -0.08117348 0.013894756
0.22612579 0.10820338 -0.10002479 -0.11142544 0.008630377 0.09581104 -0.09341866 0.19368848
0.0901544 0.23351957 -0.07246541 -0.13977754 0.2029347 0.03296882 0.11447701 0.028594103
0.121485874 0.01828057 -0.029104935 0.07309001 0.19310808 -0.10108676 0.06877702 0.095954336
0.07549004 0.061207037 -0.11824125 0.19405147 0.24672249 0.09229112 0.19767773 0.13026293
0.15274736 0.25791153 -0.076559566 -0.12227112 0.1264487 0.24264129 0.24044438 0.1078537
0.21744381 -0.05945316 0.21232435 0.11605524 0.1431567 0.11002259 0.20045274 -0.11088918

model.4.weight f4 [1, 64]
00000000: 3a9e 79bd dd9f 1d3e 0ad3 e83b 9b8c 8e3e
00000010: c8a6 8dbb 9553 353e 9838 8abd a98a 8d3e
00000020: cb97 5d3e 0838 223d bd56 40bc 9a70 7f3e
00000030: 73a8 463e ab00 eabc eec6 ebbd 16c7 443e
00000040: 0f9d 3c3e 6e46 823e 8d66 cbbd 1aa1 b8bc
00000050: ba59 843e da5d 8f3e 7c50 c8bd efb1 613e
00000060: 4da1 e5bb 59c9 383e 8914 97bd 6f98 d0bd
00000070: 6867 353e 6242 ffbc 79b3 8f3e a676 82bb
00000080: 6ca8 653e d883 b0bd 6012 d6bd 5b1c b7bd
00000090: b219 7a3e a58d 78bd 7fd7 793e 5ccb 543e
000000a0: 18ae 843e afed 82bd 804a cd3c 1721 1b3e
000000b0: 08ab 663e 821d 463e 22ad 773e e617 193e
000000c0: 313d 543e 0995 263e 25de 19bd 567f dabd
000000d0: 5263 333e e538 7b3e e977 793e c363 783e
000000e0: 8c20 613e 2c0e 2f3d 34b9 633e 5e3c 703e
000000f0: 091f 4e3e d4e5 2f3e 63f4 4d3e 7a90 e73d
-0.060941912 0.15393014 0.007105236 0.27841648 -0.0043228604 0.17707665 -0.06749076 0.27644852
0.21639936 0.039604217 -0.01173943 0.24945298 0.19400196 -0.028564772 -0.11512552 0.1921657
0.18419288 0.2544436 -0.099316694 -0.022537757 0.25849706 0.2800129 -0.09780976 0.22040533
-0.007007754 0.18045558 -0.07376964 -0.101853244 0.17715228 -0.031159583 0.28066614 -0.003981429
0.22427529 -0.08618897 -0.104527235 -0.08940955 0.24423864 -0.060681958 0.24398611 0.207807
0.25914073 -0.06392991 0.025059938 0.15149342 0.2252618 0.19347194 0.24187139 0.14950523
0.20726468 0.1626779 -0.03756537 -0.10668819 0.17518356 0.24533422 0.24362148 0.24256806
0.21985072 0.042738125 0.22238618 0.23460528 0.20129026 0.17177516 0.20112757 0.113068536
