models/neural_networks/regression/2024-08-17_21-54-06/model.pt (torch, 950580 bytes, 5 tensors)

model.0.weight f4 [256, 667]
0.03569796 0.05610901 -0.024418613 0.010865576 -0.015877312 0.06750955 -0.062975354 -0.053972375
-0.090699695 -0.011892648 0.0850364 -0.083806105 0.05898591 -0.06617229 0.064605206 0.014657669
-0.042930048 0.039306268 -0.047325473 -0.042522848 -0.031365134 0.02420108 -0.022812743 -0.059819408
0.034770705 -0.08758487 0.018921457 0.04285273 0.008800761 -0.033594918 0.08530325 0.056254283
0.09438676 -0.07129285 0.05274781 0.044088602 -0.04349168 -7.223338e-05 -0.014373936 -0.01976627
-0.05570065 0.0077020824 0.0069346055 0.08510005 -0.090154156 0.06593521 0.073483504 0.037360653
0.09391393 -0.04347654 -0.071712345 0.024436755 -0.088794895 -0.055505488 0.00469165 -0.08943494
-0.013978541 0.06970453 -0.08957525 0.032643992 -0.021542706 0.022064544 0.04943704 0.051306754
-0.07759597 0.08262657 0.058557138 -0.0681957 0.031130616 -0.01580066 -0.019197874 0.051803604
-0.014057942 0.076435834 0.00079696625 0.012615129 0.022037834 -0.07646613 -0.076311305 0.0057337363
0.059910983 0.09153077 0.08963891 0.063241124 0.0015055314 0.0101642385 0.07405949 0.08791579
0.037483677 0.07360034 -0.043626938 0.050306454 -0.022404358 0.038269073 -0.051377118 -0.011727817
0.089752614 0.057747282 -0.06888958 0.03526849 -0.003876131 -0.020913936 -0.0696286 0.09475793
-0.055687148 0.083191 -0.008268085 0.031121999 -0.014295787 -0.060897797 -0.093638785 0.08511062
0.031722054 -0.010740645 0.07916446 0.019289047 0.071688525 -0.0038247034 -0.091382526 0.08551429
0.059834942 0.06070909 0.042125702 -0.08908649 0.054410085 0.02445833 0.048948914 0.064471945
0.04605022 -0.04324106 -0.09178059 0.030823275 0.06325264 0.06340678 0.05672145 -0.09412943
0.08758165 -0.045543376 0.049339995 -0.03676944 0.077564225 0.02383782 0.0145191625 -0.04448597
-0.080812745 -0.003119424 -0.09075839 0.015001446 -0.05620724 -0.054066364 0.09199516 0.05866388
0.071118966 -0.047018312 -0.037856374 -0.001043871 -0.010202058 -0.044014044 0.02885618 -0.091623746
0.0658973 -0.02857799 0.049096525 0.06261706 0.027244732 0.013229378 0.043330442 -0.09100882
0.06416539 -0.056536492 0.023234278 0.08487255 0.045860782 -0.017465658 0.030608654 -0.059327774
0.07082668 0.06623753 -0.012905963 -0.061443623 -0.046722855 0.069342524 0.05320838 -0.0717499
0.074981764 -0.010871693 0.06871121 0.09480674 0.01735616 -0.007612749 -0.08723872 0.09260501
0.043825746 -0.021394446 0.0862246 0.07991108 0.08773875 -0.03894062 -0.018834254 -0.04508833
0.08334352 0.06495303 -0.04780198 -0.046004236 -0.0034130514 0.009483039 -0.052611772 -0.019018188
0.044832163 -0.060433943 -0.06994893 -0.079010144 0.04158953 -0.013857773 0.017748795 -0.079844445
0.06633344 -0.04375634 0.052446425 -0.07025318 -0.00077566504 -0.070036754 0.029498775 0.05131018
0.0022318736 -0.0855581 -0.010943316 -0.04100463 0.028200887 0.09424661 0.04441538 -0.09303004
-0.079638556 -0.0668942 -0.05747881 0.058529735 -0.08842407 0.068758324 -0.060982708 -0.08338179
0.025033332 0.06976035 0.009306705 -0.06846105 0.013169967 -0.05294339 0.014643669 0.03442584
-0.047010344 -0.039992724 -0.07523583 -0.08560423 -0.06590325 -0.05710794 -0.0037292093 -0.0046251
00000000: 0638 123d 90d2 653d 8b09 c8bc 8705 323c
00000010: 2311 82bc 7242 8a3d 39f9 80bd 2312 5dbd
00000020: c3c0 b9bd 62d9 42bc 9027 ae3d 89a2 abbd
00000030: 369b 713d 5685 87bd bc4f 843d b826 703c
00000040: 6bd7 2fbd 9cff 203d 5bd8 41bd 702c 2ebd
00000050: ba78 00bd 5841 c63c cae1 babc 3205 75bd
00000060: ba6b 0e3d b25f b3bd 2c01 9b3c 5886 2f3d
00000070: 1131 103c d39a 09bd 78b3 ae3d e46a 663d
00000080: d84d c13d fc01 92bd 160e 583d 4096 343d
00000090: 5524 32bd 007c 97b8 a880 6bbc dfec a1bc
000000a0: 5d26 64bd c061 fc3b b03b e33b ef48 ae3d
000000b0: bea2 b8bd 0a09 873d 857e 963d 7c07 193d
000000c0: f255 c03d 7514 32bd ecdd 92bd 972f c83c
000000d0: 19da b5bd b959 63bd 6abc 993b aa29 b7bd
000000e0: 4006 65bc 40c1 8e3d 3b73 b7bd b5b5 053d
000000f0: 547a b0bc b4c0 b43c 7e7e 4a3d 0827 523d
00000100: a3ea 9ebd 1e38 a93d 9cd9 6f3d 30aa 8bbd
00000110: a205 ff3c 6370 81bc dc44 9dbc 0430 543d
00000120: 4853 66bc 648a 9c3d 80eb 503a b0af 4e3c
00000130: b088 b43c 469a 9cbd 1a49 9cbd 11e2 bb3b
00000140: 3865 753d 7c74 bb3d 9b94 b73d 9084 813d
00000150: 4055 c53a e887 263c 80ac 973d 320d b43d
00000160: 7c88 193d c6bb 963d 29b2 32bd 240e 4e3d
00000170: 5889 b7bc 08c0 1c3d d070 52bd 0826 40bc
00000180: 38d0 b73d 6a88 6c3d fb15 8dbd b175 103d
00000190: b006 7ebb b453 abbc 7099 8ebd 7210 c23d
000001a0: 3518 64bd 0b60 aa3d dd76 07bc 90f3 fe3c
000001b0: e038 6abc f86f 79bd b1c5 bfbd 7a4e ae3d
000001c0: fcee 013d 88f9 2fbc fa20 a23d 1004 9e3c
000001d0: 6fd1 923d e0a7 7abb c326 bbbd 1e22 af3d
000001e0: 7c15 753d 18aa 783d 008c 2c3d fa72 b6bd
000001f0: 1cdd 5e3d d65c c83c a87e 483d de09 843d
00000200: 289f 3c3d 8a1d 31bd 76f7 bbbd 1881 fc3c
00000210: 9a8a 813d 6adb 813d c054 683d eec6 c0bd
00000220: 025e b33d b18b 3abd bc18 4a3d 8d9b 16bd
00000230: fed9 9e3d 8847 c33c c8e1 6d3c ec36 36bd
00000240: 2781 a5bd 406f 4cbb 89df b9bd a0c8 753c
00000250: 9039 66bd b174 5dbd f567 bc3d 8949 703d
00000260: d2a6 913d 4696 40bd 490f 1bbd 80d2 88ba
00000270: 8826 27bc 1248 34bd cc63 ec3c 3ba5 bbbd
00000280: 2af5 863d 641c eabc 7019 493d 603d 803d
00000290: 5830 df3c 08c0 583c 437b 313d d562 babd
000002a0: 2569 833d cf92 67bd d055 be3c a9d1 ad3d
000002b0: 84d8 3b3d 2414 8fbc 00bf fa3c ae01 73bd
000002c0: 940d 913d 8ba7 873d 8873 53bc 4fac 7bbd
000002d0: 7760 3fbd 7403 8e3d 08f1 593d 9df1 92bd
000002e0: 0a90 993d 2f1f 32bc 76b8 8c3d 092a c23d
000002f0: 812e 8e3c 5e74 f9bb 37aa b2bd b2a7 bd3d
00000300: a082 333d 6843 afbc 8696 b03d 6ca8 a33d
00000310: 60b0 b33d 3380 1fbd 4b4a 9abc 8aae 38bd
00000320: 02b0 aa3d 1806 853d 02cc 43bd f06e 3cbd
00000330: 80ad 5fbb c05e 1b3c 717f 57bd 08cc 9bbc
00000340: eea1 373d 9589 77bd 6241 8fbd 12d0 a1bd
00000350: c859 2a3d b60b 63bc ec65 913c 7c85 a3bd
00000360: d4d9 873d d939 33bd 10d2 563d e6e0 8fbd
00000370: 0056 4bba 6e6f 8fbd 6aa7 f13c a02a 523d
00000380: a044 123b 1639 afbd 984b 33bc 79f4 27bd
00000390: 8c05 e73c 5e04 c13d e7ec 353d 8986 bebd
000003a0: 8a19 a3bd d4ff 88bd e76e 6bbd e0bc 6f3d
000003b0: ae17 b5bd 2ad1 8c3d 01c9 79bd 12c4 aabd
000003c0: b412 cd3c 84de 8e3d 267b 183c 4f35 8cbd
000003d0: d8c6 573c 2bdb 58bd 00ec 6f3c 1c02 0d3d
000003e0: eb8d 40bd 69cf 23bd 3e15 9abd 4551 afbd
000003f0: 48f8 86bd 04ea 69bd c065 74bb 278e 97bb

model.0.bias f4 [256]
0.0004143406 -0.0014069352 -0.0031354344 0.0016373626 0.0026656308 0.002826892 0.0015915389 4.4689317e-05
0.000629823 -0.0009833793 0.0012396282 -0.00042135885 0.0014780437 -0.0040676566 -0.0013414656 -0.00017964342
0.002144365 0.0005429353 -0.0009147879 0.003159389 4.4263415e-06 0.0018642687 -0.00048876496 -0.00019346348
0.0019154137 -0.0008028251 0.00029681312 0.002393848 0.0040366706 0.0009755703 0.0007667049 0.00015934554
-0.00049309444 0.0012227995 -0.0018479131 -0.0002665323 0.0007387911 0.0016653513 0.004477232 0.0021989984
0.0005413045 -0.0019676306 0.00015831005 -7.320119e-05 -0.0016730106 -7.5721e-05 -0.0025723453 0.00012451706
-0.00056277117 0.0002598581 -0.0017495517 2.7627684e-05 0.0032945983 0.0006731368 0.0006344396 -0.0020591829
-0.0009229447 0.0019606645 0.0018947087 0.0020308062 0.000119162934 -0.0002132811 0.0011259068 -9.069008e-05
-0.0016025297 -0.00039756752 -0.0034566366 -0.0003394095 -0.00080697023 -0.0026804972 0.00059490424 -0.001616774
0.002883089 -0.00019561894 0.00022149416 0.0019717654 -0.0010443531 -8.420365e-05 0.0012721602 0.00039664784
-0.0015421378 -0.00038415802 0.001444014 -0.00055524224 0.0008585834 -0.00043411905 -0.0006591324 0.0017513662
-0.00046573838 -0.0013816322 0.00066199043 0.0031815171 0.0016560382 0.0006438531 -0.0025357797 0.001739686
-0.0018123426 0.0005521989 0.0014481064 0.00161332 -0.0023546955 0.0016362024 -0.0010841428 -0.0015218213
-0.0002722282 -0.0002667414 0.0007852626 0.0010937133 0.0021521517 0.00027406882 -0.00040198813 0.0023243474
0.0040790294 -0.0008651185 -0.0015424812 0.0019510868 -0.00043137855 0.0019790735 0.0028960258 -0.0007603572
0.00032722755 -0.0031581796 0.0006141888 0.00058123627 -0.0010204514 -0.00014947029 0.00049928384 0.0012023911
0.0011779678 -0.00046637695 0.00069041783 0.0009485786 0.0025534923 -0.0016694409 0.00032471158 0.0014023426
-0.0005342591 -0.0020336062 0.0016982337 0.0002660616 -0.0038038772 -0.0013022237 -0.0005153945 0.0006535368
0.0007114598 0.00067058677 0.00047387122 -0.0007129189 -0.00047132815 -0.0019123199 0.0017299177 -0.00030936862
0.004259413 0.0037509007 0.0010674368 -0.0016101758 0.0006794637 0.00012443787 0.00018347285 -0.0006978875
-0.002766823 0.00047664513 3.324178e-05 0.001968801 0.00062921917 -0.0007400321 0.0011522496 0.00022201818
0.001426776 -3.0851512e-05 -0.0009444967 0.0004062908 0.00061967183 0.00055652775 0.0010407064 -0.00041284633
0.00050186476 -0.0017343322 0.0012080566 0.001547752 0.00022404187 -0.0009052623 0.0006022519 -0.0009101251
-0.003034685 0.00037905952 0.0020407615 0.0009178826 0.0015669883 0.0022392771 -0.0011018926 0.0002716985
-0.0013224016 -0.0003418283 -4.1136776e-05 -0.00011581416 -0.00041074218 -0.00036271842 0.0025437493 0.0036423204
5.4818218e-05 7.525136e-05 0.0015445526 -0.00035592893 -1.4635501e-06 0.0009634828 0.0020734854 -0.00012631508
3.317074e-06 0.00043737548 0.00071208336 -0.0004099512 -8.475383e-05 0.00023774408 0.000994512 -0.0011111073
0.0010441354 0.003130201 0.0034714856 0.000732307 -0.00019763796 -0.0014008948 -0.002609784 0.000100180194
-0.0010369269 0.0007790354 0.0034587886 -0.00012829657 0.00051728083 0.0007278165 0.0024195353 -0.00041930453
0.0020880809 0.0005685191 -0.00027106542 0.002680945 -0.0009704041 0.0019536894 -1.2415828e-05 -0.0030823697
0.0016170338 -0.00021663873 0.0011567204 -0.0022907606 -0.00015696869 0.0005891647 0.0013866189 0.0010210498
0.0011712713 0.0022599946 -0.00035769746 -0.001427666 -0.0002777625 0.0013983651 0.00093094184 -0.0010303614
00000000: db3b d939 e968 b8ba dc7b 4dbb c69c d63a
00000010: ddb1 2e3b 6143 393b 2f9b d03a ca70 3b38
00000020: b51a 253a bce4 80ba 057b a23a d4e9 dcb9
00000030: ebba c13a fa49 85bb 1ed4 afba aa5e 3cb9
00000040: 7a88 0c3b c553 0e3a 60ce 6fba c00d 4f3b
00000050: fc85 9436 7a5a f43a 7620 00ba 75dc 4ab9
00000060: 9e0e fb3a ae74 52ba 959d 9b39 1be2 1c3b
00000070: 0c46 843b 6abd 7f3a b2fc 483a fe15 2739
00000080: 0243 01ba 5846 a03a ad35 f2ba 5cbd 8bb9
00000090: 6eab 413a eb47 da3a bfb5 923b 121d 103b
000000a0: 54e6 0d3a 5df3 00bb 0800 2639 9783 99b8
000000b0: ec48 dbba 67cc 9eb8 cb94 28bb cb90 0239
000000c0: ef86 13ba 903d 8839 3751 e5ba 00c2 e737
000000d0: 30ea 573b 7275 303a 8550 263a 5bf3 06bb
000000e0: c5f1 71ba 7e7e 003b e057 f83a 4617 053b
000000f0: 1de7 f938 36a4 5fb9 2a93 933a de30 beb8
00000100: f90b d2ba 9c70 d0b9 bd88 62bb c6f2 b1b9
00000110: db8a 53ba 48ab 2fbb 59f3 1b3a efe9 d3ba
00000120: 35f2 3c3b 0f1f 4db9 e340 6839 bc38 013b
00000130: ade2 88ba 7e96 b0b8 9dbe a63a 2cf5 cf39
00000140: 8f21 caba d168 c9b9 1245 bd3a ad8d 11ba
00000150: 8e12 613a 799a e3b9 a0c9 2cba 198e e53a
00000160: 592e f4b9 e217 b5ba 6d89 2d3a 0081 503b
00000170: 6c0f d93a 40c8 283a 532f 26bb 2d06 e43a
00000180: 208c edba 71c1 103a 63ce bd3a 0976 d33a
00000190: 3c51 1abb d875 d63a cc19 8eba d977 c7ba
000001a0: dab9 8eb9 6dd9 8bb9 15da 4d3a ee5a 8f3a
000001b0: 1d0b 0d3b e5b0 8f39 efc1 d2b9 1454 183b
000001c0: 61a9 853b 1fc9 62ba 152d caba 9cbb ff3a
000001d0: a62a e2b9 58b3 013b 40cb 3d3b b552 47ba
000001e0: bd8f ab39 76f9 4ebb 8301 213a 1b5e 183a
000001f0: abc0 85ba 20bb 1cb9 5fe2 023a 8d99 9d3a
00000200: 0a66 9a3a 0e84 f4b9 28fd 343a 08aa 783a
00000210: 7e58 273b 24d1 daba 0d3e aa39 cfce b73a
00000220: 850d 0cba 4046 05bb 4497 de3a 2f7e 8b39
00000230: 784a 79bb 60af aaba 8a1b 07ba 1d52 2b3a
00000240: 4281 3a3a 51ca 2f3a eb71 f839 2de3 3aba
00000250: 981c f7b9 cfa6 faba 68be e23a c132 a2b9
00000260: 8c92 8b3b acd1 753b 3ce9 8b3a 890c d3ba
00000270: 091e 323a 897b 0239 9e62 4039 70f2 36ba
00000280: 9653 35bb 3ae6 f939 176d 0b38 0007 013b
00000290: 2ff2 243a b7fe 41ba 1507 973a 8dcd 6839
000002a0: a902 bb3a 8f66 01b8 1a98 77ba 6e03 d539
000002b0: 7971 223a f2e3 113a 5068 883a 4c73 d8b9
000002c0: 938f 033a 8852 e3ba a757 9e3a f0dd ca3a
000002d0: c8ec 6a39 204f 6dba 71e0 1d3a 7695 6eba
000002e0: 91e1 46bb 82bc c639 4cbe 053b 0f9e 703a
000002f0: 6763 cd3a d6c0 123b 616d 90ba c172 8e39
00000300: 6f54 adba 6b37 b3b9 478a 2cb8 41e1 f2b8
00000310: e258 d7b9 3e2b beb9 08b5 263b ffb3 6e3b
00000320: 9dec 6538 44d0 9d38 9672 ca3a f99b bab9
00000330: 336f c4b5 3c92 7c3a 50e3 073b 7273 04b9
00000340: e69a 5e36 8b4f e539 1bab 3a3a b8ee d6b9
00000350: debd b1b8 f14a 7939 495a 823a 93a2 91ba
00000360: 5fdb 883a 0f24 4d3b dd81 633b 4af8 3f3a
00000370: 093d 4fb9 3b9e b7ba e908 2bbb d517 d238
00000380: 7ee9 87ba 2e38 4c3a d8ac 623b 5987 06b9
00000390: 219a 073a f0ca 3e3a 1191 1e3b 1ad6 dbb9
000003a0: 2fd8 083b ac08 153a c91d 8eb9 cbb2 2f3b
000003b0: b762 7eba 7809 003b 934d 50b7 9501 4abb
000003c0: a7f2 d33a 8429 63b9 199d 973a 9620 16bb
000003d0: f697 24b9 2c72 1a3a 36bf b53a bfd4 853a
000003e0: 5885 993a 6b1c 143b 5789 bbb9 8620 bbba
000003f0: a7a0 91b9 5949 b73a 730a 743a 310d 87ba

model.2.weight f4 [256, 256]
-0.013220436 -0.12867789 -0.14984286 -0.028646216 -0.10662794 -0.080015674 -0.05174341 0.14093077
-0.13197522 0.035868734 -0.11284324 0.03979322 0.0030467159 -0.07175414 0.083537154 -0.046758268
0.030141685 -0.022239788 -0.10683383 -0.010151831 0.0577277 -0.13145153 0.054100245 -0.13286817
0.120859176 -0.12636267 -0.14204139 0.13858551 0.12763426 -0.10732034 0.1156179 0.13473861
-0.14690772 -0.13640611 -0.11151456 0.075444534 0.02696416 0.10744526 -0.081230424 -0.029423837
-0.080588296 -0.08767683 -0.024569431 -0.032260526 0.076253444 0.050110158 -0.13645244 -0.14179173
0.06717018 -0.056095123 -0.043206442 -0.04251666 0.08554791 -0.0042326017 -0.03417084 0.14778599
-0.09853445 0.02631561 -0.097923286 0.06028292 -0.0011016524 0.054446187 -0.05366204 0.071218126
-0.072835855 -0.07226048 0.117295526 0.14608549 0.013786041 0.08318635 -0.08061657 0.005201733
-0.015665304 -0.091108 0.08362338 0.0956862 0.06948981 -0.021378346 0.02753881 -0.07340406
-0.034372784 -0.086937375 0.0038683384 -0.10970237 -0.09845465 -0.12956843 0.008713625 0.10234508
-0.0381502 -0.15084203 0.14666702 0.022320395 0.12940186 0.021677872 -0.054570988 0.12112336
-0.14024435 0.0047394596 -0.040004916 0.015990587 0.060040884 0.010020013 0.13623798 0.10271868
0.0066759167 -0.12421661 0.107085 0.13133958 -0.08184322 -0.12518328 -0.012834971 -0.042288408
0.028081605 -0.10636864 0.14224806 -0.0442737 -0.05191653 -0.11982759 0.046826046 0.051151898
0.09177187 -0.047044892 0.011964267 -0.1052666 -0.11059719 0.04323377 -0.121188596 -0.09869975
-0.06851962 -0.06295275 -0.09056707 0.0971999 -0.09541502 0.028537393 0.07927981 0.041709844
0.1461073 -0.044973746 -0.030726014 0.079919145 -0.14649937 0.09019428 -0.1406184 -0.1160985
0.03794124 -0.12364188 0.05516808 -0.11206851 0.051094607 -0.034222573 -0.10690618 -0.015547905
0.09081765 0.040390763 -0.066562444 0.03585238 0.027775636 0.014540499 -0.061143722 -0.122584805
-0.0791917 0.042462137 -0.11282554 0.0020132402 0.0024707783 0.0077854213 0.04136462 -0.023034247
-0.13163343 -0.00081881654 -0.10410121 0.07901483 0.0060695736 0.07104172 0.020205457 -0.09572853
-0.057706334 -0.028087039 0.04140517 -0.14865099 0.010548782 0.118962176 -0.0632315 0.031210411
-0.08508535 -0.04779749 0.12421197 0.087678894 -0.05083221 0.11788121 -0.0009964523 -0.10912574
-0.041355997 0.016604299 -0.12534907 -0.12959096 -0.08888314 -0.022800798 0.12151467 -0.13382593
0.04467812 0.007949837 -0.11020558 -0.10857151 0.04700912 0.061218455 -0.07888845 0.05533966
0.09323531 0.122111 -0.0037112087 0.023805842 -0.1312898 0.054817136 0.045633245 0.059991203
-0.11132431 -0.06915396 -0.12662637 -0.0817772 0.0797927 -0.07423362 -0.0033966363 -0.09192897
0.15070887 -0.080024324 -0.041140463 0.10800702 -0.15052122 0.008534201 0.12298168 0.08120913
-0.056463923 0.109895654 0.072433814 -0.07606697 -0.08167683 0.09202098 0.095286414 0.10431706
0.074709825 -0.12386978 -0.0614954 0.038755674 0.0705866 -0.03466083 0.12194422 -0.04545573
0.12565489 -0.09703913 0.13297871 -0.1489256 0.1353357 0.12018591 -0.1500253 -0.053328574
00000000: 879a 58bc 23c4 03be 6870 19be 78ab eabc
00000010: c05f dabd 42df a3bd e6f0 53bd 2850 103e
00000020: 8324 07be 18eb 123d 5b1a e7bd 37fe 223d
00000030: 69ab 473b d6f3 92bd 8715 ab3d 9985 3fbd
00000040: b2eb f63c 3730 b6bc b2cb dabd de53 26bc
00000050: e173 6c3d 3b9b 06be 3898 5d3d 980e 08be
00000060: 0485 f73d 3765 01be 4c73 11be 5ce9 0d3e
00000070: 8eb2 023e c4ca dbbd 14c9 ec3d ebf8 093e
00000080: fa6e 16be 0bae 0bbe bf61 e4bd aa82 9a3d
00000090: f1e3 dc3c 430c dc3d 235c a6bd 420a f1bc
000000a0: 7a0b a5bd e98f b3bd d545 c9bc 9d23 04bd
000000b0: c42a 9c3d 4f40 4d3d 30ba 0bbe da31 11be
000000c0: 8590 893d 00c4 65bd 3df9 30bd f325 2ebd
000000d0: be33 af3d a3b1 8abb b9f6 0bbd 3655 173e
000000e0: 6ecc c9bd d693 d73c 018c c8bd 39eb 763d
000000f0: 5265 90ba f702 5f3d bacc 5bbd cfda 913d
00000100: f72a 95bd 4dfd 93bd a338 f03d 6f97 153e
00000110: d9de 613c 9b5d aa3d 4d1a a5bd 4d73 aa3b
00000120: 8654 80bc d596 babd bc42 ab3d 20f7 c33d
00000130: ac50 8e3d a421 afbc 1299 e13c de54 96bd
00000140: 7aca 0cbd 390c b2bd f383 7d3b a3ab e0bd
00000150: 97a2 c9bd 96ad 04be 98c3 0e3c 4c9a d13d
00000160: 6243 1cbd 5576 1abe e12f 163e 43d9 b63c
00000170: ec81 043e cb95 b13c d485 5fbd 860f f83d
00000180: 379c 0fbe 784d 9b3b 32dc 23bd b1fe 823c
00000190: 6eed 753d fb2a 243c f881 0b3e 2c5e d23d
000001a0: a6c1 da3b 4765 febd 614f db3d e27d 063e
000001b0: 6b9d a7bd 0c30 00be c549 52bc 9c36 2dbd
000001c0: 650b e63c cdd7 d9bd 7aa9 113e 5758 35bd
000001d0: 6da6 54bd 2b68 f5bd abcc 3f3d a784 513d
000001e0: e4f2 bb3d 25b2 40bd c605 443c 0496 d7bd
000001f0: c880 e2bd e515 313d ba31 f8bd 1823 cabd
00000200: 0454 8cbd 5fed 80bd 3a7b b9bd be10 c73d
00000210: f368 c3bd 40c7 e93c 745d a23d f1d7 2a3d
00000220: 279d 153e 6436 38bd 1fb5 fbbc a6ac a33d
00000230: ee03 16be c7b7 b83d 45fe 0fbe 0dc5 edbd
00000240: 4668 1b3d f437 fdbd edf7 613d 2d84 e5bd
00000250: 9448 513d f82c 0cbd a1f1 dabd a4bc 7ebc
00000260: 9bfe b93d c970 253d e451 88bd f2d9 123d
00000270: bb89 e33c 463b 6e3c d771 7abd be0d fbbd
00000280: 422f a2bd c7ec 2d3d 1411 e7bd 91f0 033b
00000290: c8ec 213b d91c ff3b f36d 293d 51b2 bcbc
000002a0: eaca 06be d9a5 56ba 0433 d5bd 87d2 a13d
000002b0: 46e3 c63b 527e 913d ea85 a53c 520d c4bd
000002c0: 7a5d 6cbd ca16 e6bc 7898 293d f737 18be
000002d0: ccd4 2c3c 71a2 f33d 847f 81bd faac ff3c
000002e0: 3a41 aebd 4dc7 43bd d862 fe3d fe90 b33d
000002f0: 6f35 50bd b46b f13d 649b 82ba 517d dfbd
00000300: e864 29bd bd05 883c 825b 00be 7eb3 04be
00000310: 5d08 b6bd bdc8 babc afdc f83d aa09 09be
00000320: 6800 373d 0840 023c 77b3 e1bd bd5a debd
00000330: a38c 403d 34c0 7a3d 4590 a1bd d7ab 623d
00000340: 27f2 be3d 5515 fa3d c037 73bb 7804 c33c
00000350: d570 06be ef87 603d ede9 3a3d 56b9 753d
00000360: 00fe e3bd 97a0 8dbd 58aa 01be ce7a a7bd
00000370: 5b6a a33d cc07 98bd 1a9a 5ebb 4145 bcbd
00000380: 6d53 1a3e cbe3 a3bd e782 28bd c932 dd3d
00000390: 3c22 1abe 09d3 0b3c d2dd fb3d f950 a63d
000003a0: b746 67bd f910 e13d 2e58 943d 00c9 9bbd
000003b0: 2f46 a7bd 7f75 bc3d 8625 c33d 2fa4 d53d
000003c0: 7701 993d 70af fdbd 9ae2 7bbd 45be 1e3d
000003d0: b58f 903d 84f8 0dbd e4bd f93d ca2f 3abd
000003e0: adab 003e 74bc c6bd 922b 083e f47f 18be
000003f0: 7195 0a3e 0824 f63d 3ba0 19be 106f 5abd

model.2.bias f4 [256]
0.00016449024 0.002712054 -0.0031936208 -0.00067528314 -0.00127293 0.0040716347 0.0004233238 0.00077366264
9.038445e-06 -0.00046582875 -0.0011245103 -0.001031737 -0.00015979525 0.003045825 -0.0009992729 0.0012700099
0.00014131027 -0.0017946996 0.00091472163 0.0010347363 -0.0028996246 0.0015567859 0.0024180985 -0.0012224511
-1.6879048e-05 -0.00015895476 -9.53695e-05 -0.0027907754 -0.0004963501 -0.00039612054 0.0007771431 0.0028176971
0.0016520367 0.0003856869 0.0009939409 0.0032752003 -0.0029225864 -0.0048253736 -0.0017899687 0.0009557546
-0.0012426281 -0.0017921 0.00075076387 -0.0015296448 -0.00042724385 0.00038527726 -0.0014393572 0.0015250428
0.0025327685 0.001023125 0.0026335246 -0.0005913386 0.0013036676 -0.0016517902 0.00036298754 0.0008395713
0.0010098595 7.8792276e-05 0.0006791777 0.0012568376 -0.0012814372 0.0028845733 -0.0010770435 0.0005043498
-0.0026404958 0.004058857 -0.0041720136 0.0011844792 0.0004240942 0.0003388855 0.0016818417 -0.0019470607
-0.00291018 -0.0034845879 0.002082491 3.4202443e-05 -0.0011464109 0.0043637427 0.0029357185 -0.0037589346
0.00442841 0.00046463465 -0.0013573364 0.0023648348 -0.0019594498 0.00070649886 0.0012369396 4.9445105e-05
0.0016216941 0.005189945 -0.0024247523 0.00031884597 -0.0009788021 -0.000528712 0.00065662595 -0.0015420087
-0.0042793956 0.0014941852 0.0021507167 -0.0008689663 0.004385517 -0.0009727232 0.0028067303 -0.0023569195
0.0014680782 -0.0012866964 0.00094702415 -0.00085455825 -0.0046697874 0.0005098121 0.00086319755 0.00017916542
0.0032520168 -0.0029298116 -0.0014585464 0.0042034253 0.004331561 -0.00010128786 0.00031452606 -0.001655935
-0.0018705141 -0.0013100902 0.0009230952 0.0038726893 0.0011799814 0.0012096874 0.002842324 0.0007850729
0.0012748808 0.0035072977 0.0004620681 0.001666311 0.0014763639 7.519033e-05 0.0008238197 -0.002352478
-0.00016213403 -0.0046218326 -0.0016941486 0.002637013 -0.00095019786 0.00076701515 0.00057164737 -0.00030738028
0.0003017462 -2.4197213e-06 0.00054964266 0.0018581533 -0.0016158692 -0.0009951653 0.00024389778 -0.0015940955
-1.9679457e-05 0.0019432135 -0.00013170736 0.0016514584 -0.00014361127 -0.00075892516 -8.0485355e-05 0.0020235747
0.00030123745 0.00555728 1.7499837e-05 0.0022566868 0.0015254143 -0.00044574897 -0.0006353688 0.00018937614
-8.587423e-05 -0.0012815554 0.0012963717 -0.00045394505 -0.00092329533 0.004058973 0.0013360291 -0.00035230862
-5.479443e-06 -0.00019267092 -0.0012655719 -0.0017440539 0.0031810524 0.00036660032 0.0006914298 0.0033190588
0.0029305066 -0.0011533488 -0.0001270598 0.002073812 0.00076104864 0.00038937735 0.003648669 0.0005788172
0.0013709362 0.00024072571 -0.00028001916 0.0020711576 0.0007938727 -0.0019742635 -0.00024971325 -0.0006446103
0.0018945185 -0.0027473324 -0.0010942536 0.0028242515 -0.0014183526 0.00015549154 0.0004044558 -0.0011178713
0.003922062 -0.0013874109 -0.00041108014 -0.0005751602 0.0008906001 6.2751744e-05 0.0005812907 -0.0021874376
0.00020400877 -7.570692e-05 0.00023351166 -0.0010039648 -0.0012849948 -0.00016969914 0.0009234141 -0.00077398366
0.00046506166 0.005138614 0.004413533 0.00029511712 0.0017338786 -3.7683076e-05 0.0027295765 -0.00271751
0.00089447637 -0.0037309127 0.0012162206 -0.00064802106 0.0033513806 -0.004778626 0.0016413127 0.0023412611
0.0002791752 0.0041806344 0.0018765633 -0.00012848503 -0.00092085724 0.00081916276 0.0011188955 -0.00015789928
-0.00064414775 0.0014358518 -6.3174935e-05 8.172233e-06 -0.0011149929 -0.0013825056 -0.0009833776 0.00011722115
00000000: 037b 2c39 b7bc 313b 114c 51bb 7c05 31ba
00000010: 71d8 a6ba 596b 853b 8ff1 dd39 9fcf 4a3a
00000020: d3a3 1737 7a3a f4b9 4e64 93ba 593b 87ba
00000030: b68e 27b9 779c 473b 09fa 82ba 7676 a63a
00000040: b02c 1439 203c ebba eec9 6f3a fd9f 873a
00000050: a107 3ebb 110d cc3a f678 1e3b a73a a0ba
00000060: 7b97 8db7 18ad 26b9 1c01 c8b8 71e5 36bb
00000070: 7e1d 02ba 66ae cfb9 31b9 4b3a 1da9 383b
00000080: 2789 d83a 0536 ca39 1f47 823a bea4 563b
00000090: dd88 3fbb 2b1e 9ebb 629d eaba 9b8b 7a3a
000000a0: aedf a2ba e6e4 eaba e9ce 443a 5d7e c8ba
000000b0: b3ff dfb9 0aff c939 d0a8 bcba f2e3 c73a
000000c0: cefc 253b 611a 863a 3697 2c3b 1004 1bba
000000d0: d3df aa3a e280 d8ba 5d4f be39 ad16 5c3a
000000e0: 435d 843a 483d a538 d80a 323a 79bc a43a
000000f0: e6f5 a7ba 1c0b 3d3b 952b 8dba 5836 043a
00000100: 2b0c 2dbb 2900 853b 63b5 88bb 8740 9b3a
00000110: f658 de39 71ac b139 3e71 dc3a 8434 ffba
00000120: b8b8 3ebb af5d 64bb 677a 083b 9874 0f38
00000130: 2b43 96ba bafd 8e3b 2f65 403b 7558 76bb
00000140: 321c 913b 359a f339 a7e8 b1ba 58fb 1a3b
00000150: 1d6a 00bb 5634 393a ce20 a23a 4763 4f38
00000160: 068f d43a 6a10 aa3b 98e8 1ebb c82a a739
00000170: 264b 80ba 4399 0aba 6c21 2c3a 3a1d caba
00000180: 2c3a 8cbb 89d8 c33a 0af3 0c3b 57cb 63ba
00000190: 62b4 8f3b 59fe 7eba 1ff1 373b 8c76 1abb
000001a0: 886c c03a 5ea6 a8ba b741 783a 6f04 60ba
000001b0: 0405 99bb e9a4 053a 3548 623a 5ade 3b39
000001c0: ca1f 553b 1502 40bb b22c bfba e3bc 893b
000001d0: c4ef 8d3b 816a d4b8 f9e6 a439 f50b d9ba
000001e0: 0a2c f5ba 55b7 abba dffb 713a f2cc 7d3b
000001f0: 9ba9 9a3a 608e 9e3a 4946 3a3b 5acd 4d3a
00000200: e719 a73a b1da 653b bb41 f239 1e68 da3a
00000210: 8d82 c13a 80af 9d38 9bf5 573a 082c 1abb
00000220: 8602 2ab9 be72 97bb 320e deba bdd1 2c3b
00000230: b316 79ba 8411 493a 9bda 153a e227 a1b9
00000240: b033 9e39 7f62 22b6 e515 103a 478d f33a
00000250: 93cb d3ba 3570 82ba d0be 7f39 f8f0 d0ba
00000260: 5015 a5b7 6db3 fe3a ed1a 0ab9 c075 d83a
00000270: 5b96 16b9 9bf2 46ba 3fca a8b8 f39d 043b
00000280: 68ef 9d39 d819 b63b 9dcc 9237 ece4 133b
00000290: 69f0 c73a 6ab3 e9b9 e18e 26ba 4593 4639
000002a0: 6017 b4b8 ddf9 a7ba 04eb a93a 79ff edb9
000002b0: 4d09 72ba 2201 853b b31d af3a 10b6 b8b9
000002c0: 0fdc b7b6 b507 4ab9 8ce1 a5ba bd98 e4ba
000002d0: 3479 503b 4334 c039 1241 353a 9184 593b
000002e0: be0d 403b f72b 97ba 5b3b 05b9 cbe8 073b
000002f0: 1c81 473a 5825 cc39 821e 6f3b c4bb 173a
00000300: fcb0 b33a 516b 7c39 89cf 92b9 42bc 073b
00000310: e51b 503a a562 01bb f2eb 82b9 11fb 28ba
00000320: 7e51 f83a 970c 34bb 0f6d 8fba 1417 393b
00000330: 04e8 b9ba 710b 2339 230d d439 8985 92ba
00000340: a484 803b c9d9 b5ba 3e86 d7b9 59c6 16ba
00000350: 2977 693a 9699 8338 c261 183a 1d5b 0fbb
00000360: 30eb 5539 d8c4 9eb8 cfda 7439 7897 83ba
00000370: 456d a8ba 44f1 31b9 4511 723a 2ae5 4aba
00000380: 85d3 f339 d261 a83b 669f 903b f3b9 9a39
00000390: 5043 e33a e50d 1eb8 b2e2 323b 4118 32bb
000003a0: 4b7b 6a3a 5482 74bb 9769 9f3a f5df 29ba
000003b0: d6a2 5b3b 0596 9cbb 5121 d73a d86f 193b
000003c0: 435e 9239 b4fd 883b 04f7 f53a f0b9 06b9
000003d0: af65 71ba 15bd 563a e7a7 923a c491 25b9
000003e0: 06dc 28ba 3133 bc3a c97c 84b8 791b 0937
000003f0: f424 92ba 3135 b5ba ade4 80ba a0d4 f538

model.4.weight f4 [1, 256]
0.10347763 0.08212326 -0.120924875 -0.12935704 -0.07324208 0.14657667 0.014595339 0.041724887
0.0017697199 -0.01197731 -0.13639693 -0.13635089 -0.044229675 0.13542789 -0.041392658 0.13864192
0.018457877 -0.041253958 0.08357969 0.08482957 -0.14453802 0.14867361 0.071788326 -0.13633096
-0.0018103198 -0.0035957107 -0.003897041 -0.141154 -0.13621312 -0.01649674 0.03523584 0.100412406
0.08018665 0.015050284 0.091523185 0.14314944 -0.14269476 -0.13098326 -0.101138666 0.053649884
-0.051005855 -0.06885337 0.054235667 -0.07868338 -0.033948116 0.019462498 -0.09623851 0.0901862
0.08092783 0.035244383 0.109768294 -0.037788745 0.07721102 -0.07915931 0.0135831125 0.03381598
0.049751066 0.013492032 0.07140615 0.10490675 -0.13220456 0.08834466 -0.10647535 0.029040594
-0.09146473 0.14918715 -0.13149518 0.05013354 0.1038734 0.01434886 0.05747466 -0.074527085
-0.13858414 -0.108666606 0.07061004 0.004100729 -0.056685958 0.15075403 0.09012428 -0.09926851
0.1266449 0.022979945 -0.060302462 0.115969926 -0.1116863 0.04556947 0.04591457 0.0144563345
0.0620657 0.15636763 -0.08335097 0.014358265 -0.025528261 -0.03657502 0.0760352 -0.12330256
-0.109396674 0.05064665 0.080733165 -0.04838656 0.14707895 -0.09403028 0.10074883 -0.076966286
0.052541353 -0.07889395 0.12270178 -0.026629537 -0.13099994 0.022128096 0.02843643 0.0077063097
0.09605598 -0.12011803 -0.048074875 0.13680497 0.14905591 -0.009830966 0.04727224 -0.11109045
-0.09363863 -0.034140535 0.07734791 0.11598553 0.036701202 0.061910637 0.10458549 0.06524561
0.095825285 0.12372823 0.063928254 0.0800203 0.097593665 0.0048146937 0.034993865 -0.06627637
-0.026262831 -0.13776185 -0.07042819 0.13044646 -0.08261336 0.036286753 0.044856098 -0.026661435
0.040559318 -0.00039580674 0.020861724 0.07476645 -0.06244357 -0.07760843 0.01829443 -0.044489976
0.00030254928 0.117939375 -0.03609206 0.051066525 -0.08786559 -0.032735918 -0.14378454 0.06645981
0.012391381 0.1479943 0.03287613 0.1498976 0.0930435 -0.07922312 -0.017048113 0.012216415
-0.01813837 -0.06722412 0.08830031 -0.015053158 -0.05464738 0.12168491 0.08934836 -0.035046667
-0.00036184717 -0.021725353 -0.049386274 -0.116919905 0.15307626 0.029843774 0.045187347 0.15427566
0.13065746 -0.067630395 -0.0059614424 0.10267122 0.05441361 0.03487925 0.13882248 0.10962018
0.08907773 0.012075787 -0.12894344 0.05994207 0.1023805 -0.08793967 -0.030275054 -0.08861751
0.0781986 -0.0704867 -0.04837274 0.11677887 -0.119936004 0.13581438 0.0995355 -0.059050985
0.123769686 -0.058224484 -0.014633109 -0.02387783 0.06236263 0.0147452885 0.07173506 -0.109964326
0.07056268 -0.004556442 0.12096623 -0.06565157 -0.12936136 -0.010458438 0.09081156 -0.032313257
0.021792231 0.14068149 0.13427937 0.039097566 0.118924856 0.0015864666 0.099260435 -0.12828341
0.027158042 -0.13839452 0.038574137 -0.053808723 0.12567979 -0.12570384 0.0656808 0.12316814
0.03220648 0.13867407 0.05630549 -0.019663654 -0.032066576 0.052302223 0.09492865 -0.003791514
-0.030470673 0.04580676 -0.018097714 0.0037710988 -0.08447486 -0.11524973 -0.052166782 0.0056844195
00000000: 14ec d33d 3d30 a83d 76a7 f7bd 2c76 04be
00000010: f2ff 95bd 3218 163e 4a21 6f3c b7e7 2a3d
00000020: f2f5 e73a 7b3c 44bc a3ab 0bbe 919f 0bbe
00000030: 2d2a 35bd 9cad 0a3e 598b 29bd 26f8 0d3e
00000040: f934 973c e9f9 28bd d42b ab3d 20bb ad3d
00000050: c601 14be e53d 183e c205 933d 589a 0bbe
00000060: 4148 edba 04a6 6bbb 8065 7fbb ad8a 10be
00000070: 747b 0bbe 2c24 87bc 7553 103d 05a5 cd3d
00000080: e638 a43d 7795 763c 8270 bb3d c495 123e
00000090: 931e 12be 7a20 06be ca21 cfbd fbbf 5b3d
000000a0: 84eb 50bd ff02 8dbd 3826 5e3d c024 a1bd
000000b0: 2e0d 0bbd d16f 9f3c b218 c5bd 8bb3 b83d
000000c0: 7dbd a53d 6a5c 103d 33ce e03d 5fc8 1abd
000000d0: d020 9e3d 471e a2bd b48b 5e3c a082 0a3d
000000e0: c6c7 4b3d af0d 5d3c 633d 923d 5ad9 d63d
000000f0: a260 07be 0cee b43d c00f dabd 8ae6 ed3c
00000100: dc51 bbbd 84c4 183e aca6 06be d458 4d3d
00000110: 94bb d43d 7b17 6b3c 8d6a 6b3d a8a1 98bd
00000120: 00e9 0dbe 998c debd ff9b 903d 685f 863b
00000130: 892f 68bd 445f 1a3e 1493 b83d 4a4d cbbd
00000140: 33af 013e 7040 bc3c b7ff 76bd a481 ed3d
00000150: c9bb e4bd 0da7 3a3d eb10 3c3d 43da 6c3c
00000160: 9a38 7e3d d61e 203e eab3 aabd ee3e 6b3c
00000170: a520 d1bc b0cf 15bd 58b8 9b3d 0d86 fcbd
00000180: 5d0b e0bd dd72 4f3d 6e57 a53d fc30 46bd
00000190: dd9b 163e f392 c0bd 6755 ce3d 80a0 9dbd
000001a0: 9a35 573d 2793 a1bd 124b fb3d 3026 dabc
000001b0: d924 06be fb45 b53c 84f3 e83c 3685 fc3b
000001c0: ffb8 c43d 7100 f6bd 29ea 44bd 9a16 0c3e
000001d0: 1da2 183e 0f12 21bc 89a0 413d 6483 e3bd
000001e0: 9cc5 bfbd f2d6 0bbd 9568 9e3d d289 ed3d
000001f0: 0054 163d 0296 7d3d eb30 d63d 7e9f 853d
00000200: 0c40 c43d 3a65 fd3d d1ec 823d afe1 a33d
00000210: 30df c73d 94c4 9d3b ba55 0f3d e8bb 87bd
00000220: 2625 d7bc 7111 0dbe a83c 90bd c293 053e
00000230: 3131 a9bd 6ba1 143d 07bb 373d 1569 dabc
00000240: 8721 263d 4884 cfb9 35e6 aa3c 271f 993d
00000250: d4c4 7fbd 2bf1 9ebd 33de 953c 1f3b 36bd
00000260: 7a9f 9e39 338a f13d 45d5 13bd 222b 513d
00000270: e0f2 b3bd 1916 06bd 413c 13be 151c 883d
00000280: 3805 4b3c d18b 173e 1fa9 063d c27e 193e
00000290: 978d be3d bb3f a2bd 7ca8 8bbc 5c27 483c
000002a0: eb96 94bc cdac 89bd cbd6 b43d 85a1 76bc
000002b0: eed5 5fbd f035 f93d 46fc b63d 188d 0fbd
000002c0: 4eb6 bdb9 5ef9 b1bc 4349 4abd b473 efbd
000002d0: 06c0 1c3e ee7a f43c 5e16 393d 70fa 1d3e
000002e0: 12cb 053e ce81 8abd 3458 c3bb 4a45 d23d
000002f0: cee0 5e3d 8bdd 0e3d 7b27 0e3e 8c80 e03d
00000300: 636e b63d 86d9 453c c009 04be d185 753d
00000310: deac d13d b719 b4bd 6403 f8bc 197d b5bd
00000320: 9626 a03d 555b 90bd 7f22 46bd c329 ef3d
00000330: 02a1 f5bd ed12 0b3e 45d9 cb3d 72df 71bd
00000340: f67a fd3d cc7c 6ebd b5bf 6fbc 709b c3bc
00000350: f56f 7f3d 3996 713c d5e9 923d fa34 e1bd
00000360: 2b83 903d 354e 95bb 25bd f73d 5574 86bd
00000370: 4e77 04be de59 2bbc 69fb b93d e85a 04bd
00000380: 9f85 b23c cf0e 103e 8880 093e c524 203d
00000390: e08e f33d fcf0 cf3a 0e49 cb3d ba5c 03be
000003a0: 8b7a de3c 4bb7 0dbe eaff 1d3d 8966 5cbd
000003b0: 34b2 003e 82b8 00be a883 863d 943f fc3d
000003c0: f1ea 033d 9300 0e3e 96a0 663d ac15 a1bc
000003d0: 3e58 03bd db3a 563d f469 c23d 0d7b 78bb
000003e0: a29d f9bc df9f 3b3d a841 94bc 8a24 773b
000003f0: 2801 adbd 0d08 ecbd d6ac 55bd 5e44 ba3b
