models/neural_networks/regression/2024-08-15_16-48-40/model.pt (torch, 467252 bytes, 5 tensors)

model.0.weight f4 [128, 777]
0.017730951 -0.042433284 -0.035822596 -0.0040801396 0.061973143 0.14210449 0.08009132 0.08114079
-0.23485076 -0.074785635 -0.10664164 0.15313017 0.14918412 0.26663947 0.017569415 -0.048751026
-0.015171281 -0.024040224 -0.019292561 0.14890094 -0.028981194 0.23326972 -0.065379396 0.06815209
0.06385379 -0.27988824 -0.3160598 0.09710531 -0.08362997 -0.02482804 0.08332164 0.06220799
0.039220057 0.0818789 0.014680028 -0.09679756 -0.110938706 -0.24279808 -0.13681985 0.011904241
0.047382697 -0.04632401 0.04528083 0.0002419278 -0.048981268 -0.030573409 -0.024508074 -0.053784743
-0.023116775 -0.23353356 -0.06395652 -0.2829531 -0.049655054 -0.060608394 -0.07121353 -0.069006994
0.08447229 -0.16515611 0.045099624 0.02833052 -0.0009465653 -0.08610194 -0.0786889 -0.21344635
-0.2046848 -0.28143036 0.15268384 0.19485024 -0.11510921 -0.23606253 0.17401712 0.1795589
-0.035343952 -0.0994242 -0.117127076 -0.13140143 -0.100761496 0.0012802859 -0.031819887 -0.016864952
-0.13052851 0.092569 0.02057314 0.033852026 -0.13520887 -0.077174515 -0.054967176 0.08796448
-0.07573047 0.16077389 -0.021138616 0.12776144 0.1645327 -0.050156586 0.043811925 -0.09219619
0.081059694 0.036964625 0.050507 -0.12281757 0.034264077 -0.24593846 0.053919498 -0.040161405
-0.022091292 0.020910105 0.014519398 -0.17019211 -0.28242257 0.037583977 -0.3872619 -0.03165451
-0.06028468 0.08779733 0.04378905 -0.25908247 0.049710117 0.07436865 0.11244411 -0.078820415
-0.04311457 -0.20077708 0.012073621 -0.046088815 0.025632069 -0.051541366 -0.21295775 -0.07434909
-0.009539157 0.08562983 -0.07495974 -0.040833198 -0.20585819 -0.074864216 0.0029359278 0.3994012
0.06472965 -0.059235662 0.04084585 0.04895491 -0.12100874 0.14177838 0.05491423 -0.13431266
0.017428555 -0.029188167 -0.202026 -0.026395163 0.05151745 -0.029443435 -0.16574049 0.061382055
0.106902786 0.03509782 0.03420789 -0.29332703 0.034788102 0.041289262 -0.04831921 0.04906218
0.07019112 0.09808008 -0.06192755 -0.095036425 0.071101554 0.0062636724 -0.030962557 -0.07382411
-0.06826696 0.27038264 0.022429865 -0.0681811 -0.037350923 -0.023841912 -0.11883014 0.09531163
0.056705363 0.03596195 -0.014056795 -0.21345316 -0.05480095 0.06993573 0.03781419 -0.16128388
0.008068353 0.06406953 0.017557636 -0.042648394 0.020883746 0.02038089 -0.072807126 -0.12725149
-0.3258452 0.061963357 0.043421723 -0.21450675 -0.10457293 0.0032514809 0.1584991 -0.062146787
0.06997352 -0.120765984 0.03392549 0.046930738 0.011693041 -0.052907564 0.22161737 -0.07866026
0.13874277 0.049957808 -0.086652465 0.02055332 0.1940442 0.20484638 -0.15909763 0.067870565
0.020277375 -0.072593935 -0.050720517 -0.12874824 -0.14805183 -0.045782447 0.07894745 -0.0379894
-0.007719492 -0.068220705 0.05582916 0.028889239 0.0015631521 -0.018861674 -0.06934903 -0.037301745
0.14696467 -0.16024771 0.04037533 0.038010657 0.2080428 -0.085005485 0.07474656 -0.10123045
0.051653426 -0.12330996 0.075446494 0.34887022 -0.04559842 -0.13403432 -0.3037568 -0.16500518
0.051994964 -0.0045416486 -0.035622124 0.10827649 -0.08184943 0.03806805 -0.071629755 0.1897511
00000000: 8040 913c 86ce 2dbd b7ba 12bd b1b2 85bb
00000010: 8dd7 7d3d d783 113e eb06 a43d 242d a63d
00000020: b87c 70be 3629 99bd ef66 dabd 28ce 1c3e
00000030: b9c3 183e f884 883e bced 8f3c 28af 47bd
00000040: f790 78bc 01f0 c4bc 6f0b 9ebc 7d79 183e
00000050: f869 edbc 42de 6e3e a2e5 85bd 5393 8b3d
00000060: c7c5 823d 834d 8fbe 97d2 a1be 26df c63d
00000070: 3146 abbd 2c64 cbbc 89a4 aa3d cecd 7e3d
00000080: 36a5 203d 20b0 a73d 8084 703c cd3d c6bd
00000090: d533 e3bd 0fa0 78be 811a 0cbe 010a 433c
000000a0: 5c14 423d 3fbe 3dbd 6478 393d 00ae 7d39
000000b0: 95a0 48bd 1675 fabc 28c5 c8bc 644d 5cbd
000000c0: 645f bdbc 6c23 6fbe a3fb 82bd 3bdf 90be
000000d0: 1963 4bbd 8240 78bd 66d8 91bd 8a53 8dbd
000000e0: cfff ac3d af1e 29be 62ba 383d 6815 e83c
000000f0: ec22 78ba 3756 b0bd a527 a1bd ae91 5abe
00000100: e498 51be a417 90be 2759 1c3e d286 473e
00000110: 61be ebbd 60ba 71be 8b31 323e 4ade 373e
00000120: d2c4 10bd ea9e cbbd 52e0 efbd 198e 06be
00000130: 0b5c cebd 44cf a73a 9255 02bd 5e28 8abc
00000140: 44a9 05be d194 bd3d 0089 a83c 6ca8 0a3d
00000150: 3274 0abe ac0d 9ebd 4325 61bd b926 b43d
00000160: 9418 9bbd e9a1 243e e42a adbc e5d3 023e
00000170: 437b 283e fe70 4dbd 2274 333d 5bd1 bcbd
00000180: a002 a63d 3868 173d 6ee0 4e3d c787 fbbd
00000190: 7d58 0c3d 4bd7 7bbe b1da 5c3d 4980 24bd
000001a0: ccf8 b4bc ab4b ab3c c5e2 6d3c d746 2ebe
000001b0: b199 90be a8f1 193d 3147 c6be 29a8 01bd
000001c0: 12ed 76bd 16cf b33d 265c 333d 75a6 84be
000001d0: d69c 4b3d 974e 983d 1949 e63d 996c a1bd
000001e0: e798 30bd 8298 4dbe 70d0 453c a0c7 3cbd
000001f0: 58fa d13c 0a1d 53bd 9911 5abe 5644 98bd
00000200: 204a 1cbc b15e af3d 7e84 99bd b640 27bd
00000210: 7dcc 52be 6952 99bd b268 403b 507e cc3e
00000220: fb90 843d 18a1 72bd fa4d 273d f284 483d
00000230: 6ed3 f7bd 5a2e 113e beed 603d 4289 09be
00000240: 54c6 8e3c 061c efbc e7df 4ebe ab3a d8bc
00000250: f603 533d 5c33 f1bc e0b7 29be c06b 7b3d
00000260: d9ef da3d bbc2 0f3d 931d 0c3d f62e 96be
00000270: f87d 0e3d ee1e 293d 5dea 45bd 6df5 483d
00000280: 5dc0 8f3d 35de c83d bea7 7dbd 75a2 c2bd
00000290: b19d 913d 7e3f cd3b 30a5 fdbc 1831 97bd
000002a0: 8ccf 8bbd 986f 8a3e d6be b73c 88a2 8bbd
000002b0: 48fd 18bd 1d50 c3bc 375d f3bd be32 c33d
000002c0: e243 683d d64c 133d 794e 66bc 7793 5abe
000002d0: f676 60bd 773a 8f3d 0de3 1a3d 9a27 25be
000002e0: 2031 043c e336 833d 08d5 8f3c 15b0 2ebd
000002f0: 6414 ab3c d3f5 a63c e71b 95bd 374e 02be
00000300: 2fd5 a6be 4acd 7d3d fada 313d a8a7 5bbe
00000310: 552a d6bd cc16 553b 974d 223e a18d 7ebd
00000320: 474e 8f3d 2854 f7bd 74f5 0a3d 723a 403d
00000330: 2b94 3f3c 9ab5 58bd aaef 623e a118 a1bd
00000340: 9612 0e3e 8fa0 4c3d d976 b1bd 705f a83c
00000350: 86b3 463e 40c3 513e 7dea 22be b9ff 8a3d
00000360: bd1c a63c 21ac 94bd 51c0 4fbd 94d6 03be
00000370: e69a 17be 6086 3bbd 33af a13d c69a 1bbd
00000380: cbf3 fcbb 4cb7 8bbd 1ead 643d 20a9 ec3c
00000390: aee2 cc3a cc83 9abc dd06 8ebd b7c9 18bd
000003a0: e87d 163e fa17 24be 9a60 253d 10b1 1b3d
000003b0: 2c09 553e 5b17 aebd b914 993d e951 cfbd
000003c0: 8b92 533d ef89 fcbd b183 9a3d 1e9f b23e
000003d0: 69c5 3abd 4b40 09be 0386 9bbe 1ef7 28be
000003e0: acf8 543d 1cd2 94bb 81e8 11bd 10c0 dd3d
000003f0: ada0 a7bd 3eed 1b3d 9fb2 92bd 1d4e 423e

model.0.bias f4 [128]
0.11627177 0.14125437 0.013569722 0.13315724 0.11572574 -0.1283997 -0.008743234 0.15781468
0.11604854 0.11450069 0.06706561 0.0847959 0.16494147 0.09215514 0.16792195 -0.016166784
0.15189306 0.13602906 0.121745974 -0.09542027 0.14945531 0.1529192 0.1651507 0.12547188
0.124671906 0.14618146 0.14962661 0.002917009 0.16947316 0.12756848 0.15271224 0.107971035
-0.0043734717 0.16579224 0.06063493 0.12990479 0.07183325 0.11834365 0.10114062 0.096737295
0.13982345 0.1587392 0.08412431 0.14026868 0.105168045 0.0066421498 0.15210085 0.09974539
0.06346558 0.06937025 0.06355985 -0.10847931 0.06851362 0.063329704 0.15586434 -0.074015014
-0.006517656 0.061019797 0.078264065 0.011833798 0.11319399 0.10777733 0.15467907 0.052449677
0.06699219 0.13111198 0.10302133 0.106640704 0.08278691 0.024646927 0.13751154 0.13656968
0.09957941 0.1429799 0.12202375 0.16339482 0.09698609 0.12494639 0.109709114 0.10051537
0.15828086 -0.021991737 0.09029481 0.16822867 0.093702614 0.07485657 -0.060478643 0.1330562
0.036311004 0.11154147 0.071882315 -0.041051365 -0.003009595 -0.031063002 0.17985576 0.00033692457
0.13485627 -0.06965081 0.13023417 0.052702643 0.06803435 0.14070925 0.1523951 0.038047206
0.081560254 0.13779584 0.15234414 0.1714848 0.12844121 0.11433092 0.05212058 -0.083943665
0.17343807 0.13266823 0.067867264 0.13352056 0.12861775 0.12697877 0.11568129 0.019430548
0.113713615 0.019198023 0.12429431 0.016826907 0.1275481 -0.025522988 0.14492574 0.018483626
00000000: e51f ee3d fca4 103e 8a53 5e3c 5f5a 083e
00000010: 9e01 ed3d 367b 03be c83f 0fbc 2c9a 213e
00000020: dbaa ed3d 567f ea3d b259 893d 79a9 ad3d
00000030: 6be6 283e d6bb bc3d bbf3 2b3e 3470 84bc
00000040: db89 1b3e 344b 0b3e f455 f93d b46b c3bd
00000050: d00a 193e da96 1c3e 441d 293e b37b 003e
00000060: fc53 ff3d 98b0 153e b837 193e 4a2b 3f3b
00000070: 5f8a 2d3e 50a1 023e 9960 1c3e eb1f dd3d
00000080: 574f 8fbb 71c5 293e 555c 783d c305 053e
00000090: 501d 933d 285e f23d d022 cf3d 341e c63d
000000a0: e12d 0f3e 878c 223e 5e49 ac3d 98a2 0f3e
000000b0: 5862 d73d 64a6 d93b 53c0 1b3e 5047 cc3d
000000c0: 3efa 813d fd11 8e3d ab2b 823d 672a debd
000000d0: de50 8c3d 01b3 813d e79a 1f3e 2f95 97bd
000000e0: 1092 d5bb e5ef 793d e948 a03d 8ce2 413c
000000f0: 40d2 e73d 5cba dc3d 3164 1e3e 79d5 563d
00000100: 3433 893d 3842 063e d9fc d23d 7166 da3d
00000110: 2f8c a93d 5ae8 c93c d3cf 0c3e ecd8 0b3e
00000120: 4af0 cb3d 5369 123e 96e7 f93d f950 273e
00000130: a5a0 c63d e5e3 ff3d 2caf e03d 01db cd3d
00000140: 6114 223e 0428 b4bc 7cec b83d 2344 2c3e
00000150: 28e7 bf3d 674e 993d 74b8 77bd e23f 083e
00000160: d9ba 143d db6f e43d 0937 933d 7a25 28bd
00000170: a03c 45bb d677 febc 1c2c 383e 40a5 b039
00000180: c317 0a3e 15a5 8ebd 1b5c 053e bade 573d
00000190: 9855 8b3d 1616 103e 760d 1c3e 63d7 1b3d
000001a0: 1009 a73d 5a1a 0d3e 1a00 1c3e b699 2f3e
000001b0: 1886 033e 5426 ea3d 647c 553d a8ea abbd
000001c0: c099 313e 2eda 073e fefd 8a3d 9db9 083e
000001d0: 5fb4 033e b906 023e 50ea ec3d d02c 9f3c
000001e0: afe2 e83d 2c45 9d3c 048e fe3d 95d8 893c
000001f0: f89b 023e 9615 d1bc 6a67 143e f96a 973c

model.2.weight f4 [128, 128]
0.27506095 0.0009373366 0.238997 0.25477087 0.29507786 0.31030354 0.46022433 0.28343627
0.34699512 0.3215382 0.239923 0.004663937 0.18484175 0.17793979 0.18754111 0.29351628
0.16885614 0.45607004 0.11074493 0.5031188 0.103557155 0.28601515 0.023956187 0.102494836
0.09796522 0.3964116 0.19124892 0.43540654 0.4447327 0.19477282 0.33926582 0.42960787
0.21884356 0.16353741 0.28008533 0.008101682 0.3532805 0.29440093 0.1431774 0.21179312
0.40157738 0.07213887 0.41864002 0.220289 0.17906305 0.2573412 0.114071675 0.39130044
0.29728636 0.33899015 0.17024545 0.420207 0.42238957 0.1426065 0.059174463 0.09932524
0.144351 0.28414667 0.10235771 0.20421526 0.2295245 0.2626085 -0.012311598 0.39860925
0.11510502 0.39648247 0.2084228 0.22871666 0.060627066 0.072535045 0.2586902 0.302369
0.06269495 0.0667731 0.3210471 0.22302529 0.33854103 0.22043265 0.34475884 0.44181535
0.27399683 0.5401432 0.32414225 0.30275723 0.106472954 0.3067524 -0.021069862 0.13053982
0.047763295 0.42321533 0.19604507 0.30648834 0.28680933 0.26873997 0.33707932 0.2976727
0.19882919 0.4918251 0.1930548 0.23644766 0.44328228 0.060332753 0.1488858 0.41154042
0.3782885 0.24014296 0.10728436 0.20300499 0.26536062 0.0051847324 0.18491217 -0.12503946
0.31472614 0.43816698 0.1282544 0.015862854 0.29954603 0.023499837 0.3373546 0.0912519
0.048064433 0.38594663 0.32307994 0.39822134 0.01569613 0.36179125 0.2769308 0.19785848
-0.069267794 0.008364232 -0.019515084 0.15190275 -0.25446647 0.10040292 -0.20076534 0.13179176
-0.27245933 0.047163133 0.0715965 0.08242475 -0.2636147 0.12343127 -0.04976186 0.027695548
-0.095037624 -0.2863255 -0.21394879 -0.21882573 -0.21967036 -0.046110857 -0.14215663 -0.21111146
0.10982773 -0.051611137 -0.038818073 -0.26257837 -0.11676109 -0.10867081 -0.25158226 0.123739906
-0.07760534 -0.22618794 -0.2586303 -0.1444408 0.02191789 -0.18728648 -0.18388519 -0.28967267
-0.23259689 -0.21554023 0.03529181 0.02735755 0.100743584 0.015352738 -0.16605197 0.116373524
0.0048063886 0.067812935 0.10521754 -0.17446695 0.042149782 -0.23088513 -0.2376299 0.10234843
-0.26406023 0.10563356 -0.03209005 -0.059799336 0.106106505 0.027593497 0.04869679 -0.0147658605
0.11608147 -0.11661541 0.08064485 -0.12671787 0.12448503 -0.013244659 -0.004319416 -0.19705886
-0.2529169 -0.13116904 0.01923897 -0.1437632 -0.12583596 0.124061495 -0.0027623067 -0.015346497
-0.019470869 -0.063382715 -0.15916894 0.011194609 -0.21873783 0.07666659 -0.05765208 -0.2093821
-0.124522276 -0.23648767 0.14232384 -0.06848261 -0.17777021 0.1212611 -0.2662083 -0.046734937
0.10653536 0.024084104 -0.029401485 0.006783447 -0.041577205 0.09602452 0.056180187 0.105455294
-0.09600726 -0.17800403 0.11121438 -0.15619713 0.024910994 0.12756938 -0.23163748 -0.2497001
0.10368071 0.12581426 -0.23222142 -0.17598829 0.14292507 -0.09649966 -0.12928805 -0.1258748
-0.24117969 0.08213879 -0.013173004 -0.2081499 0.038107432 0.0416059 -0.25297517 -0.18416713
00000000: cad4 8c3e 98b7 753a a1bb 743e 5471 823e
00000010: 7214 973e 1be0 9e3e 86a2 eb3e 8f1e 913e
00000020: 58a9 b13e a8a0 a43e 60ae 753e f0d3 983b
00000030: 2847 3d3e d935 363e c70a 403e c447 963e
00000040: a0e8 2c3e 0382 e93e 3dce e23d 65cc 003f
00000050: c615 d43d 9470 923e c43f c43c d0e8 d13d
00000060: fda1 c83d 76f6 ca3e c2d6 433e 9bed de3e
00000070: 01b4 e33e 8772 473e 40b4 ad3e 90f5 db3e
00000080: 8718 603e 5a76 273e 5867 8f3e ebbc 043c
00000090: 2fe1 b43e b8bb 963e 199d 123e 4ce0 583e
000000a0: 8d9b cd3e 8bbd 933d fc57 d63e 7193 613e
000000b0: 4e5c 373e 3ac2 833e 699e e93d 8858 c83e
000000c0: eb35 983e 1e90 ad3e d354 2e3e 5f25 d73e
000000d0: 7243 d83e 7007 123e ec60 723d 086b cb3d
000000e0: c0d0 133e ac7b 913e eba0 d13d ce1d 513e
000000f0: 7808 6b3e 9f74 863e 96b6 49bc 8316 cc3e
00000100: 2ebc eb3d c0ff ca3e c96c 553e b334 6a3e
00000110: 1654 783d 418d 943d 0b73 843e 1cd0 9a3e
00000120: 3666 803d 56c0 883d 4960 a43e be60 643e
00000130: 4055 ad3e 19b9 613e 3b84 b03e 9f35 e23e
00000140: 5049 8c3e d346 0a3f f9f5 a53e ff02 9b3e
00000150: 7e0e da3d a70e 9d3e b49a acbc 3bac 053e
00000160: 72a3 433d aeaf d83e 0ac0 483e 0aec 9c3e
00000170: acd8 923e 4998 893e a995 ac3e 8e68 983e
00000180: e199 4b3e 80d0 fb3e 28b0 453e 561f 723e
00000190: e5f5 e23e 7a1f 773d 8575 183e 6db5 d23e
000001a0: 08af c13e 09e8 753e e7b7 db3d 8ae0 4f3e
000001b0: 59dd 873e b0e4 a93b 9e59 3d3e 580a 00be
000001c0: c923 a13e 6c57 e03e 1f55 033e d1f2 813c
000001d0: 195e 993e bb82 c03c beb9 ac3e 47e2 ba3d
000001e0: 36df 443d cc9a c53e bc6a a53e abe3 cb3e
000001f0: 2c95 803c b43c b93e e0c9 8d3e 6a9b 4a3e
00000200: 46dc 8dbd 220a 093c 19de 9fbc 658c 1b3e
00000210: 6e49 82be 0ca0 cd3d 6e95 4dbe 6bf4 063e
00000220: ca7f 8bbe 212e 413d 30a1 923d 4fce a83d
00000230: 82f8 86be 89c9 fc3d 18d3 4bbd c6e1 e23c
00000240: 16a3 c2bd 4299 92be 6415 5bbe da13 60be
00000250: 44f1 60be bdde 3cbd 8291 11be 9a2d 58be
00000260: 5ced e03d 3366 53bd b3ff 1ebd ac70 86be
00000270: 7020 efbd cd8e debd 64cf 80be 596b fd3d
00000280: 8cef 9ebd d09d 67be 316b 84be 4ae8 13be
00000290: 268d b33c 07c8 3fbe 664c 3cbe fa4f 94be
000002a0: e12d 6ebe 94b6 5cbe 258e 103d f11c e03c
000002b0: a752 ce3d 0d8a 7b3c 8709 2abe 3e55 ee3d
000002c0: e97e 9d3b 82e1 8a3d 4b7c d73d 77a7 32be
000002d0: 40a5 2c3d 276d 6cbe 4155 73be 0e9c d13d
000002e0: e732 87be 6856 d83d db70 03bd 26f0 74bd
000002f0: 5e4e d93d c20b e23c 4976 473d 82ec 71bc
00000300: 1fbc ed3d 0fd4 eebd 2129 a53d 54c2 01be
00000310: 02f2 fe3d 2000 59bc e389 8dbb ccc9 49be
00000320: 537e 81be 2d51 06be 0b9b 9d3c a936 13be
00000330: 24db 00be f413 fe3d d107 35bb e06f 7bbc
00000340: 5f81 9fbc ccce 81bd 2ffd 22be 9869 373c
00000350: cffc 5fbe 6003 9d3d 9624 6cbd 4368 56be
00000360: 8905 ffbd d329 72be 57bd 113e 9c40 8cbd
00000370: 6509 36be bd57 f83d 744c 88be 226d 3fbd
00000380: 362f da3d 074c c53c 62db f0bc ae47 de3b
00000390: dc4c 2abd 81a8 c43d 321d 663d f2f8 d73d
000003a0: 749f c4bd b046 36be 5dc4 e33d 24f2 1fbe
000003b0: 2412 cc3c 8ca1 023e 6032 6dbe 62b1 7fbe
000003c0: 8d56 d43d 74d5 003e 74cb 6dbe 4636 34be
000003d0: f35a 123e 9da1 c5bd 1664 04be 53e5 00be
000003e0: cff7 76be 6238 a83d 95d3 57bc 3f25 55be
000003f0: 8a16 1c3d f36a 2a3d f685 81be 4f96 3cbe

model.2.bias f4 [128]
0.1635051 -0.06713171 -0.08950036 0.15280789 0.14944643 -0.078740425 0.15550297 0.15684907
-0.07736392 -0.06705802 0.16048694 0.15110144 0.1676414 -0.0749223 -0.07380461 -0.070485234
0.15285368 -0.06641036 -0.07664267 0.15531346 0.15788203 0.16024351 -0.06586902 -0.052291986
0.14877604 -0.087155476 0.16034324 -0.07010356 -0.07092216 0.1602759 -0.08538771 -0.08108728
-0.08498771 0.15797032 0.1562733 -0.07070977 -0.0778054 -0.07751888 -0.06770485 -0.06278195
-0.070060335 -0.07813507 0.15544368 -0.0701605 0.030307889 0.16147105 -0.07911803 -0.07256414
-0.083018094 -0.06719456 -0.066898845 0.1579274 -0.069528654 0.15703197 -0.07567924 0.15498841
0.14839111 0.14647338 -0.0672937 -0.080837935 0.15728404 -0.07990395 -0.068945356 0.14927644
0.15983221 -0.074639976 -0.06507619 -0.080737986 0.15979275 0.15846506 -0.06448263 0.15489775
-0.07024923 0.16076232 0.15311268 -0.0833486 -0.06500196 -0.061757214 -0.07282317 -0.066245
0.15190648 0.15201777 0.15106557 -0.06660206 0.1626046 -0.083777614 0.15808709 0.15819333
0.14941546 0.15629762 0.16302289 -0.08103752 0.14968896 -0.061187502 -0.065267876 0.1553336
0.15846862 0.16022208 0.15492277 0.15705751 0.14781141 0.15827878 0.15527293 0.15966812
-0.06581913 -0.08358759 -0.065449 -0.06798453 0.15196101 0.16180417 0.15594998 0.16606106
0.15931216 0.14837068 0.17170034 -0.07986608 -0.07519261 -0.07641512 0.15628251 0.15415612
-0.07504503 0.15134872 -0.077488035 0.1549182 -0.065225065 0.15151483 -0.08341985 0.15763901
00000000: e26d 273e 5a7c 89bd f74b b7bd ac79 1c3e
00000010: 7c08 193e a942 a1bd 2c3c 1f3e 0b9d 203e
00000020: fa70 9ebd b755 89bd b056 243e 56ba 1a3e
00000030: 30aa 2b3e dd70 99bd df26 97bd 905a 90bd
00000040: ad85 1c3e 2802 88bd d5f6 9cbd 7e0a 1f3e
00000050: d4ab 213e e016 243e 56e6 86bd 1f30 56bd
00000060: bf58 183e 927e b2bd 0531 243e 7592 8fbd
00000070: a33f 91bd 5e1f 243e c0df aebd 1611 a6bd
00000080: 090e aebd f9c2 213e 1c06 203e 49d0 90bd
00000090: 7058 9fbd 38c2 9ebd d7a8 8abd d393 80bd
000000a0: cb7b 8fbd 4805 a0bd a12c 1f3e 4fb0 8fbd
000000b0: 4048 f83c ab58 253e a208 a2bd 829c 94bd
000000c0: 6405 aabd 4d9d 89bd 4302 89bd b8b7 213e
000000d0: 0a65 8ebd fdcc 203e b8fd 9abd 48b5 1e3e
000000e0: d7f3 173e 1efd 153e 48d1 89bd 5c8e a5bd
000000f0: 110f 213e afa4 a3bd 3933 8dbd ecdb 183e
00000100: 0eab 233e d8dc 98bd aa46 85bd f559 a5bd
00000110: b6a0 233e aa44 223e 780f 84bd 849d 1e3e
00000120: d4de 8fbd e19e 243e 92c9 1c3e acb2 aabd
00000130: bf1f 85bd 22f5 7cbd 5024 95bd 75ab 87bd
00000140: 5f8d 1b3e 8caa 1b3e efb0 1a3e a966 88bd
00000150: d281 263e 9993 abbd 95e1 213e 6ffd 213e
00000160: 5e00 193e 7c0c 203e 79ef 263e 00f7 a5bd
00000170: 1048 193e bf9f 7abd 2aab 85bd c50f 1f3e
00000180: 9945 223e 4211 243e 13a4 1e3e afd3 203e
00000190: e05b 173e d513 223e deff 1e3e 0a80 233e
000001a0: 2ecc 86bd f82f abbd 200a 86bd 793b 8bbd
000001b0: ab9b 1b3e feaf 253e 5ab1 1f3e e90b 2a3e
000001c0: ba22 233e 7cee 173e 37d2 2f3e d490 a3bd
000001d0: 95fe 99bd 887f 9cbd 8608 203e 1adb 1d3e
000001e0: 35b1 99bd 29fb 1a3e 0cb2 9ebd e0a2 1e3e
000001f0: b894 85bd b426 1b3e 07d8 aabd 1f6c 213e

model.4.weight f4 [1, 128]
0.4315183 0.03469759 -0.019242797 0.27567914 0.40402713 -0.11985573 0.42260587 0.34338903
0.063388616 -0.009509669 0.27431768 0.30232045 0.375161 -0.027706202 -0.020132538 -0.07161773
0.28342274 -0.07884652 0.011901763 0.39741609 0.38687629 0.40898392 -0.08849325 0.055551365
0.47376803 -0.038000643 0.3799686 0.033479527 -0.13816585 0.2721896 0.01701163 -0.096761
-0.06841033 0.29850554 0.32292086 0.065241635 -0.027410736 -0.07620871 -0.047743868 -0.014667546
-0.13542855 0.014853087 0.3653244 0.04165951 -0.06891646 0.28899118 -0.09427885 -0.0014825566
0.0018092858 -0.012727791 -0.050833624 0.31342018 0.025163578 0.29999176 -0.11420885 0.26686358
0.37794554 0.41135684 0.010530776 -0.046582747 0.3136607 -0.13385311 -0.106921315 0.436505
0.3372215 -0.048189458 -0.059596363 0.01883759 0.39917776 0.26338503 -0.050204996 0.4072885
-0.13577063 0.36856326 0.45214733 -0.022166487 -0.10029872 -0.1527405 -0.094139114 -0.11530861
0.4011197 0.3023133 0.37416044 -0.14666106 0.36078033 -0.0032696235 0.26682055 0.2672116
0.310946 0.46089578 0.33105144 -0.06099856 0.46118206 0.0341993 0.049893245 0.27705002
0.45432553 0.4170048 0.39926624 0.3888687 0.37296242 0.31351122 0.27837503 0.3122868
-0.07354937 -0.055487327 0.030374575 -0.033040985 0.3853772 0.3008004 0.4642285 0.3919484
0.35771206 0.433287 0.3718505 0.03717672 -0.011519409 -0.11901989 0.26249516 0.25443077
0.037515234 0.40044206 -0.07207181 0.3804913 -0.0710386 0.2524898 -0.0411505 0.43459442
00000000: f7ef dc3e 0f1f 0e3d 12a3 9dbc d125 8d3e
00000010: a5dc ce3e ec76 f5bd cc5f d83e b0d0 af3e
00000020: e4d1 813d 71ce 1bbc 5e73 8c3e bfc9 9a3e
00000030: 1a15 c03e 1ef8 e2bc feec a4bc 51ac 92bd
00000040: c91c 913e 497a a1bd 9dff 423c 1f7a cb3e
00000050: a614 c63e 5766 d13e f33b b5bd d489 633d
00000060: b991 f23e 90a6 1bbd 3f8b c23e d421 093d
00000070: 597b 0dbe 6f5c 8b3e f95b 8b3c a22a c6bd
00000080: b71a 8cbd b8d5 983e e255 a53e 689d 853d
00000090: 7b8c e0bc 5013 9cbd 138f 43bd 2650 70bc
000000a0: c8ad 0abe 5d5a 733c cd0b bb3e 2aa3 2a3d
000000b0: 1324 8dbd a7f6 933e 4515 c1bd 5852 c2ba
000000c0: 8f25 ed3a 3a88 50bc eb36 50bd 9c78 a03e
000000d0: d923 ce3c 8598 993e 54e6 e9bd 58a2 883e
000000e0: 1482 c13e 5d9d d23e 4789 2c3c 8dcd 3ebd
000000f0: 2398 a03e ca10 09be 90f9 dabd 957d df3e
00000100: 4ca8 ac3e 4f62 45bd 511b 74bd 4a51 9a3c
00000110: 0761 cc3e 67da 863e c1a3 4dbd 1e88 d03e
00000120: 7507 0bbe 53b4 bc3e db7f e73e 7e96 b5bc
00000130: 6a69 cdbd 0168 1cbe 02cc c0bd ec26 ecbd
00000140: 905f cd3e cfc8 9a3e f591 bf3e 512e 16be
00000150: 33b8 b83e 2e47 56bb b49c 883e f5cf 883e
00000160: 5034 9f3e 88fa eb3e 937f a93e a0d9 79bd
00000170: 0e20 ec3e 9114 0c3d dc5c 4c3d 80d9 8d3e
00000180: 5b9d e83e a781 d53e a06c cc3e cc19 c73e
00000190: eef4 be3e 8b84 a03e 2c87 8e3e 0ee4 9f3e
000001a0: 0da1 96bd ae46 63bd 1ad4 f83c fc55 07bd
000001b0: 2950 c53e 8302 9a3e 5caf ed3e 76ad c83e
000001c0: 0926 b73e cbd7 dd3e 3063 be3e 9e46 183d
000001d0: e7bb 3cbc b3c0 f3bd c465 863e c044 823e
000001e0: 93a9 193d be06 cd3e 639a 93bd c1cf c23e
000001f0: af7c 91bd 5846 813e 6d8d 28bd 2983 de3e
