models/neural_networks/regression/2024-08-15_16-14-51/model.pt (torch, 467252 bytes, 5 tensors)

model.0.weight f4 [128, 777]
0.111314066 0.116432525 -0.11034462 0.13945054 0.1288599 0.16096148 0.11388578 0.009928027
0.07382097 0.13023892 0.15264013 0.12076238 0.15555681 0.14650293 -0.005736811 0.0064589344
0.0705811 -0.02022996 0.060576964 0.031830385 0.0678464 0.038117144 0.052213117 0.026294135
0.0656804 0.006888218 0.030162757 0.028661568 0.014191139 0.03267623 -0.025479753 0.020704543
0.028972758 0.042965095 0.017168235 0.0210015 0.026195182 0.017786883 0.031926923 0.06463765
0.041189022 0.06452272 0.044972785 0.052330196 0.0110498965 -0.018897105 0.013655264 0.020039555
-0.013094461 0.07066137 0.029576875 0.057314254 0.048753 0.06352884 0.07875934 0.015104494
0.062110364 0.0720251 0.032200254 0.021410918 0.07920601 0.047100287 0.00474884 0.005537212
0.040570706 0.020769352 0.020766683 -0.019317778 0.018746965 -0.014815018 -0.013371298 0.023557015
0.06713637 0.0560125 0.065366276 0.014435816 0.028348492 0.061191734 0.013590583 0.027210377
-0.025948465 0.023973772 0.07677853 -0.008450447 -0.006465951 0.024946323 0.031545237 0.09805901
0.08293432 0.047284227 0.013067506 -0.014021171 0.06066659 -0.008292095 -0.024476498 0.011823628
0.018829536 -0.02154794 -0.03536331 0.08939871 0.03135153 0.056854203 0.033480335 -0.025304325
0.066521116 0.073099405 0.007554706 0.025984488 0.026063541 0.024943534 0.025594836 0.018259814
0.030743316 0.04444237 0.025098491 0.045365058 0.07234623 -0.006378066 0.022488916 -0.028877933
0.009101257 0.043081135 0.026409635 0.018111594 -0.01703634 -0.03908801 0.011069672 -0.017942498
0.0037110113 -0.025644127 -0.016871754 0.005744286 0.041609835 0.0035652083 0.01106983 0.057321884
0.077779986 -0.0023686998 0.053717617 0.06202706 0.023267604 0.019859146 0.010692545 0.020557128
-0.027272789 0.01581401 0.005548475 0.0598861 0.07670033 0.001176592 -0.030710498 0.042959213
0.038208738 0.024683286 -0.025592273 -0.007907722 0.04770404 0.071194045 0.06206971 0.0128733255
0.07545229 -0.016242754 0.015471184 0.020012997 0.02713304 0.026291415 0.0025037192 0.010133084
0.009301986 -0.020690393 -0.031683777 0.011312128 0.023984402 0.035479803 0.03512264 0.046559576
0.006570691 -0.012713769 0.040759925 0.012507903 0.029837156 0.008297108 0.01162757 0.058412112
0.061043486 -0.03423192 0.023149177 -0.0034007356 -0.02829317 0.07187696 0.021105498 0.040272254
0.033603605 -0.03472616 0.045237366 0.09670805 0.010568488 0.011963641 0.055731524 0.02135399
-0.011750681 0.05102885 0.031186208 0.06624151 0.046945248 0.017512642 -0.015188595 0.0374136
-0.02520943 0.02402104 0.026416888 -0.023894973 -0.008067079 0.019208021 0.057292048 0.017838461
0.06967791 0.07095037 0.055920698 0.0056828163 0.03068275 0.042526435 0.03806354 0.06727101
0.06430534 0.030125387 0.020326268 0.04965318 0.022220647 -0.0033037788 0.012381623 0.03170143
0.07544616 0.012868026 0.025412207 0.0049366057 0.009015121 -0.0044780076 0.0650165 -0.010045594
0.007448937 0.02476392 0.06262959 -0.014729865 0.04111173 0.006029181 -0.002654042 0.022303138
0.056970514 0.07055376 0.0074136145 -0.02720875 0.0038106148 0.027359895 0.027004808 0.060385782
00000000: a1f8 e33d 2d74 ee3d 5cfc e1bd 1fcc 0e3e
00000010: daf3 033e 16d3 243e f33c e93d 2aa9 223c
00000020: 732f 973d 5a5d 053e b24d 1c3e 4452 f73d
00000030: 494a 1f3e dd04 163e dcfb bbbb 78a5 d33b
00000040: d38c 903d 4db9 a5bc 8d1f 783d 9460 023d
00000050: 0ef3 8a3d b920 1c3d 6cdd 553d cc66 d73c
00000060: 7283 863d 90b6 e13b e317 f73c aacb ea3c
00000070: f381 683c 83d7 053d eaba d0bc 939c a93c
00000080: 4758 ed3c 2bfc 2f3d 66a4 8c3c 560b ac3c
00000090: 4797 d63c ccb5 913c cec5 023d bf60 843d
000000a0: d2b5 283d 7d24 843d 6235 383d 3058 563d
000000b0: a00a 353c 1ace 9abc 54ba 5f3c fe29 a43c
000000c0: 268a 56bc e9b6 903d 344b f23c 5ac2 6a3d
000000d0: 3ab1 473d 691b 823d 944c a13d d778 773c
000000e0: 7067 7e3d e581 933d 6ae4 033d f365 af3c
000000f0: c336 a23d 3bec 403d 289c 9b3b 8071 b53b
00000100: 782d 263d 7d24 aa3c e41e aa3c 5140 9ebc
00000110: 3c93 993c b0ba 72bc 4a13 5bbc a4fa c03c
00000120: cb7e 893d 5d6d 653d c1de 853d 3384 6c3c
00000130: 193b e83c 2fa4 7a3d 09ab 5e3c 4ce8 de3c
00000140: e091 d4bc a564 c43c 103e 9d3d be73 0abc
00000150: 54e0 d3bb 3b5c cc3c 9435 013d 2ad3 c83d
00000160: 78d9 a93d 1bad 413d 1819 563c 0eb9 65bc
00000170: 887d 783d 91db 07bc f082 c8bc e4b7 413c
00000180: 6640 9a3c 4e85 b0bc 1ed9 10bd ac16 b73d
00000190: 766a 003d f4df 683d ad22 093d 044b cfbc
000001a0: 393c 883d 24b5 953d 788d f73b 6cdd d43c
000001b0: 3583 d53c 6256 cc3c 43ac d13c 9b95 953c
000001c0: 68d9 fb3c 3409 363d 5a9b cd3c b6d0 393d
000001d0: 432a 943d 18ff d0bb ad3a b83c 6a91 ecbc
000001e0: 701d 153c d875 303d 0559 d83c c45e 943c
000001f0: cb8f 8bbc c01a 20bd 925d 353c 25fc 92bc
00000200: 7034 733b a213 d2bc a236 8abc 903a bc3b
00000210: 136f 2a3d 45a6 693b 3b5e 353c 5aca 6a3d
00000220: 1d4b 9f3d 303c 1bbb 0107 5c3d 1610 7e3d
00000230: b49b be3c a6af a23c c92f 2f3c 6c67 a83c
00000240: 2f6b dfbc 628c 813c fbcf b53b 214b 753d
00000250: 1015 9d3d e037 9a3a 9594 fbbc 00f6 2f3d
00000260: c480 1c3d 9a34 ca3c e3a6 d1bc 648f 01bc
00000270: 5065 433d 2fce 913d cf3c 7e3d a4ea 523c
00000280: bb86 9a3d 860f 85bc d97a 7d3c 4cf2 a33c
00000290: 1c46 de3c 1861 d73c 7015 243b 3c05 263c
000002a0: 5b67 183c e67e a9bc d9c6 01bd 8156 393c
000002b0: f07a c43c 4553 113d c2dc 0f3d 41b5 3e3d
000002c0: f34e d73b 6a4d 50bc e1f3 263d f3ed 4c3c
000002d0: 0d6d f43c 98f0 073c 9081 3e3c 8a41 6f3d
000002e0: bc08 7a3d c536 0cbd 58a3 bd3c e0de 5ebb
000002f0: 14c7 e7bc 3a34 933d 70e5 ac3c 85f4 243d
00000300: efa3 093d 053d 0ebd d14a 393d df0e c63d
00000310: 7427 2d3c 2603 443c bd46 643d 90ee ae3c
00000320: ee85 40bc a103 513d 387a ff3c a1a9 873d
00000330: a949 403d ac76 8f3c 96d9 78bc 013f 193d
00000340: 0284 cebc c6c7 c43c 3b68 d83c 64bf c3bc
00000350: c82b 04bc 245a 9d3c 11ab 6a3d f721 923c
00000360: 4bb3 8e3d 6d4e 913d 1a0d 653d eb36 ba3b
00000370: 645a fb3c 3330 2e3d 84e8 1b3d 62c5 893d
00000380: 85b2 833d 84c9 f63c 4683 a63c 2261 4b3d
00000390: 1308 b63c 3684 58bb 4adc 4a3c 5cd9 013d
000003a0: 8483 9a3d 6ad4 523c 432d d03c 40c3 a13b
000003b0: 28b4 133c 40bc 92bb 5f27 853d 4696 24bc
000003c0: 3616 f43b b4dd ca3c f143 803d 8855 71bc
000003d0: c664 283d 7090 c53b 70ef 2dbb 12b5 b63c
000003e0: ea59 693d 7d7e 903d e8ed f23b e2e4 debc
000003f0: 82bb 793b dc21 e03c 3039 dd3c 1557 773d

model.0.bias f4 [128]
0.17178342 0.13906017 0.121396355 0.13276292 0.15329333 0.14589417 0.14929219 0.17736101
0.16720666 0.17102735 0.16581358 0.16402255 0.16167659 0.1337984 0.11166303 0.14285754
0.17118803 0.16273464 0.13254489 0.15551983 0.13599929 0.12925789 0.08807367 0.14977124
0.08874894 0.18998554 0.112614825 0.1690519 0.13353197 0.13064212 0.15633015 0.13786855
0.12446072 0.16691023 0.16588192 0.12314192 0.13189399 0.16691858 0.1399503 0.19161764
0.15859911 0.17667067 0.13233013 0.16069686 0.15387759 0.10796613 0.18935707 0.18778619
0.158855 0.18415982 0.19539303 0.18262197 0.16417687 0.18232729 0.13051029 0.17627268
0.1257711 0.14480372 0.13775493 0.1380703 0.10953297 0.18944868 0.16283008 0.11344877
0.158597 0.15968338 0.1915755 0.15285698 0.16912806 0.1359793 0.17141278 0.16245721
0.18305862 0.1373272 0.18084565 0.13916793 0.1900981 0.18942985 0.15590236 0.17232178
0.18759392 0.13518144 0.15979843 0.16827376 0.15822029 0.13152824 0.14099857 0.14535338
0.19244765 0.12698168 0.12839971 0.1791901 0.14955302 0.1253515 0.17850676 0.13421887
0.14998625 0.13098064 0.1416252 0.17243342 0.12017705 0.0982704 0.14445238 0.13017282
0.1397385 0.14400297 0.14495316 0.15937196 0.16517013 0.17445663 0.15600565 0.17530803
0.12841974 0.14041805 0.17997271 0.089074425 0.17301565 0.09161664 0.19273788 0.18025278
0.13319206 0.12602532 0.15239652 0.15385653 0.14906463 0.12471956 0.16757232 0.14576304
00000000: fee7 2f3e ca65 0e3e a79e f83d 01f3 073e
00000010: edf8 1c3e 4865 153e 0de0 183e 209e 353e
00000020: 3938 2b3e cb21 2f3e 09cb 293e 87f5 273e
00000030: 8c8e 253e 7302 093e 96af e43d 3f49 123e
00000040: ea4b 2f3e e9a3 263e d9b9 073e 9740 1f3e
00000050: 6643 0b3e 2e5c 043e f85f b43d a25d 193e
00000060: 01c2 b53d 928b 423e 9aa2 e63d f11b 2d3e
00000070: 9bbc 083e 0cc7 053e 0315 203e 6a2d 0d3e
00000080: 43e5 fe3d 84ea 2a3e f3dc 293e d531 fc3d
00000090: 380f 073e b4ec 2a3e 224f 0f3e 6a37 443e
000000a0: ce67 223e 28e9 343e 8d81 073e b88d 243e
000000b0: 1692 1d3e 591d dd3d d2e6 413e 064b 403e
000000c0: e3aa 223e 6494 3c3e 1c15 483e 4101 3b3e
000000d0: fb1d 283e 01b4 3a3e 7da4 053e d380 343e
000000e0: 24ca 003e 6d47 143e a10f 0d3e 4d62 0d3e
000000f0: d252 e03d d6fe 413e eebc 263e d457 e83d
00000100: 4167 223e 0a84 233e 5e2c 443e 8a86 1c3e
00000110: e82f 2d3e 283e 0b3e d586 2f3e 2f5b 263e
00000120: b873 3b3e 809f 0c3e 9a2f 393e 0a82 0e3e
00000130: 14a9 423e e6f9 413e dea4 1f3e 1f75 303e
00000140: 9f18 403e 016d 0a3e 33a2 233e f54f 2c3e
00000150: 8004 223e 57af 063e ee61 103e 84d7 143e
00000160: ff10 453e 7c07 023e 377b 033e 9c7d 373e
00000170: 6d24 193e 255c 003e 7aca 363e ac70 093e
00000180: ff95 193e ca1f 063e 3206 113e 6392 303e
00000190: 631f f63d fe41 c93d 53eb 133e 064c 053e
000001a0: 9c17 0f3e 8475 133e 9a6e 143e 6732 233e
000001b0: 5c22 293e c2a4 323e f2bf 1f3e f383 333e
000001c0: 7780 033e c0c9 0f3e c44a 383e a76c b63d
000001d0: 042b 313e 81a1 bb3d 145d 453e 2f94 383e
000001e0: 8063 083e c80c 013e d50d 1c3e 918c 1d3e
000001f0: 66a4 183e f86c ff3d 1498 2b3e e842 153e

model.2.weight f4 [128, 128]
0.06908631 0.19712175 0.080326825 0.13686891 0.12650438 0.068186596 0.15884341 0.047538668
0.15852188 0.04931228 0.13660559 0.18329187 0.1450393 0.18752015 0.11429891 0.11534956
0.13672602 0.15283522 0.072757676 0.10109058 0.06447178 0.16028306 0.10004565 0.12756474
0.17586033 0.12913056 0.101318695 0.044963058 0.09940523 0.17686665 0.07296906 0.15278867
0.05317815 0.094132796 0.22769076 0.04370934 0.16672964 0.05208987 0.051010642 0.22210665
0.050291654 0.2234736 0.049309127 0.15978555 0.22296423 0.09001748 0.09769596 0.12547041
0.08533942 0.21201019 0.058875915 0.08158789 0.18870945 0.19324112 0.12339701 0.18325506
0.21152055 0.18130116 0.116217986 0.16665229 0.13780753 0.052829105 0.122991435 0.15057471
0.13905033 0.12185589 0.21639635 0.06322048 0.13774407 0.062228944 0.09071931 0.1415214
0.20756379 0.15415142 0.21139586 0.08686165 0.11683888 0.17583276 0.11672184 0.070410945
0.21411473 0.07049013 0.07355451 0.17197922 0.15856378 0.13990021 0.07004601 0.14003634
0.050875958 0.18406785 0.17853731 0.103302374 0.12650141 0.05953439 0.14593759 0.116188966
0.14104974 0.19134039 0.1963325 0.15694062 0.10150068 0.17677398 0.19663922 0.16873309
0.055890433 0.20739767 0.050816875 0.18793209 0.21179482 0.16834962 0.05386035 0.069373794
0.19464535 0.06923941 0.19893521 0.07523843 0.15489525 0.13021736 0.04544325 0.057664778
0.1074442 0.18976532 0.10475823 0.13607515 0.19346422 0.17861538 0.058652718 0.20316854
0.16161603 0.16599989 0.21789812 0.092278115 0.106306285 0.14321253 0.06503588 0.21805075
0.14305672 0.082611956 0.09590465 0.121564575 0.13732307 0.18770513 0.14797284 0.11053828
0.17650104 0.115565404 0.17623167 0.14373694 0.06508587 0.21892369 0.12451446 0.19341177
0.16596466 0.20137717 0.11387096 0.11814954 0.06570553 0.12515478 0.16250315 0.11806316
0.057251003 0.12230729 0.19528717 0.21804534 0.21932046 0.17091507 0.058170766 0.069616355
0.11799742 0.076958746 0.11366107 0.06514594 0.087283775 0.193382 0.121268265 0.15908979
0.10587694 0.119202465 0.07489446 0.08974857 0.17163478 0.121493444 0.09548192 0.09522713
0.13251992 0.06861399 0.14084852 0.10528738 0.21222176 0.09032711 0.08530942 0.0898743
0.07332388 0.08616799 0.18623993 0.20864147 0.06478948 0.10969344 0.15101911 0.21126273
0.19671516 0.16561481 0.10910319 0.10784207 0.1642242 0.15724257 0.20140342 0.15035503
0.18357725 0.056434248 0.14307292 0.094876684 0.13224788 0.056219686 0.15654823 0.2219777
0.11615044 0.10061 0.22638159 0.18406013 0.18873435 0.105268426 0.18634005 0.20831463
0.09285467 0.08314787 0.2226542 0.0776484 0.17459236 0.19475338 0.120940804 0.20452906
0.14554691 0.08546183 0.18498382 0.083007425 0.2259542 0.13783044 0.22494426 0.14943387
0.09714546 0.059240244 0.1769208 0.09843287 0.17311189 0.18046513 0.16696721 0.08652851
0.11176777 0.14621395 0.19026211 0.10150135 0.06509021 0.15632848 0.2086909 0.18843319
00000000: 207d 8d3d 49da 493e 6482 a43d 5d27 0c3e
00000010: 5d8a 013e 6aa5 8b3d d9a7 223e e8b7 423d
00000020: 8f53 223e acfb 493d 56e2 0b3e ddb0 3b3e
00000030: 2f85 143e 4805 403e 8c15 ea3d 643c ec3d
00000040: e801 0c3e d680 1c3e fa01 953d 9408 cf3d
00000050: c809 843d 3e21 243e bce4 cc3d 55a0 023e
00000060: bb14 343e cd3a 043e 2d80 cf3d 2f2b 383d
00000070: f894 cb3d 881c 353e cd70 953d a274 1c3e
00000080: 55d1 593d b2c8 c03d c427 693e 9108 333d
00000090: 2dbb 2a3e 305c 553d 89f0 503d ed6f 633e
000000a0: 9ffe 4d3d 43d6 643e 5ef8 493d d39e 233e
000000b0: bc50 643e 165b b83d d214 c83d 517b 003e
000000c0: 6fc6 ae3d 3319 593e df27 713d 8d17 a73d
000000d0: 0d3d 413e 00e1 453e 92b7 fc3d 37a7 3b3e
000000e0: d898 583e 03a7 393e b203 ee3d e6a6 2a3e
000000f0: 6b1d 0d3e 5563 583d efe2 fb3d 4230 1a3e
00000100: 3663 0e3e 958f f93d 0197 5d3e bd79 813d
00000110: c80c 0d3e c7e3 7e3d 0ccb b93d fcea 103e
00000120: 9a8b 543e dfd9 1d3e 2878 583e 85e4 b13d
00000130: 3949 ef3d 810d 343e dc0b ef3d 9d33 903d
00000140: e440 5b3e 215d 903d bfa3 963d 521b 303e
00000150: 8b5e 223e 0042 0f3e 4874 8f3d b065 0f3e
00000160: 4f63 503d 487c 3c3e 7cd2 363e 3290 d33d
00000170: 9689 013e 55da 733d aa70 153e 7bf4 ed3d
00000180: 586f 103e bcee 433e 630b 493e 0bb5 203e
00000190: 97df cf3d 3d04 353e cb5b 493e 5ec8 2c3e
000001a0: 5eed 643d 0e60 543e 5b25 503d 4571 403e
000001b0: bee0 583e d863 2c3e ac9c 5c3d d913 8e3d
000001c0: 1c51 473e 64cd 8d3d acb5 4b3e 9b16 9a3d
000001d0: dc9c 1e3e b357 053e b422 3a3d e731 6c3d
000001e0: b40b dc3d d751 423e 7c8b d63d 4957 0b3e
000001f0: 7c1b 463e f3e6 363e d53d 703d 6a0b 503e
00000200: ac7e 253e e0fb 293e af20 5f3e 4ffc bc3d
00000210: 1cb7 d93d 4ea6 123e 8831 853d b248 5f3e
00000220: 767d 123e 7530 a93d a869 c43d d9f6 f83d
00000230: 6b9e 0c3e c635 403e 3186 173e e561 e23d
00000240: b0bc 343e 8ead ec3d 1376 343e c72f 133e
00000250: be4b 853d 882d 603e 7001 ff3d bc0d 463e
00000260: a4f2 293e d135 4e3e 2e35 e93d 63f8 f13d
00000270: 9f90 863d 9328 003e 3a67 263e 19cb f13d
00000280: 0780 6a3d 3f7c fa3d 5cf9 473e 4747 5f3e
00000290: 8b95 603e 5c04 2f3e 7844 6e3d 0593 8e3d
000002a0: a2a8 f13d 8c9c 9d3d 23c7 e83d 3c6b 853d
000002b0: d6c1 b23d ee05 463e 7f5b f83d 6fe8 223e
000002c0: 02d6 d83d 6c20 f43d 4462 993d 19ce b73d
000002d0: 07c1 2f3e 8ed1 f83d 068c c33d 7106 c33d
000002e0: 4db3 073e 7e85 8c3d 983a 103e e9a0 d73d
000002f0: a950 593e 6bfd b83d b5b6 ae3d 0410 b83d
00000300: d52a 963d d878 b03d aeb5 3e3e 1ca6 553e
00000310: 59b0 843d f4a6 e03d c1a4 1a3e 4255 583e
00000320: b36f 493e ee96 293e 7e71 df3d 4edc dc3d
00000330: 642a 283e 3204 213e b33c 4e3e abf6 193e
00000340: adfb 3b3e 9927 673d b581 123e b54e c23d
00000350: fd6b 073e 9d46 663d 2e4e 203e 1f4e 633e
00000360: 48e0 ed3d 9e0c ce3d 93d0 673e 427a 3c3e
00000370: 9443 413e f996 d73d edcf 3e3e 6e50 553e
00000380: 972a be3d 6e49 aa3d 76ff 633e 2006 9f3d
00000390: 57c8 323e 6e6d 473e d0af f73d 1170 513e
000003a0: 400a 153e 9d06 af3d 666c 3d3e ccff a93d
000003b0: 8a60 673e 6c23 0d3e ca57 663e 3105 193e
000003c0: 33f4 c63d e6a5 723d ba2a 353e 2c97 c93d
000003d0: 3e44 313e dacb 383e 74f9 2a3e dc35 b13d
000003e0: 80e6 e43d 1cb9 153e 12d4 423e f1df cf3d
000003f0: 044e 853d 9314 203e 11b3 553e a1f4 403e

model.2.bias f4 [128]
0.13697165 0.10365568 -0.040794015 0.10523987 -0.021538913 0.0013413733 0.19660173 0.1576712
-0.07771979 0.17182297 -0.08778623 0.13537993 -0.051422194 0.00095702225 -0.021670274 0.111149795
0.20345446 -0.075233445 0.013429727 0.07885408 -0.07967105 0.19883282 -0.0077818115 -0.06577629
0.12715717 0.06313305 0.0010160517 0.081637144 0.028473314 0.027046094 0.08983994 0.16175851
-0.027059015 0.09284643 -0.03263054 -0.050106704 0.1061796 0.0990859 -0.054492954 -0.012026117
0.0124789355 0.1516128 0.05776004 -0.08778821 0.096280344 -0.085803255 -0.0752708 0.1520468
0.026490549 0.020133289 0.020824157 -0.036081173 -0.06588654 0.10982157 0.10242879 -0.039463628
0.16078779 0.04078005 0.104539156 0.106517285 -0.042536408 0.01747812 0.07526139 0.0012397844
0.14753385 0.20537278 0.16325063 0.04950009 0.086701624 0.16355294 0.10768866 -0.047983672
-0.08382698 0.20232692 -0.022079956 0.030376943 -0.036584295 0.08545751 0.13564569 0.13228174
0.04973565 -0.039588723 0.050875876 0.13198555 0.09658033 -0.004501701 -0.056485485 0.14998585
-0.021195352 0.1659026 -0.09201571 -0.04678966 -0.0023487161 0.05489828 -0.07352366 -0.0056950985
0.06884682 0.07690603 0.031088833 0.15537083 0.2043189 -0.019117944 0.17236917 0.05363207
0.15591231 -0.01824845 0.14641084 0.05038849 0.048967205 0.00091544766 0.13832478 0.04855106
0.08520213 0.13119672 -0.07537496 0.12916264 0.19792515 0.14223062 0.11111923 -0.03738116
0.18899716 -0.065994285 0.13723303 -0.07676886 -0.07014845 0.0845825 -0.05539991 -0.01729884
00000000: 4c42 0c3e 6e49 d43d a017 27bd 0088 d73d
00000010: 6072 b0bc 05d1 af3a f751 493e 8f74 213e
00000020: 8e2b 9fbd 5cf2 2f3e 44c9 b3bd 09a1 0a3e
00000030: 14a0 52bd ade0 7a3a dc85 b1bc 81a2 e33d
00000040: 5e56 503e fe13 9abd 5c08 5c3c 3f7e a13d
00000050: 932a a3bd d59a 4b3e 91fe febb b8b5 86bd
00000060: 7d35 023e e74b 813d 0a2d 853a 6031 a73d
00000070: de40 e93c c58f dd3c 01fe b73d 06a4 253e
00000080: deaa ddbc 4526 be3d 9aa7 05bd b03c 4dbd
00000090: b174 d93d 8ced ca3d 0134 5fbd 3109 45bc
000000a0: 7374 4c3c 6340 1b3e cb95 6c3d 4eca b3bd
000000b0: a12e c53d 9eb9 afbd 9427 9abd 28b2 1b3e
000000c0: b502 d93c 91ee a43c 6c97 aa3c dac9 13bd
000000d0: 86ef 86bd 22ea e03d 2fc6 d13d 9da4 21bd
000000e0: 8ea5 243e fb08 273d a018 d63d bc25 da3d
000000f0: a83a 2ebd 462e 8f3c a522 9a3d 4380 a23a
00000100: 1d13 173e 3e4d 523e 2c2b 273e 9bc0 4a3d
00000110: 9f90 b13d 6c7a 273e df8b dc3d 878a 44bd
00000120: 7bad abbd ca2e 4f3e 06e1 b4bc 11d9 f83c
00000130: 6ad9 15bd 5904 af3d b4e6 0a3e dd74 073e
00000140: 9cb7 4b3d c927 22bd 3963 503d 3827 073e
00000150: e8cb c53d 0183 93bb 535d 67bd e495 193e
00000160: e0a1 adbc 5fe2 293e bc72 bcbd 84a6 3fbd
00000170: ebec 19bb 05dd 603d 9393 96bd f39d babb
00000180: 90ff 8c3d e980 9d3d 02ae fe3c 8819 1f3e
00000190: f938 513e 3c9d 9cbc 8b81 303e 4dad 5b3d
000001a0: 7aa7 1f3e c67d 95bc b9ec 153e 2964 4e3d
000001b0: d691 483d a7fa 6f3a 03a5 0d3e 7add 463d
000001c0: 747e ae3d 6f58 063e 305e 9abd 3643 043e
000001d0: e4ac 4a3e e7a4 113e 7b92 e33d fd1c 19bd
000001e0: 7988 413e 0328 87bd d186 0c3e fe38 9dbd
000001f0: fea9 8fbd 9739 ad3d 04eb 62bd 4cb6 8dbc

model.4.weight f4 [1, 128]
0.14882356 0.18124242 -0.023223143 0.17000851 -0.04102818 -0.05807235 0.20751911 0.20646992
-0.009244945 0.22616777 -0.017365161 0.22044739 -0.029963626 -0.04834793 -0.023690097 0.17965002
0.22182843 -0.038922478 -0.06632278 0.20749064 -0.01600292 0.17669003 -0.011726866 -0.06694773
0.18946648 -0.061747614 -0.05673382 0.16339917 -0.030555755 -0.04610338 0.23771784 0.17316294
-0.055939447 0.24451365 -0.0030939165 0.0006759141 0.16098793 0.17848858 0.037855424 -0.063032374
-0.07202627 0.14817575 -0.002078481 -0.054528445 0.21119472 -0.050362587 -0.064174086 0.22078025
0.18695138 -0.050568752 0.00067177584 -0.068513475 -0.042967103 0.18976824 0.21298783 0.035273697
0.1825943 -0.062055606 0.173162 0.20222574 -0.028466508 -0.009016061 0.2267988 -0.05322404
0.17470634 0.17811127 0.23601729 -0.06302452 0.21261771 0.16659714 0.24669641 -0.07328003
0.051514156 0.21434473 -0.0027138386 -0.027249223 -0.071983464 0.20705265 0.09078716 0.16664818
-0.03635842 -0.014936529 -0.042987246 0.22053891 0.2146356 -0.050345376 -0.016633078 0.18500316
-0.025422094 0.19262134 -0.05287509 -0.04007427 -0.041656423 0.0010017381 -0.0029398866 -0.024383076
0.19913466 0.20340052 -0.037652124 0.2173298 0.21418989 -0.026832702 0.22626163 0.23407975
0.16829923 -0.022370696 0.2466332 -0.024822699 -0.065633096 -0.06336575 0.22628166 0.15037957
0.2039091 0.17807446 0.0036000812 0.16785656 0.22436006 0.16197181 0.2180592 -0.03446396
0.2441076 0.06395029 0.20669025 -0.068043165 -0.03327905 0.22863963 -0.0055030244 -0.032223348
00000000: 3465 183e 9d97 393e 763e bebc b616 2e3e
00000010: 2a0d 28bd 46dd 6dbd e47f 543e da6c 533e
00000020: 1c78 17bc 8698 673e 6241 8ebc f6bc 613e
00000030: 4776 f5bc 7b08 46bd bc11 c2bc 2df6 373e
00000040: fe26 633e 2d6d 1fbd 3dd4 87bd 6d78 543e
00000050: 8e18 83bc 3bee 343e 0a22 40bc e41b 89bd
00000060: 8003 423e 11eb 7cbd b961 68bd 1d52 273e
00000070: 1050 fabc e6d6 3cbd 4e6c 733e a051 313e
00000080: c320 65bd c961 7a3e 4ec3 4abb d42f 313a
00000090: 05da 243e b6c5 363e 4a0e 1b3d 1e17 81bd
000000a0: 8282 93bd 62bb 173e 2037 08bb 3859 5fbd
000000b0: 6e43 583e 0049 4ebd b46d 83bd 3814 623e
000000c0: 2f70 3f3e 2e21 4fbd 1d1a 303a cb50 8cbd
000000d0: 46fe 2fbd 9b52 423e 7b19 5a3e 277b 103d
000000e0: 00fa 3a3e 052e 7ebd 6151 313e 4414 4f3e
000000f0: 9832 e9bc 1ab8 13bc f23d 683e 7301 5abd
00000100: 38e6 323e cd62 363e 84ae 713e 0013 81bd
00000110: 75b8 593e 7198 2a3e fc9d 7c3e d713 96bd
00000120: 8200 533d 2f7d 5b3e a8da 31bb c339 dfbc
00000130: 116c 93bd 9c05 543e 9eee b93d d2a5 2a3e
00000140: 91ec 14bd 58b8 74bc 6513 30bd f4d4 613e
00000150: 6fc9 5b3e f436 4ebd 1842 88bc 7871 3d3e
00000160: ff41 d0bc 873e 453e 8d93 58bd eb24 24bd
00000170: ed9f 2abd c14c 833a 1dab 40bb 04bf c7bc
00000180: f5e9 4b3e 3a48 503e 1d39 1abd b48b 5e3e
00000190: 9854 5b3e 41d0 dbbc 21b1 673e 9ab2 6f3e
000001a0: a256 2c3e c042 b7bc 6a8d 7c3e f958 cbbc
000001b0: a56a 86bd e7c5 81bd 61b6 673e 1afd 193e
000001c0: 8ccd 503e 2759 363e 57ef 6b3b 97e2 2b3e
000001d0: a5be 653e f0db 253e e94a 5f3e 152a 0dbd
000001e0: 58f7 793e 5ff8 823d 9ca6 533e 375a 8bbd
000001f0: 9d4f 08bd 8220 6a3e b752 b4bb a1fc 03bd
