models/neural_networks/regression/2024-08-17_21-54-03/model.pt (torch, 410932 bytes, 5 tensors)

model.0.weight f4 [128, 667]
0.19691786 0.042023387 -0.08175528 0.08143566 -0.061952174 0.025285823 -0.051102575 -0.04404776
-0.22949754 0.13729037 0.14695914 0.09915872 -0.24633542 -0.056054328 -0.09334526 -0.043253057
0.025261678 -0.08848774 0.040278614 -0.024361005 -0.06725843 -0.03747883 0.035366505 -0.053047296
-0.27472043 0.040222406 -0.07387092 -0.018652845 -0.24797416 -0.14957255 0.06505413 0.07493594
0.0018388554 0.07826252 -0.11511678 -0.034619965 -0.029050745 0.04883471 -0.06515574 0.13877098
-0.041706055 0.018330056 -0.09593578 0.033608586 -0.1657047 0.005825296 -0.20801708 0.08534525
-0.24498369 0.00366655 0.008253664 0.026351318 -0.079125196 0.002690889 -0.05369041 -0.2215879
0.072319984 -0.038176738 0.3415577 -0.1881942 0.07819593 -0.035435457 0.016748652 -0.12638265
-0.13334501 -0.008695684 -0.06042111 -0.08083248 0.2665844 0.06531486 -0.059567366 0.037416577
0.027854815 0.090570375 -0.07921188 0.022990093 -0.0077961423 -0.2688038 -0.06304107 0.010841727
-0.053283844 0.22026962 0.15780021 -0.02913303 -0.09096378 -0.026195118 -0.18412612 -0.08870025
0.003945788 -0.021544889 0.0335374 -0.12819585 -0.08686729 0.06712668 -0.045875706 -0.047852226
-0.045265716 0.363374 0.4426368 -0.014786571 -0.0610693 0.394264 -0.1057155 -0.12948182
0.07967149 -0.015432388 -0.2029917 0.0027171671 0.036556304 -0.11251487 0.00047854334 0.05570288
-0.044154257 0.25033617 0.09186976 -0.011687122 -0.18030821 0.07388182 -0.0902389 -0.04284768
-0.0033011436 -0.0761801 0.002472803 0.16068791 -0.060745943 -0.05130573 -0.049159646 -0.037708633
0.066397175 -0.069669366 0.22075744 0.023366563 0.05293516 0.09860786 0.010308627 0.05707591
-0.18398136 -0.13666697 -0.02407035 0.08532604 -0.030636348 0.21848334 -0.13375688 -0.050955165
0.063807905 -0.16754341 -0.08309277 -0.003297463 -0.15984747 -0.016273983 -0.008445166 -0.08227012
-0.08763518 0.02657947 -0.19213486 0.07843912 -0.030480502 -0.06147986 -0.018050062 0.21658815
-0.061316665 -0.14657675 -0.1911194 0.049773306 0.01080808 0.054673035 -0.07544795 -0.041824568
0.050410107 -0.0013607889 0.15727714 0.027028661 -0.10097923 -0.094844565 0.0075362995 0.057728
-0.08025894 -0.14855187 0.057227567 0.26933545 0.34116837 -9.470433e-05 -0.14912394 0.04013474
0.22173727 0.11760975 0.34902814 -0.1740301 -0.13155408 -0.07292927 0.15025195 0.29116458
-0.122094 -0.24969067 -0.08918489 0.049603984 0.050055265 -0.050175626 -0.07831646 -0.18268551
0.24707511 0.0043342933 -0.026245663 0.08907834 0.38531485 -0.07249318 0.01182539 0.05004038
-0.15668909 0.090192676 0.004449971 -0.14873613 0.024493203 -0.12454155 -0.055193976 -0.23339781
0.064660236 -0.15228717 -0.09197293 0.09302905 0.25484955 0.37874117 -0.058316544 -0.20965105
-0.029897146 -0.05667995 -0.1013588 0.041676357 -0.006394379 -0.030195944 -0.07930773 -0.113128245
0.005264364 0.007899083 0.076372 -0.105534405 -0.07137997 0.29981488 0.07676342 -0.031517915
0.048492238 -0.10715889 -0.27723548 -0.08326148 -0.19449872 0.038167745 -0.0073427036 -0.048824914
0.19745544 0.011585966 -0.11508336 -0.19047318 -0.025920615 -0.036077466 0.018943459 0.054106597
00000000: d6a4 493e b720 2c3d 506f a7bd bdc7 a63d
00000010: 90c1 7dbd 3724 cf3c ef50 51bd 6d6b 34bd
00000020: 6701 6bbe d995 0c3e 757c 163e ba13 cb3d
00000030: 5a3f 7cbe 3999 65bd cd2b bfbd 1e2a 31bd
00000040: 94f1 ce3c 0f39 b5bd 30fb 243d bb90 c7bc
00000050: cabe 89bd 6783 19bd 78dc 103d 1f48 59bd
00000060: 28a8 8cbe 40c0 243d a349 97bd dacd 98bc
00000070: f0ec 7dbe 8c29 19be 1a3b 853d 0478 993d
00000080: c005 f13a 1a48 a03d 59c2 ebbd aacd 0dbd
00000090: d4fb edbc e806 483d 5f70 85bd fb19 0e3e
000000a0: f8d3 2abd ea28 963c fa79 c4bd 28a9 093d
000000b0: 7eae 29be 20e2 be3b 6e02 55be 7ec9 ae3d
000000c0: 01dd 7abe 804a 703b 603a 073c b8de d73c
000000d0: 640c a2bd a059 303b 7aea 5bbd f0e7 62be
000000e0: 801c 943d 365f 1cbd a7e0 ae3e fbb5 40be
000000f0: 3025 a03d c524 11bd 7834 893c 746a 01be
00000100: 988b 08be 5878 0ebc 207c 77bd 808b a5bd
00000110: c07d 883e ccc3 853d e9fc 73bd 2042 193d
00000120: c82f e43c f67c b93d d739 a2bd b855 bc3c
00000130: c876 ffbb a7a0 89be ad1b 81bd 80a1 313c
00000140: 2940 5abd 5c8e 613e 6196 213e 64a8 eebc
00000150: 384b babd 2597 d6bc 8f8b 3cbe 7aa8 b5bd
00000160: ab4b 813b e87e b0bc 835e 093d c645 03be
00000170: 7ae7 b1bd b679 893d 2ae8 3bbd b200 44bd
00000180: 8b68 39bd 280c ba3e 4aa1 e23e 6043 72bc
00000190: cd23 7abd f9dc c93e 5e81 d8bd e296 04be
000001a0: ce2a a33d 20d8 7cbc 0edd 4fbe 8012 323b
000001b0: 10bc 153d 326e e6bd 00e5 fa39 b428 643d
000001c0: 18db 34bd 102c 803e 3626 bc3d 587b 3fbc
000001d0: b7a2 38be 5a4f 973d 2ccf b8bd 0d81 2fbd
000001e0: 0058 58bb 5004 9cbd c00e 223b 5f8b 243e
000001f0: bdd0 78bd f525 52bd a05b 49bd 5e74 1abd
00000200: 3efb 873d d0ae 8ebd 3d0e 623e 3c6b bf3c
00000210: 8ad2 583d ebf2 c93d 84e5 283c 6ec8 693d
00000220: 9c65 3cbe 6df2 0bbe 2f2f c5bc 6bbf ae3d
00000230: 14f9 fabc 19ba 5f3e 90f7 08be 5db6 50bd
00000240: b8ad 823d 8090 2bbe 8b2c aabd 401a 58bb
00000250: 0eaf 23be 0451 85bc 985d 0abc 3d7d a8bd
00000260: 137a b3bd 30bd d93c 00bf 44be b0a4 a03d
00000270: 3fb2 f9bc 4ed2 7bbd b9dd 93bc 49c9 5d3e
00000280: 2f27 7bbd 3718 16be ceb4 43be 18df 4b3d
00000290: 6014 313c d5f0 5f3d 7484 9abd 3d50 2bbd
000002a0: d47a 4e3d 805c b2ba 420d 213e 366b dd3c
000002b0: 33ce cebd de3d c2bd 10f3 f63b 3274 6c3d
000002c0: cd5e a4bd fb1d 18be 7467 6a3d 56e6 893e
000002d0: 9fad ae3e 009c c6b8 f2b3 18be 5364 243d
000002e0: 180f 633e 61dd f03d d1b3 b23e f234 32be
000002f0: 1db6 06be f15b 95bd a6db 193e 8613 953e
00000300: 6b0c fabd e9ae 7fbe 91a6 b6bd 8c2d 4b3d
00000310: c006 4d3d f584 4dbd 6164 a0bd e911 3bbe
00000320: 4201 7d3e b006 8e3b 2501 d7bc b46e b63d
00000330: fd47 c53e 4e77 94bd 48bf 413c 24f7 4c3d
00000340: 1b73 20be f0b6 b83d 10d1 913b 494e 18be
00000350: f8a5 c83c a40f ffbd 1413 62bd d6ff 6ebe
00000360: 966c 843d 2bf1 1bbe 4e5c bcbd 0486 be3d
00000370: a47b 823e 5dea c13e 54dd 6ebd c4ae 56be
00000380: dcea f4bc 3c29 68bd 3495 cfbd d4b4 2a3d
00000390: f087 d1bb 7c5d f7bc 176c a2bd c8af e7bd
000003a0: b080 ac3b 286b 013c ec68 9c3d 6c22 d8bd
000003b0: a92f 92bd 5681 993e 2436 9d3d ee18 01bd
000003c0: cc9f 463d 1f76 dbbd cff1 8dbe ff84 aabd
000003d0: ac2a 47be c855 1c3d 109b f0bb a2fc 47bd
000003e0: c231 4a3e 10d3 3d3c d3b0 ebbd 670b 43be
000003f0: 7857 d4bc f7c5 13bd 502f 9b3c e19e 5d3d

model.0.bias f4 [128]
0.02523733 0.041246496 0.075943574 0.14072224 0.14944156 0.12596892 -0.0017433923 0.05502992
0.17578444 0.12359595 0.09205912 0.028921666 0.16256775 -0.04981097 0.08977785 0.15241893
0.11364379 0.17213479 0.097770005 -0.0023389068 0.068639554 -0.09575826 0.02827995 0.06464025
0.14195396 0.0470691 -0.10004153 0.018341076 0.11895251 0.15992233 0.10786083 0.08746868
0.11620886 0.16263558 0.1605253 -0.08532302 0.17511536 0.09875491 0.039873943 0.04512825
0.12778635 0.16749987 0.1594938 0.062289625 0.070536695 0.02223079 0.082859635 0.04960453
0.15005055 0.13244711 0.10270382 0.09041821 0.046561327 -0.039310116 0.0934103 0.1258969
0.045443483 0.14493066 0.08710473 0.0034424816 0.0008527334 0.09474436 0.1064969 -0.05182583
0.12850977 0.1636908 0.1042342 0.05508193 0.12072813 0.081882454 0.0817575 -0.057872657
0.10984382 0.087954685 0.11534748 0.12752534 0.15310417 0.068386376 0.08531705 0.0118033625
0.16970997 -0.09934544 0.06799551 0.12826751 -0.010902873 -0.12124537 -0.0005585805 0.12455705
-0.11775709 0.15155141 0.0500173 0.13218296 0.07309495 0.112807706 0.113732025 0.020465475
0.115150005 0.06437153 0.11154093 0.05180871 0.15419374 0.079346344 0.07423146 0.14565513
0.1422022 0.03386069 -0.015446489 0.109671906 0.09148754 0.0024316155 0.10588162 0.10716699
0.09740873 0.0790489 0.13076 0.10754876 0.10829193 0.054736525 0.13057145 0.04575023
0.15023194 0.10143395 -0.024960816 0.15357852 0.086624816 0.030164516 0.06915631 0.10493503
00000000: 84be ce3c 16f2 283d 4e88 9b3d 7e19 103e
00000010: 3507 193e fffd 003e 8a82 e4ba 0e67 613d
00000020: d600 343e e01f fd3d 7e89 bc3d 21ed ec3c
00000030: 2978 263e 9606 4cbd 73dd b73d b513 1c3e
00000040: 13be e83d 1a44 303e a43b c83d 5848 19bb
00000050: e592 8c3d e81c c4bd 5bab e73c 1b62 843d
00000060: 615c 113e 87cb 403d 93e2 ccbd 0640 963c
00000070: 609d f33d aec2 233e 24e6 dc3d c822 b33d
00000080: e9fe ed3d f189 263e bf60 243e d6bd aebd
00000090: 7151 333e 0440 ca3d dc52 233d 66d8 383d
000000a0: 6dda 023e 1685 2b3e 5852 233e 6823 7f3d
000000b0: 8b75 903d 591d b63c 50b2 a93d 1f2e 4b3d
000000c0: daa6 193e 37a0 073e 6156 d23d 2f2d b93d
000000d0: 17b7 3e3d a503 21bd e64d bf3d 1eeb 003e
000000e0: f222 3a3d b468 143e f763 b23d 429b 613b
000000f0: f889 5f3a 5509 c23d 0c1b da3d 5247 54bd
00000100: 1198 033e 909e 273e be78 d53d 979d 613d
00000110: 4f40 f73d fdb1 a73d 7a70 a73d e10b 6dbd
00000120: ccf5 e03d 9621 b43d 4d3b ec3d 0196 023e
00000130: 57c7 1c3e 280e 8c3d b5ba ae3d e462 413c
00000140: 73c8 2d3e 9f75 cbbd 3b41 8b3d 8f58 033e
00000150: f7a1 32bc 7e4f f8bd b46d 12ba c417 ff3d
00000160: a12a f1bd 4b30 1b3e f1de 4c3d f85a 073e
00000170: ceb2 953d ba07 e73d 56ec e83d 36a7 a73c
00000180: c4d3 eb3d 39d5 833d 926f e43d 5f35 543d
00000190: f7e4 1d3e 5680 a23d aa06 983d 9e26 153e
000001a0: 749d 113e 82b1 0a3d 4513 7dbc aa9b e03d
000001b0: d25d bb3d bd5b 1f3b 76d8 d83d 5e7a db3d
000001c0: 3a7e c73d 64e4 a13d f3e5 053e 8642 dc3d
000001d0: 29c8 dd3d 6833 603d 86b4 053e 9864 3b3d
000001e0: 67d6 193e 9abc cf3d a07a ccbc b043 1d3e
000001f0: 5a68 b13d 931b f73c d3a1 8d3d 2de8 d63d

model.2.weight f4 [128, 128]
0.14170359 0.29499403 0.16570638 0.32144186 0.416418 0.08171518 0.1252292 0.20907865
0.44650096 0.29307416 0.1601408 0.35419312 0.31620738 0.5336526 -0.008959453 0.17224243
0.12590615 0.17863508 0.41084132 0.3600366 0.236861 0.4584206 0.18411331 0.17250025
-0.0025341886 0.1437894 0.008500577 0.32537565 0.34835672 0.4047938 0.49383998 0.18994945
0.257664 0.11511772 0.27511862 0.4794436 0.32147363 0.22535586 0.39790478 0.4257893
0.11335829 -0.011927306 0.20356952 0.34327096 0.04227334 0.35251912 0.026089417 0.37981263
0.23357536 0.10569159 0.19244114 0.36401406 0.3510461 0.07313687 0.06449183 0.38352987
0.22067271 0.25563127 -0.053703345 0.16190942 0.07776864 0.4227959 0.29755569 0.1404642
0.11784367 0.27739933 0.43200606 0.38316265 0.0021941718 0.4025926 0.05778605 0.47639227
0.04389445 0.3578022 0.08259333 0.21504503 0.04166448 0.4723702 0.35461617 0.51735145
0.13638337 0.11243064 0.32152385 0.20812064 0.28973708 0.41030344 0.44714156 0.25406456
0.39653543 0.17608543 0.41173983 0.32265958 0.5046289 0.21823409 0.26759255 0.27929103
0.37554285 0.13085482 0.18834001 0.2981088 0.07566663 0.12295445 0.25299963 -0.037360318
0.38291904 0.3838576 0.08763569 0.03309619 0.18248029 0.40092617 0.31498522 0.008551478
0.48319453 0.12951902 0.17388037 0.19630039 0.47443014 0.14787832 0.38639212 0.13624677
0.47392514 0.30980286 0.2116207 0.20358615 0.11704525 0.13451721 0.28136662 0.0068563907
-0.17260827 -0.10533087 0.1226147 -0.06739224 -0.15107435 0.042180166 -0.23802043 0.07136648
-0.22105023 0.037508845 0.09271665 -0.19529329 -0.18563621 -0.27868554 0.024692683 -0.07823257
-0.099267095 -0.27792567 -0.01606003 0.1340827 -0.2094377 0.13316914 0.13332762 0.08071702
-0.26973173 -0.1391866 0.074000366 -0.08246763 0.015684843 -0.109504774 -0.10307702 -0.24905886
0.00069591706 0.049536444 -0.012196565 -0.20041259 -0.25346693 0.05891227 -0.20641457 -0.12063856
-0.034852374 -0.037310015 -0.03130855 -0.084665276 -0.15839191 0.05933118 -0.12987757 -0.14506549
0.057564102 -0.15721163 -0.16838558 -0.26300457 0.11947039 -0.22937909 -0.015622867 -0.109759
-0.24841133 0.07943208 -0.09332939 -0.06794196 -0.25246227 -0.111085 -0.092279434 -0.24317405
-0.28541216 -0.0029687765 -0.26671022 -0.17531203 -0.22888087 -0.24792911 0.07490666 -0.18978773
0.0065320004 0.033740982 0.01765152 0.09855626 0.053264778 -0.1959275 -0.057512987 -0.170368
0.10001311 0.029790679 -0.0017623523 -0.07588059 0.09038314 -0.16475455 -0.08117781 -0.22230257
-0.10398384 -0.28852007 0.03826171 0.060184196 -0.017276801 -0.016760722 0.10155615 -0.07578771
0.09545186 -0.187111 -0.2602217 -0.19396827 -0.158056 -0.026876051 0.07403753 -0.10808983
-0.2734799 0.031832334 0.11021104 0.10827387 0.08607888 -0.08905933 -0.10978317 -0.009285696
-0.14394127 -0.20582114 -0.049402498 0.074978314 -0.20461825 -0.19802776 -0.022566928 -0.26219374
-0.14676163 -0.023456397 -0.061304294 -0.07984972 -0.1136186 -0.15551084 -0.072566524 -0.03520034
00000000: bf1a 113e 7509 973e efae 293e 0794 a43e
00000010: bd34 d53e 4a5a a73d 153c 003e b718 563e
00000020: c69b e43e d10d 963e f3fb 233e cd58 b53e
00000030: efe5 a13e 759d 083f abca 12bc 5260 303e
00000040: 8bed 003e 1dec 363e cb59 d23e b856 b83e
00000050: b18b 723e 1bb6 ea3e 3388 3c3e e8a3 303e
00000060: a114 26bb 873d 133e 0146 0b3c a397 a63e
00000070: d05b b23e 2241 cf3e 98d8 fc3e 1c82 423e
00000080: 89ec 833e d7c2 eb3d 59dc 8c3e a279 f53e
00000090: 3198 a43e b0c3 663e 2dba cb3e 0e01 da3e
000000a0: 6428 e83d bf6a 43bc 8774 503e 36c1 af3e
000000b0: cf26 2d3d 637d b43e 79b9 d53c cd76 c23e
000000c0: 612e 6f3e d574 d83d 4a0f 453e 0d60 ba3e
000000d0: 50bc b33e c9c8 953d 4b14 843d 075e c43e
000000e0: 07f8 613e 1ae2 823e 0af8 5bbd 95cb 253e
000000f0: 2a45 9f3d b478 d83e 3859 983e d9d5 0f3e
00000100: 0658 f13d 4907 8e3e e62f dd3e e52d c43e
00000110: 18cc 0f3b 9e20 ce3e 11b1 6c3d b0e9 f33e
00000120: abca 333d da31 b73e b126 a93d c434 5c3e
00000130: 60a8 2a3d 82da f13e 4090 b53e 2571 043f
00000140: 15a8 0b3e 0942 e63d c69e a43e 941d 553e
00000150: 6b58 943e 4b13 d23e bdef e43e c014 823e
00000160: b106 cb3e bd4f 343e 90cf d23e a333 a53e
00000170: 5c2f 013f c278 5f3e e401 893e 3cff 8e3e
00000180: 2747 c03e cefe 053e 34dc 403e b7a1 983e
00000190: 1bf7 9a3d 8bcf fb3d 2b89 813e 2207 19bd
000001a0: f70d c43e fc88 c43e 577a b33d df8f 073d
000001b0: 1ddc 3a3e 3246 cd3e be45 a13e 801b 0c3c
000001c0: 4665 f73e a2a0 043e b20d 323e f802 493e
000001d0: 82e8 f23e 6a6d 173e 30d5 c53e 4684 0b3e
000001e0: 51a6 f23e 7b9e 9e3e 19b3 583e e378 503e
000001f0: 6cb5 ef3d e1be 093e 490f 903e 93ab e03b
00000200: 39c0 30be b6b7 d7bd 6a1d fb3d f104 8abd
00000210: 3cb3 1abe 1cc5 2c3d a1bb 73be 9728 923d
00000220: fe5a 62be e0a2 193d 3ae2 bd3d f7fa 47be
00000230: 6b17 3ebe dfaf 8ebe 4f48 ca3c 6638 a0bd
00000240: 8c4c cbbd 464c 8ebe 5390 83bc fa4c 093e
00000250: d676 56be 7e5d 083e 0987 083e f74e a53d
00000260: 471a 8abe ef86 0ebe 818d 973d cae4 a8bd
00000270: 807d 803c 0a44 e0bd 0b1a d3bd 4909 7fbe
00000280: 346e 363a bae6 4a3d 1ad4 47bc f538 4dbe
00000290: 6bc6 81be fe4d 713d 575e 53be 5911 f7bd
000002a0: 5dc1 0ebd 63d2 18bd 653d 00bd fd64 adbd
000002b0: 7d31 22be 4005 733d a0fe 04be 0c8c 14be
000002c0: 56c8 6b3d 16fc 20be 456d 2cbe 89a8 86be
000002d0: e4ac f43d 5ae2 6abe 0ef7 7fbc 54c9 e0bd
000002e0: 8a5f 7ebe 49ad a23d 7b23 bfbd 2825 8bbd
000002f0: bc42 81be 8880 e3bd 00fd bcbd 9e02 79be
00000300: 8b21 92be ce8f 42bb 3e8e 88be ff84 33be
00000310: bf5f 6abe 21e1 7dbe aa68 993d b757 42be
00000320: 640a d63b fc33 0a3d ec99 903c ddd7 c93d
00000330: 2b2c 5a3d 38a1 48be bd92 6bbd f374 2ebe
00000340: acd3 cc3d 950b f43c bbfe e6ba 4867 9bbd
00000350: cc1a b93d 6bb5 28be 8d40 a6bd 49a3 63be
00000360: 7bf5 d4bd e7b8 93be 50b8 1c3d b483 763d
00000370: 1488 8dbc c84d 89bc acfc cf3d 9636 9bbd
00000380: 447c c33d 079a 3fbe c73b 85be 9e9f 46be
00000390: 6fd9 21be 2a2b dcbc fda0 973d 335e ddbd
000003a0: 8f05 8cbe 9f62 023d 53b6 e13d b1be dd3d
000003b0: 204a b03d bd64 b6bd 00d6 e0bd 0823 18bc
000003c0: 5765 13be c7c2 52be 465a 4abd 3b8e 993d
000003d0: 7287 51be cac7 4abe 47de b8bc 423e 86be
000003e0: ae48 16be a127 c0bc 361a 7bbd 4088 a3bd
000003f0: deb0 e8bd 3c3e 1fbe c29d 94bd 3b2e 10bd

model.2.bias f4 [128]
0.15719874 -0.07622848 -0.09099778 -0.07050311 -0.071189076 0.1635184 0.15101399 -0.078082
-0.07423438 -0.08420886 -0.09523553 0.15997003 0.14962323 -0.060769077 0.15811504 -0.0687596
-0.07413162 -0.07710555 0.1552182 -0.063295044 -0.07982684 -0.07704094 0.17176977 -0.06970023
-0.068598814 0.15855828 0.15663728 -0.06296301 -0.090704665 -0.086538896 -0.09142817 0.15109654
0.16116914 -0.07663805 -0.07861163 0.16554771 0.15952604 -0.06536375 -0.07116842 -0.08609725
-0.0807154 0.1638702 0.1659965 0.155086 0.1563651 0.15512092 -0.07124692 -0.060051177
-0.06587933 0.15285778 0.15699531 0.15766762 0.15122297 -0.085035436 -0.08511035 0.16933806
-0.060052045 0.15749872 0.1512318 0.15755749 -0.060051825 0.15417258 0.1586698 -0.09626082
0.158908 0.15938456 0.15604486 -0.085166946 0.1622158 -0.067417726 -0.07088186 -0.07374089
-0.072322235 -0.07955674 0.15492925 -0.070299685 -0.083742894 -0.021058438 0.15684786 -0.07760446
-0.07750383 0.15046893 -0.0676534 0.16402636 -0.079686485 0.15645203 -0.09215484 -0.06306919
-0.0778917 -0.09096476 0.15832065 0.15228558 0.16047627 -0.05991526 -0.07134007 -0.08460991
0.15734014 -0.07227753 -0.08918271 -0.075870864 0.17416193 -0.06306897 -0.075451225 0.15957376
-0.08513127 0.15888557 0.1585751 0.15314025 0.15768771 0.15910971 -0.055584818 -0.046106625
-0.061668903 0.15527958 0.1277636 -0.07197499 -0.083099216 0.14783436 0.15918899 -0.06110131
-0.06468398 -0.09419121 0.16243108 0.16001475 0.1563274 0.15049201 0.15301016 0.15907113
00000000: b5f8 203e ad1d 9cbd 0b5d babd ef63 90bd
00000010: 94cb 91bd 5e71 273e 69a3 1a3e 75e9 9fbd
00000020: 3208 98bd b275 acbd d80a c3bd 2fcf 233e
00000030: d536 193e ffe8 78bd e9e8 213e d5d1 8cbd
00000040: 52d2 97bd 84e9 9dbd 85f1 1e3e d5a0 81bd
00000050: 417c a3bd a4c7 9dbd 6ae4 2f3e ffbe 8ebd
00000060: 897d 8cbd 1a5d 223e 8665 203e c0f2 80bd
00000070: 5ec3 b9bd 4e3b b1bd b13e bbbd 0db9 1a3e
00000080: 8609 253e 69f4 9cbd 22ff a0bd 5785 293e
00000090: cb5a 233e 6edd 85bd c0c0 91bd c153 b0bd
000000a0: 1e4e a5bd 97cd 273e fdfa 293e ddce 1e3e
000000b0: 2c1e 203e 05d8 1e3e e8e9 91bd 39f8 75bd
000000c0: beeb 86bd c086 1c3e 61c3 203e 9f73 213e
000000d0: 32da 1a3e 0f27 aebd 564e aebd f566 2d3e
000000e0: 22f9 75bd 5847 213e 82dc 1a3e c056 213e
000000f0: e7f8 75bd 6bdf 1d3e 567a 223e 6524 c5bd
00000100: c7b8 223e b535 233e 39ca 1f3e 026c aebd
00000110: e61b 263e 4e12 8abd 822a 91bd 7705 97bd
00000120: ae1d 94bd a5ee a2bd c6a5 1e3e 48f9 8fbd
00000130: 6581 abbd bf82 acbc ba9c 203e 16ef 9ebd
00000140: 54ba 9ebd 8714 1a3e de8d 8abd 87f6 273e
00000150: ab32 a3bd f634 203e adbb bcbd 6b2a 81bd
00000160: af85 9fbd bb4b babd cf1e 223e c0f0 1b3e
00000170: e453 243e b469 75bd be1a 92bd f647 adbd
00000180: c61d 213e 3e06 94bd 6da5 b6bd 2f62 9bbd
00000190: 8157 323e 4e2a 81bd 2c86 9abd 4e67 233e
000001a0: 4e59 aebd e6b2 223e 8361 223e ccd0 1c3e
000001b0: e378 213e a8ed 223e e8ac 63bd 4dda 3cbd
000001c0: 8898 7cbd 9c01 1f3e 76d4 023e a067 93bd
000001d0: ec2f aabd e461 173e 7002 233e 5e45 7abd
000001e0: 0979 84bd 52e7 c0bd 5554 263e e8da 233e
000001f0: 4a14 203e 941a 1a3e b2ae 1c3e 8be3 223e

model.4.weight f4 [1, 128]
0.27038175 0.007926453 -0.08420013 -0.090149544 -0.026891006 0.3779076 0.3411447 -0.0011448353
-0.14031416 -0.06474036 0.022226272 0.29523605 0.2573406 0.07676907 0.43242744 -0.029882204
0.062287774 -0.0984153 0.26538017 -0.055413615 -0.13881658 -0.12030217 0.33611163 -0.078779146
0.060216304 0.37324306 0.2852721 -0.13402641 -0.015513312 -0.049598806 -0.005950564 0.46066198
0.33735403 -0.10766233 -0.06984599 0.39906815 0.28158826 -0.109199025 -0.1216185 -0.08407596
-0.12806731 0.32729658 0.40963566 0.30789977 0.4293883 0.26455864 -0.040832866 -0.075895965
-0.067406856 0.42076746 0.36418605 0.38517305 0.426148 0.005397083 -0.09942272 0.47670168
-0.07990363 0.26347163 0.46533012 0.319127 -0.06306127 0.35349038 0.43167737 -0.02824602
0.41987365 0.4806755 0.35206783 0.016471647 0.29504657 -0.014877561 -0.0021367678 0.0015664583
-0.097037874 0.055279754 0.27784604 0.03985796 -0.07852663 0.11478045 0.3239799 -0.05510671
-0.1184806 0.2471961 -0.062463235 0.45096648 -0.096761085 0.2845441 -0.047414962 -0.05932976
-0.11715393 0.0034660478 0.44085228 0.34909433 0.2873767 -0.109112136 -0.12294001 -0.115357384
0.26338035 -0.113936074 0.054239795 -0.031585578 0.43684664 -0.06941154 0.03298242 0.40417293
0.03328138 0.3127057 0.27940193 0.44008005 0.2671347 0.31507757 -0.06424323 0.06466579
-0.093448244 0.36043423 0.24631488 -0.05067613 -0.024914632 0.46148902 0.31845927 0.041933544
-0.017993115 0.045741756 0.40931457 0.2731919 0.37210825 0.3759757 0.3975949 0.42937806
00000000: 7a6f 8a3e f4dd 013c 1e71 acbd 53a0 b8bd
00000010: 874a dcbc 1b7d c13e 85aa ae3e 4c0e 96ba
00000020: 84ae 0fbe 9896 84bd df13 b63c 2e29 973e
00000030: 26c2 833e 1a39 9d3d 2167 dd3e 86cb f4bc
00000040: 7721 7f3d f68d c9bd e9df 873e 63f9 62bd
00000050: ef25 0ebe fc60 f6bd d316 ac3e f656 a1bd
00000060: 5fa5 763d b719 bf3e 2f0f 923e 383e 09be
00000070: 8c2b 7ebc 1e28 4bbd f3fc c2bb e3db eb3e
00000080: abb9 ac3e 117e dcbd 6a0b 8fbd a952 cc3e
00000090: 562c 903e bda3 dfbd 1f13 f9bd 0430 acbd
000000a0: 1424 03be 6b93 a73e c4bb d13e 0aa5 9d3e
000000b0: c9d8 db3e 3b74 873e 5d40 27bd 586f 9bbd
000000c0: 9b0c 8abd d56e d73e 9876 ba3e 6735 c53e
000000d0: 1230 da3e 03da b03b 249e cbbd 3e12 f43e
000000e0: 84a4 a3bd c1e5 863e c03f ee3e 9d64 a33e
000000f0: 4426 81bd b1fc b43e d104 dd3e 3364 e7bc
00000100: aef9 d63e 191b f63e 3c42 b43e 8cef 863c
00000110: 5810 973e 03c1 73bc 0409 0cbb 9e51 cd3a
00000120: cbbb c6bd 066d 623d d641 8e3e 1a42 233d
00000130: 92d2 a0bd 0312 eb3d b2e0 a53e 93b7 61bd
00000140: f5a5 f2bd f920 7d3e 73d9 7fbd 14e5 e63e
00000150: ad2a c6bd c4af 913e 3136 42bd c303 73bd
00000160: 66ee efbd a226 633b 64b7 e13e 7ebc b23e
00000170: 0a23 933e 2f76 dfbd f9c7 fbbd 7e40 ecbd
00000180: cad9 863e 5157 e9bd 8c2a 5e3d e15f 01bd
00000190: 5daa df3e a327 8ebd 9318 073d c1ef ce3e
000001a0: 0e52 083d f61a a03e c50d 8f3e 2c52 e13e
000001b0: e1c5 883e d951 a13e f491 83bd 7f6f 843d
000001c0: cb61 bfbd d68a b83e f839 7c3e c691 4fbd
000001d0: c519 ccbc 4a48 ec3e 180d a33e 82c2 2b3d
000001e0: 4c66 93bc b55b 3b3d ae91 d13e cfdf 8b3e
000001f0: f984 be3e e37f c03e 8f91 cb3e 71d7 db3e
