models/neural_networks/regression/2024-08-15_16-48-42/model.pt (torch, 533736 bytes, 7 tensors)

model.0.weight f4 [128, 777]
000000 eb 75 98 3d d1 ec ca 3d 57 4a 2f bd 2b 53 7a 3d
       0.07444366 0.099084504 -0.042795505 0.06111447
000010 3b 40 e1 3c c1 75 03 3d f4 bf 81 3b b0 1d 23 bd
       0.027496448 0.03209472 0.00395965 -0.039823234
000020 54 e8 69 bc e4 39 05 3e c5 c7 80 bc 7d 55 3d be
       -0.014276583 0.13010365 -0.015720258 -0.18489642
000030 58 a7 24 bd 97 90 0d be cb eb a4 bd b0 b2 99 bd
       -0.040198654 -0.13824688 -0.080527864 -0.07504785
000040 af 6f 4d 3d 2e dd 90 3d a0 c2 f8 bb bc f9 cd bd
       0.050155338 0.07073437 -0.0075915605 -0.10057399
000050 6e cb 64 3d fc 41 ad 3c d4 05 a8 be 4a bc 16 be
       0.05585807 0.021149628 -0.32816947 -0.14720264
000060 12 4c 77 bd e2 d8 45 bd 93 14 72 bd d8 d5 29 bc
       -0.06037528 -0.04830254 -0.059101652 -0.010365926
000070 e0 d9 13 bb 9f 70 2b bd 1f df 53 bd 82 9a 03 3d
       -0.0022560284 -0.04185545 -0.051726457 0.032129772
000080 be 02 6e 3d 9c e2 1d bd f8 18 4c be f3 65 85 bd
       0.058108084 -0.03854619 -0.199314 -0.06513586
000090 bc e4 38 bd 88 7a 51 3c 9a 2b 03 bd 52 03 0c bd
       -0.045140013 0.012785561 -0.032024004 -0.034182854
0000a0 f4 2d 5d 3d 48 eb 4e 3e bd 7f b3 bd 5b 0d 23 3e
       0.053998902 0.2020694 -0.087645985 0.15923063
0000b0 74 80 bc 3c 8b 3f 9f 3d f7 51 79 bd 4a e6 b8 3c
       0.02301047 0.07775792 -0.060869183 0.022570748
0000c0 45 53 ab 3d 58 c2 88 bd e0 d6 78 3c 28 a3 a6 3c
       0.08365492 -0.06677693 0.015187949 0.02034147
0000d0 6b b9 a8 bd 9d 17 aa bd aa 13 18 3d 42 09 0f 3d
       -0.08238491 -0.08305285 0.037128128 0.03492094
0000e0 30 d2 88 bc 32 00 94 3d e2 d8 13 3e e5 9f 3b 3e
       -0.016701788 0.072266 0.14438203 0.18322714
0000f0 60 40 eb bc 8c 57 ef 3d 36 40 11 bd 28 2d 64 bd
       -0.02871722 0.1168662 -0.035461627 -0.055707127
000100 0b 26 83 bd 4a 29 40 bd 5e 7f 45 3d 40 bc c9 3c
       -0.064037405 -0.046914376 0.04821717 0.024625897
000110 2a 7a a0 bd f4 b7 c4 bc b4 5c 1d 3e d0 bd 75 3c
       -0.07835801 -0.024013497 0.15367395 0.014998868
000120 68 c8 b3 be bf 20 8a 3d fa b7 78 3d dc e6 04 be
       -0.35113835 0.06744527 0.06072233 -0.12978691
000130 37 f2 f9 bd 18 eb 0f 3d c7 62 8c 3e 20 6e 72 bd
       -0.12204402 0.035136312 0.2741911 -0.059187055
000140 5d ac 1b bd 50 38 23 bd 21 7e 16 bd 8b 9a 38 bd
       -0.038006175 -0.039848626 -0.03674138 -0.04506926
000150 c0 cb 04 be ea 47 80 3c 16 83 de bd 51 8d f0 bd
       -0.1296835 0.015659291 -0.108648464 -0.11745704
000160 c3 61 b3 bd aa f8 87 bd 90 8e c6 bd 00 12 9a bc
       -0.08758881 -0.06639226 -0.096951604 -0.018807411
000170 f7 d3 ca bb 25 04 83 bd c4 a8 69 bd 5a cf 24 3d
       -0.006189819 -0.06397275 -0.057045713 0.04023681
000180 70 96 d0 bb ed 7d 87 3c 30 65 a6 bc 70 4e 8e 3c
       -0.00636559 0.016539538 -0.020311922 0.017371386
000190 4c 4d 67 bd c3 a6 10 be d7 32 29 bd b8 71 b6 bc
       -0.0564702 -0.14126115 -0.04130825 -0.022271022
0001a0 de fc a5 bd 04 05 9a 3c 94 2a 97 bd f5 50 8d 3d
       -0.08104871 0.01880122 -0.07381168 0.06900207
0001b0 39 1a 94 bd e4 17 0a be ef 33 23 3e 13 78 91 3e
       -0.07231564 -0.13485676 0.1593778 0.28411922
0001c0 6d 20 b2 bd af f9 ce 3d bc d2 ed bc 2f da 60 bd
       -0.08697591 0.10106217 -0.02903115 -0.054895576
0001d0 90 3b b2 bd e0 e4 42 3c 55 02 c1 bc a4 2f b9 bc
       -0.08702767 0.011895388 -0.023560682 -0.022605725
0001e0 80 9c 35 bb 60 a3 8d bc b2 00 3f 3d 12 9b 85 bd
       -0.002771169 -0.017289817 0.046631522 -0.06523718
0001f0 b1 97 f6 bd ed 1b 93 3b fc 5a ac bd 9e a3 4c 3d
       -0.120406516 0.004489413 -0.084157914 0.049960725
000200 88 f7 0b 3e 7b cd 11 bd 00 1e 53 bc 7d b1 d8 bd
       0.13668644 -0.035596352 -0.0128855705 -0.10580728
000210 f2 c4 03 be 46 a9 68 bd e8 a9 89 3c 77 d1 86 bd
       -0.12868097 -0.056802057 0.01680465 -0.06582921
000220 68 96 cf 3c 78 12 fe bc 2b 59 2d bd a1 a6 8c 3d
       0.025340274 -0.031014666 -0.042321365 0.068677194
000230 6b 8b 55 bd 80 e4 dd 3c 9d 2d 94 bd ab f7 9c bd
       -0.052134912 0.027086496 -0.072352625 -0.076644264
000240 53 8c 56 bd da ad 34 be 1c 30 e7 bc 45 08 75 3e
       -0.052379917 -0.17644444 -0.028221183 0.23928936
000250 24 62 83 bc 5a 78 5b 3d 28 88 37 3c a5 a1 0f be
       -0.016038008 0.053581573 0.011201896 -0.14026506
000260 f4 97 8d bd 40 5c a3 bb 86 a8 6e bd 33 a4 00 3e
       -0.069137484 -0.0049853623 -0.058266185 0.12562637
000270 6d 35 a7 3d 7a b8 09 bd 1b 9d bd bc d6 92 1f 3d
       0.08164487 -0.033623196 -0.023146203 0.038958393
000280 38 68 ff 3c e0 28 40 bc 01 48 93 3d b7 c0 48 3c
       0.031177625 -0.011728495 0.07191468 0.012252978
000290 60 e0 cb 3b 34 89 03 bd 83 da 9a 3d b4 cc d1 3b
       0.006221816 -0.03211327 0.07561209 0.0064025763
0002a0 08 01 15 bc 09 60 9a 3e 61 7c b3 bd 68 e3 83 bc
       -0.009094484 0.30151394 -0.08763958 -0.016099647
0002b0 65 16 20 3d 54 ba bd 3c 48 f8 41 bd c6 69 ee bc
       0.039083857 0.023160137 -0.04735592 -0.029103171
0002c0 18 95 3a be bf 08 8a be e9 98 23 3d f6 b8 37 ba
       -0.18220937 -0.26959798 0.03994075 -0.00070084573
0002d0 a6 76 39 3d 83 0e 4d bd d8 0e 08 bd e6 7b e3 bc
       0.045279168 -0.050062668 -0.03321728 -0.02776904
0002e0 03 9f b2 bb 00 e2 4d 3a f3 bc 88 bd 65 a3 a7 bd
       -0.0054510846 0.0007853806 -0.06676664 -0.08185462
0002f0 8b 34 c3 bd 4d 78 4a bd 40 fe a5 3b 5e 47 85 bd
       -0.09531506 -0.049431134 0.0050657094 -0.06507753
000300 3b 39 00 bc 36 23 4d bd 0a e9 9a bd 2d d5 97 be
       -0.007826145 -0.050082408 -0.0756398 -0.29654828
000310 75 8f 88 bc 43 d6 6d bc cd 22 fc bd e6 35 ef bc
       -0.016669968 -0.014516416 -0.12311325 -0.029200505
000320 c8 c8 00 bc 0c 4d 03 be 95 6b ab bd e5 a0 57 bd
       -0.00786037 -0.1282236 -0.08370129 -0.052643675
000330 64 d2 b1 bd cd 21 90 3d 6d 26 f9 bd 93 82 9f bd
       -0.08682707 0.07037697 -0.12165532 -0.07788577
000340 22 91 a3 bd 68 04 f9 ba 24 41 99 bd a1 77 7f bd
       -0.07986666 -0.0018998506 -0.07483128 -0.062369946
000350 9d fd 3d 3c c4 7d 51 bd fc ea 79 be 2b 8d e4 bd
       0.011596111 -0.05114533 -0.24406046 -0.11159738
000360 81 2d 80 3d a4 be 73 3b 2c 06 eb bc e7 f5 95 3c
       0.06258679 0.0037192488 -0.028689466 0.018305732
000370 d0 f7 54 bc f4 2b ed 3c fa 28 d1 bd 43 7f e0 bd
       -0.012998536 0.028951623 -0.10212894 -0.10961773
000380 f6 fc 7f 3c 52 95 91 bd 02 59 65 3d 1c 39 97 3c
       0.015624275 -0.07108559 0.055993088 0.018459849
000390 95 7e 0b 3e 38 d5 56 3d bc 83 07 3d fc 9c ea 3d
       0.13622506 0.052449435 0.033084616 0.11455724
0003a0 a2 45 59 3b e2 ce 1b bd 90 34 66 3c 68 d8 8b bd
       0.0033153077 -0.038039096 0.014050618 -0.068283856
0003b0 11 fe 5b 3d 33 63 12 bd 9a d8 fa bc 03 f5 23 bd
       0.053709093 -0.035739135 -0.030620862 -0.040028583
0003c0 7f b2 51 bd d0 c3 a5 bd 35 98 7e bd 78 4d 30 3c
       -0.051195618 -0.08093989 -0.062156875 0.0107606575
0003d0 00 e7 09 bc 97 eb cf bc 20 27 26 bc e8 b8 78 bc
       -0.008416891 -0.025380893 -0.010141164 -0.015180804
0003e0 e7 dd ac 3d 58 8e 73 bc dd 10 23 be 54 a9 10 bd
       0.08440762 -0.01486548 -0.15924402 -0.035317734
0003f0 b2 05 c2 bc d4 b1 0c 3d 02 aa 3f 3e 31 1b a5 3d
       -0.023684356 0.034349278 0.18717197 0.08061827

model.0.bias f4 [128]
000000 13 53 9c bd ea 0e d7 bd 60 bd 3a 3d fc 0f cb 3c
       -0.07633033 -0.105008915 0.04559076 0.024787895
000010 29 b9 a8 bd e6 f1 e4 bd 0d d1 c8 bd 24 55 e2 bd
       -0.082384415 -0.11178951 -0.09805498 -0.110513955
000020 c9 75 9d 3c 17 35 31 bd a1 52 ad 3d 76 71 2a be
       0.019221203 -0.04326352 0.08463026 -0.16644844
000030 dc 6a ab 3b 26 21 d7 bd 59 1c 8c bd f2 c4 19 3d
       0.0052312445 -0.105043694 -0.068413444 0.037541337
000040 b9 98 2b 3d 16 a8 a3 bc 98 0b 57 3d 7b 79 2a bd
       0.041893695 -0.01997761 0.05250129 -0.04161976
000050 e5 34 01 3d a2 cf 9d 3d f0 1a 24 bd a3 96 80 3d
       0.031544585 0.077056184 -0.040064752 0.06278732
000060 0f ca 4d 3d 3e c1 e7 3c a4 08 26 be ce 8e 8d 3c
       0.050241526 0.028290387 -0.16214234 0.017280009
000070 cd 06 38 bd 05 4d 1e be 7c e6 bc bd 3e 7f 8e bc
       -0.04492836 -0.15459068 -0.09223649 -0.017394658
000080 9f 32 1b 3d 00 bc 18 bc 1c 44 aa bd 0c d9 b1 39
       0.037890073 -0.009322166 -0.08313772 0.00033921783
000090 ab 09 cd bc 18 e3 58 3c ee 36 67 bd 7a d5 27 bd
       -0.025029024 0.013237737 -0.05644887 -0.04097507
0000a0 9a c8 23 3d 2b 90 a6 bb b1 5a 2e 3d 5b ce 89 3d
       0.03998623 -0.005083104 0.04256696 0.06728812
0000b0 2b be 8f bd 11 88 4b 3d 18 61 9a 3d a2 82 de 3b
       -0.070186935 0.04969031 0.075380504 0.006790475
0000c0 87 80 0c 3d f5 de c2 bd 75 3d 94 bd 70 5b 8c bd
       0.03430226 -0.09515182 -0.072382845 -0.06853378
0000d0 b7 bc cb bd 2b fd 49 bd 19 2e 88 bd 85 62 2d 3d
       -0.09948104 -0.049313705 -0.066494174 0.042330284
0000e0 21 22 1b be a8 3a 00 be 0e c9 ae bc 27 35 2d 3d
       -0.15149738 -0.12522376 -0.021336105 0.04228702
0000f0 fc 5d a2 3c 3f ff 8c 3c 6d b4 72 bc d3 cb 15 3d
       0.019820206 0.017211555 -0.014813525 0.036571335
000100 95 7e 00 be 3b 1d c9 bd 03 81 27 3d 65 9d 85 3d
       -0.12548287 -0.098200284 0.04089452 0.06524161
000110 2e c7 97 bd 9f ab e9 bd fc 21 40 3c d4 04 93 3d
       -0.074110374 -0.11409687 0.0117268525 0.07178655
000120 08 56 fe bd 04 df 0a 3d a8 1d d9 3c c5 82 3d 3d
       -0.12418753 0.03390409 0.026503399 0.04626729
000130 45 4f f1 3c 9b 35 33 3d a9 f6 6e bd 93 48 0b bc
       0.029456744 0.043752294 -0.058340702 -0.00850119
000140 5e 12 d9 bc c0 0d 79 3d 65 51 92 3d 27 ab ab 3d
       -0.026498016 0.06080413 0.07144431 0.08382254
000150 1d fd af 3c 24 6f 7f 3a d6 37 6f bd 42 a3 4f 3c
       0.021482999 0.0009744039 -0.05840286 0.012673201
000160 a9 5c 5e bc 38 f6 a4 3c 26 1d 6d 3c b9 a2 58 bd
       -0.013571897 0.020136937 0.014472282 -0.05288956
000170 91 3f d5 bd 8c af 65 3d 51 a0 2a 3d ed 5f 72 bd
       -0.10412515 0.056075618 0.041656796 -0.059173513
000180 0d 6f 68 bc 0f 6e a6 bc 6b af 48 bd 89 f8 02 be
       -0.014186633 -0.020316152 -0.048995417 -0.12790121
000190 ec f6 c1 3c 45 4c c8 3d e9 c5 84 3d c0 8d da 3c
       0.023677312 0.09780172 0.06483061 0.02667892
0001a0 ec 37 c6 bd 9e e8 a4 3c 7c d8 a3 bc 46 36 ac 3d
       -0.09678635 0.020130452 -0.020000689 0.08408789
0001b0 8a 87 3e 3d 23 00 c2 bd b3 c9 03 be 4e b0 ff bd
       0.04651598 -0.09472682 -0.12869911 -0.12484799
0001c0 55 4f c2 bd 2d 17 9a 3d 2d 23 9f 3c 82 3b 2f 3d
       -0.09487788 0.07523952 0.019425953 0.04278136
0001d0 7a 02 a8 3d 66 7c 2a bd 8f d7 30 3d e7 bb 08 be
       0.08203597 -0.04162254 0.043174323 -0.13352929
0001e0 f2 ea 2e 3c 55 f2 7e 3d b4 2e 42 bd dc bb 0c 3d
       0.0106761325 0.062242825 -0.04740782 0.034358844
0001f0 b4 c6 f5 bd 3f d1 a1 bc e5 f2 34 bd 46 8b fc 3b
       -0.1200079 -0.019753097 -0.044176955 0.0077070324

model.2.weight f4 [128, 128]
000000 45 85 6d 3e 5d 48 74 3d 6c f0 79 3e 1a 2d 5e bd
       0.2319537 0.059639324 0.2440812 -0.05424223
000010 b8 c7 43 3e 0a 45 ae 3e d2 de 04 3e 08 74 93 3d
       0.19119155 0.34037048 0.12975624 0.071998656
000020 91 8f 91 3e 64 63 06 bd be ad 80 bd 25 a4 8f 3c
       0.28429845 -0.03280963 -0.06283139 0.017534325
000030 de 78 89 3d 49 81 5c 3e 80 df f2 3e c0 58 4a 3e
       0.06712507 0.21533693 0.47436142 0.19760418
000040 9f de 8c 3e 8b 7c 57 3d 8d f7 1c 3e f1 88 96 3e
       0.27513596 0.052609008 0.15328808 0.29401353
000050 ac 2b 42 3e 81 00 7b 3e 23 7d 73 3e 4c 59 b3 bc
       0.18961972 0.24511911 0.23778205 -0.021893166
000060 4f ba 49 3d 7a 5c f9 bd 4b 6a ec 3e cb ef a4 3d
       0.049249943 -0.12175842 0.46174845 0.080535494
000070 03 59 86 3e 33 9b 2c 3e 9d 85 5b 3e f1 33 a9 bb
       0.26239786 0.16856079 0.21437688 -0.0051636626
000080 8b 5b ab 3e fc 63 89 3d 1f 9b cb 3d 6e 08 36 3e
       0.3346828 0.06708524 0.099416964 0.17776653
000090 60 72 2a 3d 4a 94 30 3e 00 f2 9a 3d f6 31 83 3e
       0.041612983 0.17244068 0.07565689 0.25624055
0000a0 f4 0b 3e 3e 19 3e 42 3e 19 df e0 bd 2a 22 b2 bd
       0.18559247 0.18969001 -0.109800525 -0.086979225
0000b0 b0 55 b2 3e c2 dd f5 3d 33 78 e7 3d f4 95 15 bc
       0.34831 0.120051876 0.11302223 -0.00912999
0000c0 0d eb 03 3e 91 20 95 bd 70 48 ec 3d cc 3c b7 3c
       0.12882634 -0.07281602 0.11537254 0.022367857
0000d0 cf c5 95 3c 3a 1a e9 3e 46 07 97 3e ec a2 83 3e
       0.018282799 0.45527822 0.29497737 0.25710237
0000e0 97 8c 5d 3d 34 99 f9 3c b0 71 4a be 6c 1f 60 3e
       0.054089155 0.03046856 -0.19769931 0.21886986
0000f0 c4 56 b6 3d a0 5a c7 3c 84 6c 6f bc 6b a5 ac 3e
       0.08903268 0.024335206 -0.0146132745 0.33719954
000100 93 7f 81 3c 75 14 1b 3e e6 04 13 3e 38 d3 63 3e
       0.015807902 0.15144522 0.14357337 0.22248542
000110 7f 29 39 3d 7a 9f 6c 3e e9 e9 f2 bd 4e cd f9 bb
       0.04520559 0.2310771 -0.11861021 -0.007623351
000120 d5 74 a3 3e 9c c6 9c 3e 13 37 01 3d 4d 7f 91 3c
       0.31925073 0.30620277 0.031546663 0.017760897
000130 86 65 a2 bd c8 9f 42 3e 7c eb 83 3e 10 3c f6 3a
       -0.0792952 0.19006264 0.25765598 0.001878621
000140 b7 80 8d 3d 53 1d 9a 3e 5a 42 64 3e c2 ea 47 3e
       0.06909316 0.30100498 0.22290936 0.19523147
000150 8a d3 da 3d 90 a1 71 3e a1 7e 5c bd ef 2c 07 3e
       0.10684879 0.23596787 -0.0538317 0.13200735
000160 21 e4 63 3e 1e be 13 3e 60 1a 4b 3e 5f f1 1f bd
       0.22254993 0.14427993 0.1983428 -0.03904855
000170 60 1d 04 bd 85 ff a5 3e e1 18 05 3d 97 5c 8d bc
       -0.032254577 0.32421508 0.03249443 -0.017256064
000180 36 d1 5a 3e f7 be 9f 3c f8 4a c1 3d 71 b0 9d 3e
       0.2136887 0.019500239 0.09438127 0.30798677
000190 c1 ea f1 3d bb 45 e1 bc 43 fd 21 3d b1 de e1 3d
       0.11812354 -0.02749907 0.03954817 0.11028803
0001a0 ae d0 b0 3e 6c 28 e3 3c 1f 0b 02 3c 54 1d e9 bd
       0.3453421 0.027729236 0.007937222 -0.11382547
0001b0 04 19 47 3e 1d 9a 82 3e a0 db 36 3e a0 22 77 3e
       0.19443136 0.25508204 0.17857218 0.24134302
0001c0 b4 68 c5 3e 26 ce fb bc 2b 37 75 3d 93 47 f8 3d
       0.38556445 -0.030737948 0.059867065 0.12123027
0001d0 75 31 14 3e a2 64 a3 3d 79 a6 36 3e 6b 77 5c 3e
       0.14471991 0.079781786 0.17836942 0.2152993
0001e0 eb 7a 80 3d be cf f8 bd ec 56 a2 3e 9d c8 f0 3c
       0.06273445 -0.12148999 0.3170694 0.029392535
0001f0 2e 9c b2 3d d7 9f 8b 3e d1 7c dd 3d 26 ca f1 bd
       0.08721195 0.27270386 0.108148225 -0.11806135
000200 65 c6 82 3d e2 f6 de 3d 2d 73 1f 3e 82 50 24 be
       0.06385497 0.10886933 0.1557128 -0.16046336
000210 a3 93 67 3b 64 dc 31 bd ea 48 e6 3c 82 05 63 be
       0.00353358 -0.04342307 0.02811094 -0.2217007
000220 2e 1d 49 bd f6 df 85 be fa 1e 22 3e 90 3e 48 3b
       -0.049100094 -0.2614743 0.15832129 0.0030554868
000230 02 60 8c bc ae ed 11 be 4b 21 2b be 84 19 1b bd
       -0.017135624 -0.14250824 -0.16711919 -0.03786613
000240 f2 92 64 be 33 c2 9f be 2c 22 98 3d 4c 7c 90 bd
       -0.2232168 -0.3120285 0.07428393 -0.07054958
000250 57 de ed 3d 76 6a ba bd 30 44 d3 3d 83 83 7e be
       0.116146736 -0.09102337 0.1031574 -0.24854855
000260 28 3d 52 be 18 c8 16 be 15 66 ef bd ac 3c 8a be
       -0.20531142 -0.14724767 -0.116893925 -0.26999414
000270 be ab 50 be 9f 31 23 be 4e 16 0e be 48 2b 63 be
       -0.20378014 -0.15936898 -0.13875696 -0.22184479
000280 90 a1 1d be e0 d7 1a 3e a7 57 bc bc 64 88 32 3e
       -0.15393662 0.15121412 -0.022991015 0.17434841
000290 ec 60 2d be 7b fd bf bd ac 80 47 be 05 12 b5 bd
       -0.16931504 -0.093745194 -0.19482678 -0.088413276
0002a0 f7 51 a2 3d f1 31 19 3d fb 64 ae bc 66 23 c8 bd
       0.0792579 0.037401143 -0.021288386 -0.09772377
0002b0 5f 5a 2e 3e 88 21 03 3c 0a b3 d0 3d 57 5a 0d be
       0.17026661 0.0080036 0.10190399 -0.13803993
0002c0 e5 87 48 be f0 28 69 bd 61 f7 14 be a6 df 98 bd
       -0.1958309 -0.056923807 -0.14547493 -0.074645326
0002d0 a0 ea 07 be 37 e1 3c bd 5a 3b 38 3e 1e c6 74 be
       -0.13273096 -0.04611322 0.17991391 -0.239037
0002e0 f2 a1 e4 bd bc d5 08 be 84 8b db 3d 83 97 d8 bd
       -0.11163701 -0.13362783 0.1071997 -0.105757736
0002f0 ff 7d b4 bc bc d1 39 3e de 9e 20 be 73 4a c9 bd
       -0.022032736 0.18146414 -0.15685603 -0.09828653
000300 bd 75 9f 3d bc 82 63 3d 2c 38 12 3c 31 fc 02 be
       0.07786129 0.0555446 0.008924525 -0.12791516
000310 4a 82 91 3a cf 87 cb bc 3a 3a 8c be 78 e3 5b be
       0.0011101451 -0.024845032 -0.27388173 -0.21473491
000320 fa 73 72 bd c4 2c 40 be 34 10 86 bd bd a7 bd bd
       -0.059192635 -0.18767077 -0.06546059 -0.09260509
000330 e0 96 4b be 44 a5 49 be 5b 9c 0d bd a0 44 67 be
       -0.19881773 -0.1969195 -0.03457294 -0.22584772
000340 45 fa 73 be dc 2f 76 be d9 46 1a 3e a6 25 59 3d
       -0.23825939 -0.24041694 0.15066089 0.05301442
000350 d3 26 5b 3d 61 91 d5 3c f4 17 9b bb db 0a 46 3e
       0.053503823 0.026070299 -0.00473308 0.19340079
000360 87 2f 50 bd d7 d2 1d be 25 02 86 3d d6 d4 11 be
       -0.050826576 -0.1541246 0.06543378 -0.14241347
000370 d4 65 94 bc 6d bc 1c 3d a1 6f 5f bc 0e a1 13 3e
       -0.018114962 0.038265634 -0.013637454 0.14416906
000380 47 c7 f6 3c 54 5a 28 3e 08 98 85 bd 8f f2 21 be
       0.03012432 0.16440707 -0.06523138 -0.15815185
000390 47 32 99 3d a7 1d ee bc fb 91 cc 3d 57 a9 4c be
       0.07480293 -0.029066874 0.09988781 -0.19986473
0003a0 2c 96 08 3e 09 ef 29 3e 27 d6 69 be 03 23 ef bd
       0.13338536 0.16595091 -0.22835599 -0.116766
0003b0 4b 91 60 be 76 65 2a 3e 25 e1 90 3d c1 29 d8 3c
       -0.21930425 0.16640267 0.07074193 0.026387097
0003c0 a8 6d 08 3e 36 ef 36 3d f2 91 31 3e e2 78 cc 3d
       0.1332308 0.044661723 0.1734083 0.09983994
0003d0 e7 0e df ba a9 c7 37 bd e6 f5 c7 3d d1 27 85 bd
       -0.0017017991 -0.044868145 0.09763698 -0.06501735
0003e0 b6 be 00 bc d2 3e 49 bd 19 90 4d be cc a6 28 bd
       -0.007857969 -0.049132176 -0.200745 -0.041174695
0003f0 77 c6 a8 3d eb c7 1f 3e b2 41 2c be 55 f8 21 3d
       0.08240979 0.15603606 -0.16821936 0.03954347

model.2.bias f4 [128]
000000 aa 31 d4 3d 71 e5 fc 3c 1f 4e e1 3d 6a 86 55 3d
       0.10361035 0.030871125 0.110012285 0.05213014
000010 c1 81 76 bd 5f bd bb bd b2 f9 75 bd 20 fe f1 3d
       -0.060182337 -0.09166979 -0.06005258 0.118160486
000020 c3 36 ca 3d ff fd 26 bd 3b 0d eb 3d 3f be ce bc
       0.09873726 -0.040769573 0.11477133 -0.0252372
000030 9a 26 ed 3d e9 44 ed 3d 2e 31 ec 3d a1 9e 26 3d
       0.11579628 0.11585409 0.11532818 0.040678624
000040 76 c4 da 3d bb 66 df 3d e8 bf 8c bd 1f de 91 bd
       0.10682003 0.10908266 -0.06872541 -0.07122444
000050 5b b1 8c 3d a8 92 7a bd ea d3 31 bd 89 44 d1 bc
       0.06869765 -0.06117502 -0.043414988 -0.025545375
000060 62 15 c9 3d 1c 7b 69 bd 45 4c 81 bd 6c e5 d1 3d
       0.098185316 -0.057002172 -0.063133754 0.10248837
000070 40 2a 58 3d 39 fb 76 bd 49 71 f3 3d 5d f9 e3 3d
       0.052774668 -0.06029818 0.11886842 0.11131547
000080 b8 8f 5c bd f7 0a d6 3d f0 71 4f bd 77 45 7b bd
       -0.053848 0.1045131 -0.05064577 -0.061345544
000090 7a 4e aa bd 73 c8 54 bd c7 08 de 3d 25 a9 7a 3d
       -0.083157495 -0.051948976 0.10841518 0.061196465
0000a0 d7 ba 1f 3d f5 0d ca 3d 6b bc cf 3d 6a ee e8 3d
       0.038996544 0.09865943 0.1014336 0.11373599
0000b0 01 cf f4 3d e9 fd 16 bd 7a b4 da 3d 56 0c 53 bd
       0.11953545 -0.03686324 0.106789544 -0.051525436
0000c0 c7 3e d1 3c 43 02 94 bd ed 0a e8 3d c0 7e f3 3d
       0.02554263 -0.07226994 0.11330209 0.1188941
0000d0 02 ea d5 3d 01 1e 5d 3c dc 16 e5 3d b6 69 eb 3d
       0.10445024 0.013495923 0.11186001 0.11494772
0000e0 b1 78 80 bd 4c d6 9d bd ee 98 fa 3d bc 74 f2 3d
       -0.0627302 -0.077068895 0.122362 0.118386716
0000f0 1e 64 b1 bd ac 61 8f bd b7 17 d8 3d 0f bd f6 ba
       -0.08661674 -0.07001051 0.10551398 -0.0018824654
000100 db ab df 3d f7 49 ea 3d 8d d1 dd 3d cc c2 8d bd
       0.10921451 0.11439889 0.10830984 -0.0692192
000110 a0 55 bb 3d a5 74 ec 3d 25 9b 8e 3d 45 90 6c bd
       0.09147191 0.11545686 0.06963185 -0.057754774
000120 10 98 84 bd 59 4f 80 bd 88 d8 d6 3d 10 e7 aa bd
       -0.06474316 -0.06265134 0.10490519 -0.08344853
000130 ee bb 08 bd 50 07 f0 3d 8a 3a 82 3d cb 3a 80 bd
       -0.03338235 0.11720145 0.06358822 -0.06261214
000140 61 59 8b bd d1 30 93 bd f9 1e 11 3d c0 80 5b bd
       -0.06804157 -0.07187045 0.03542993 -0.053589582
000150 c7 71 e0 3d bb 58 ad bd 4f 5e ca 3c e5 0b 6f bd
       0.10959201 -0.084641896 0.024703173 -0.058360953
000160 28 4a 88 bd ed 51 7e bd f5 c2 a1 3d 18 0b 80 bd
       -0.06654769 -0.06208985 0.07898513 -0.06252116
000170 ad b5 e2 3d f2 79 89 bc cc 2c c6 3d 06 58 eb 3d
       0.11069808 -0.01678178 0.09676513 0.114913985
000180 de f9 8e 3d 29 24 d5 3d a4 d0 eb 3d 2a e1 b9 3c
       0.06981252 0.104072876 0.115144044 0.022690374
000190 66 21 64 3d 0c 25 cd bd 64 fe 83 bd c7 5b d0 3d
       0.055695914 -0.10016832 -0.064450055 0.10173755
0001a0 b3 ab d4 3d cb ac b3 bd f1 2e e5 3d 3a 2b f1 3d
       0.103843115 -0.08773192 0.11190594 0.11775823
0001b0 1b 66 44 3c 8b 31 48 bc 27 98 b4 3d 07 40 f3 3d
       0.0119872345 -0.012218843 0.08818083 0.118774466
0001c0 d4 50 b5 bd f5 15 d1 3d be ee dc 3d 86 d8 4e 3b
       -0.08853307 0.10209266 0.10787724 0.0031562163
0001d0 da 83 d8 3d f4 eb 3a 3d 33 3d ea 3d 56 f7 5a bd
       0.10572024 0.04563518 0.11437454 -0.053458534
0001e0 eb 2e ef 3d 26 38 a5 3d 27 bd 84 bd 61 d7 d1 3d
       0.11678871 0.0806735 -0.064813904 0.102461584
0001f0 1c ea e2 3d 60 bf ef 3d 24 c0 0e 3d ac 25 eb 3d
       0.11079809 0.11706424 0.03485121 0.11481795

model.4.weight f4 [128, 128]
000000 8d 04 4a 3e 53 06 c1 bd f8 92 e3 3c d4 61 c1 3a
       0.19728298 -0.094250344 0.027780041 0.0014753886
000010 70 3a 82 3e ef 79 7e bd 2b a7 a6 3d 51 51 a5 3e
       0.2543521 -0.062128004 0.081373535 0.32288602
000020 80 7b 44 3e 7c 41 bf 3b 81 62 91 3e 7f 7e 60 3d
       0.19187737 0.005836664 0.28395465 0.054808136
000030 87 df a7 3e 63 94 fe 3c e9 ae 82 3e a5 a9 47 3e
       0.32787725 0.031076616 0.2552407 0.19498308
000040 98 78 18 bd 57 89 47 3e a6 bf 2e 3e 80 42 1e 3e
       -0.037224382 0.19485985 0.17065296 0.15455055
000050 73 52 d2 3b 46 0c 04 3e 80 83 01 be 18 ca 49 3e
       0.00641852 0.12895307 -0.1264782 0.19705999
000060 49 6f 15 bd b1 f8 3a bc ec 04 b8 3b 88 f2 4e 3e
       -0.036483083 -0.011411832 0.005615821 0.20209706
000070 e8 0a 99 3d ee 9f 33 be bf d5 91 3e 47 6b 99 bc
       0.07472783 -0.17541477 0.28483388 -0.018727912
000080 88 7b db 3d ec 7f 97 3c 70 09 8a 3d 18 85 35 bd
       0.10716921 0.018493615 0.06740081 -0.04431638
000090 17 e5 44 3e b5 15 57 3d 59 78 6d 3e b6 4e ff 3d
       0.19228016 0.052510936 0.2319044 0.12466185
0000a0 ff f8 fe bd 58 77 8a 3c a8 68 1a be 80 71 79 3e
       -0.12449836 0.01690261 -0.15078986 0.24359703
0000b0 05 e4 2a 3d 95 a7 db 3d c9 7f 60 3e 59 b9 5e 3e
       0.041721363 0.10725323 0.21923746 0.21750392
0000c0 13 6c 5c 3e 53 54 9b 3e 56 e6 19 3e 8e 83 96 bc
       0.21525602 0.30337772 0.15029272 -0.018373277
0000d0 10 05 5f 3d eb 2b 41 3e 3a cf a2 3e f6 90 97 bc
       0.054448187 0.1886441 0.31798726 -0.01850174
0000e0 5b 25 f3 3d 5c 0d 93 3e 53 e7 da 3c 36 0a 3c 3e
       0.11872359 0.2872113 0.026721632 0.1836327
0000f0 ca f4 a0 3d 2e dd 11 be 3d 71 c1 3d 63 a0 45 bd
       0.0785919 -0.1424453 0.094454266 -0.04824866
000100 39 61 a9 bd 16 8d 6a 3e 78 26 82 3e cf 33 94 3e
       -0.08270497 0.22905383 0.25419974 0.28945777
000110 f9 fd fb bc 19 f9 88 3e 63 70 3e 3e 44 a0 11 3e
       -0.030760752 0.26752546 0.1859756 0.14221293
000120 10 c9 a6 bd 4b 56 c5 bd 41 4e a8 3e 3a ed 0c bd
       -0.081438184 -0.096356 0.32872203 -0.034405924
000130 5d f8 03 3c 6c 8b 5b bd 46 f1 ef 3d 1c 6b 49 3e
       0.00805482 -0.05359976 0.11715941 0.19669765
000140 5f dd 09 bc 3e 74 05 be 24 d6 84 bd c9 d0 b6 3c
       -0.008414595 -0.13032624 -0.064861566 0.022316353
000150 ac 92 61 3d aa 03 1e 3d 2c cc c7 3d e3 fb 8e 3d
       0.055071518 0.038577713 0.097557396 0.06981637
000160 df 07 bc bc 18 91 4f 3e e3 e6 0e 3d 25 30 85 3d
       -0.022952972 0.20270193 0.03488816 0.065033235
000170 b5 dc 5e 3e 17 d8 26 3e e1 53 92 3e 45 df 22 3e
       0.2176388 0.16293369 0.2857962 0.15905483
000180 e1 d4 cb bc b3 d8 62 3e fc fc 41 3d b3 dd f7 bd
       -0.024881782 0.22152977 0.047360405 -0.12102833
000190 5a 27 02 bd a6 58 11 3d ac 55 d8 3d 96 c4 ec bd
       -0.03177581 0.035484932 0.105632156 -0.11560933
0001a0 77 74 41 3e fd 8f c9 bd 2b 2f 89 3e 3d db 3f 3e
       0.18892084 -0.09841917 0.267938 0.18735977
0001b0 e7 eb 08 be 38 c3 e6 ba f6 53 88 3e fe c4 81 3d
       -0.1337124 -0.0017605787 0.26626557 0.063364014
0001c0 b3 bf db 3b ec e2 7a 3e 6b 9e 8f 3e 1e 14 db 3c
       0.006706202 0.24500626 0.2805055 0.026742991
0001d0 b8 d4 30 3e 7f c3 de bd 88 8d 22 3e a8 d7 0a bd
       0.17268646 -0.10877132 0.15874302 -0.033897072
0001e0 ff a4 3d bd 3e b1 6d 3d 19 fe ed bd 47 18 af bd
       -0.04629993 0.05803036 -0.11620731 -0.085495524
0001f0 ef 53 85 3e 46 98 cf 3c f6 b3 51 be 26 ef 51 3e
       0.260406 0.025341164 -0.20478806 0.20501384
000200 79 1a 73 be 5f ac 87 be 85 1c 3c be 89 2e a2 3d
       -0.23740567 -0.26498696 -0.18370254 0.07919032
000210 e3 96 01 be 46 ec 1b 3e 63 48 13 3e e1 10 82 be
       -0.12655215 0.1522685 0.14383082 -0.25403503
000220 ce 7c ac bd e1 ea 9d 3d fb 13 dc bd ae 81 1d 3d
       -0.08422242 0.07710815 -0.107459985 0.03845375
000230 48 81 c8 bc da 03 d7 3d af 8f cb bc e5 c2 7a bd
       -0.024475709 0.104987815 -0.024848787 -0.061221022
000240 15 b7 0b 3e 01 d1 e7 bc d2 29 50 3c a2 4c f0 3d
       0.13644059 -0.028297903 0.012705283 0.117333665
000250 5c ba 46 be 86 d8 fe 3d 06 87 cb 3d 96 ee fa 3d
       -0.19407028 0.12443642 0.09937863 0.12252538
000260 bb 6f 24 be 49 3f d1 3d 6f bb ca bd fd e9 33 bd
       -0.16058247 0.10217149 -0.09899031 -0.04392432
000270 c0 51 63 be 85 09 b9 3c 96 e9 5c bd 6f af 82 be
       -0.22199154 0.022587547 -0.053933702 -0.2552447
000280 f3 ef 48 3d 97 10 95 3d fd 2b c6 3d 93 50 1a 3e
       0.04905696 0.07278555 0.09676359 0.15069799
000290 87 ef c7 bd 12 ba 61 be bd 5e 05 3e 79 73 86 be
       -0.09762483 -0.22043636 0.13024421 -0.26259974
0002a0 8e c8 21 be 7f 02 b9 bd d9 2e 98 3c 6b 08 66 be
       -0.15799162 -0.09033679 0.018577026 -0.22464149
0002b0 01 5d 25 be 5e 22 39 be 3d 4b 7a 3c e5 cf 7a be
       -0.1614876 -0.18079516 0.015276727 -0.24493368
0002c0 8f cd a4 bb 7c 9a 89 bc d1 43 00 be 08 60 4f bc
       -0.0050293873 -0.016797297 -0.1252587 -0.012657173
0002d0 b8 5d 68 be 2a e5 8e 3d 6d 35 c0 3d 1d e4 23 be
       -0.22692001 0.06977303 0.0938519 -0.16004987
0002e0 82 d0 7c be 76 86 73 3d 44 c9 e6 3c 1c da 4c bd
       -0.24688914 0.059454404 0.028172143 -0.050012693
0002f0 8f da c8 3d c5 c0 a8 3c 6a fa 13 3e 44 0b 44 be
       0.09807312 0.020599732 0.14450994 -0.19144922
000300 0a 4b 4b be c6 63 83 bd 21 c0 93 3d c6 a0 b2 3d
       -0.19852844 -0.06415515 0.0721438 0.08722071
000310 8a bb 24 be 4e 09 62 bd f5 8a 5b be 96 c7 c0 3b
       -0.16087165 -0.055184655 -0.21439727 0.0058831675
000320 c5 66 1a 3d eb 40 e6 bd 10 fd 4d be 53 51 6f bc
       0.037695665 -0.11242851 -0.20116067 -0.014606792
000330 63 4e f7 3d e0 d3 2f be 2d 56 8e be 5e 46 71 be
       0.12075498 -0.17170668 -0.27800122 -0.23561999
000340 9c ef 8e 3d bc b3 74 bd 3b 17 ae 3d 2a fc 2b bd
       0.069792956 -0.05974172 0.085005246 -0.04198853
000350 8b b6 05 be 46 fa 17 be 5e 05 5b be ef d5 75 be
       -0.13057916 -0.14841565 -0.21388766 -0.2400739
000360 4c f5 46 be db 1e 05 3e 98 4b 4f be 9e 7f 0e 3d
       -0.19429511 0.13000052 -0.2024368 0.034789674
000370 ee 85 dd 3c 38 dc 00 be 55 0c 36 be fb ac 6c be
       0.027041402 -0.12584007 -0.17778142 -0.23112862
000380 6d 2f 7a 3d 66 a5 8d be 5c 87 1b 3c 3a 53 8d 3d
       0.061080385 -0.27665251 0.009492721 0.0690064
000390 f0 8e 5c be 84 78 ff 3d 23 4a 0f be 3f b1 ea 3c
       -0.21538901 0.124741584 -0.13993125 0.02864897
0003a0 54 63 6d 3c b5 31 5d be b3 b0 83 be 7e 26 0b be
       0.014489014 -0.21600993 -0.25720748 -0.13588902
0003b0 30 c8 34 be 93 4c cb 3d 33 cb 35 3c b6 7f c0 3d
       -0.1765449 0.09926715 0.01109581 0.09399359
0003c0 78 bf 87 bd bc 5f 11 bd df 80 c3 3d 6d 5a 6c be
       -0.06628317 -0.03549169 0.095460646 -0.2308137
0003d0 cc b3 2d 3d 3b a0 5f be 0e d0 72 be 04 f8 6b 3d
       0.042407796 -0.21838467 -0.23712179 0.057609573
0003e0 66 aa 02 be c5 b2 87 bd f1 58 04 3e 74 e2 8c 3d
       -0.12760314 -0.066258945 0.12924553 0.0687913
0003f0 e3 b2 fe bd 12 9a db 3d 3a 9f 0e be 73 06 e2 bd
       -0.12436464 0.10722746 -0.13927928 -0.11036386

model.4.bias f4 [128]
000000 a3 6d fc 3d 2f 19 80 bd db 7d ff 3d 4f 69 7c bd
       0.12325599 -0.062548034 0.12475177 -0.061623868
000010 76 09 f5 3d ab f5 7b bd 47 cc f3 3d 38 fa 75 bd
       0.11964695 -0.061513584 0.11904197 -0.06005308
000020 34 f9 75 bd 24 fb 75 bd e1 5f 86 bd 12 e5 00 3e
       -0.06005211 -0.06005396 -0.06561256 0.12587383
000030 9b 31 92 bd 63 d9 f3 3d 6d c5 98 bd 2f 98 f9 3d
       -0.07138368 0.119066976 -0.07459531 0.1218723
000040 18 7d ac bd 14 4d f7 3d ef f1 04 3e a5 90 e9 3d
       -0.08422297 0.12075248 0.12982915 0.11404542
000050 e9 42 f6 3d af 35 b0 bd 31 fe f7 3d a2 d8 04 3e
       0.12024481 -0.08603989 0.1210903 0.12973264
000060 52 4e 77 bd de fa 75 bd 46 99 77 bd 83 5a e4 3d
       -0.060377426 -0.0600537 -0.060448907 0.11150076
000070 f8 15 8e bd f8 5e 9c bd 2d 4c 06 3e ff c5 77 bd
       -0.06937784 -0.07635301 0.13114996 -0.06049156
000080 9d cb fb 3d 1c 9e 7b bd 20 fb 75 bd c3 91 f9 3d
       0.122946955 -0.06143008 -0.060053945 0.12186005
000090 1e fb 75 bd f4 1b 09 3e 23 36 f5 3d 7e a9 f4 3d
       -0.060053937 0.1338957 0.119732164 0.119463906
0000a0 f7 48 f4 3d 64 c8 07 3e 71 5c fc 3d bb 1f e7 3d
       0.119279794 0.13260037 0.12322319 0.11285349
0000b0 f5 81 fe 3d f5 2c 7b bd db 68 82 bd 3b 82 8a bd
       0.12427131 -0.06132217 -0.06367656 -0.06763121
0000c0 ac 76 fb 3d d3 5a 8b bd 87 78 97 bd 1f fb 75 bd
       0.12278494 -0.06804433 -0.07396036 -0.06005394
0000d0 cb 73 02 3e 4d 9a 91 bd d6 c8 02 3e c7 8b 7a bd
       0.12739484 -0.07109509 0.12771925 -0.06116846
0000e0 bf ef 0e 3e 78 9d c1 bd 74 ae 63 bd fc 11 84 bd
       0.13958643 -0.09453863 -0.055586293 -0.06448743
0000f0 61 14 00 3e 02 ac 8d bd 7e 8c e6 3d 98 d3 fe 3d
       0.12507774 -0.069175735 0.112572655 0.12442702
000100 03 d6 f5 3d 09 61 f3 3d 2d a8 03 3e 7c da 8d bd
       0.1200371 0.11883742 0.12857123 -0.06926438
000110 51 f0 75 bd d6 2b a8 bd a0 a8 04 3e 0f fb 75 bd
       -0.060043637 -0.08211486 0.1295495 -0.06005388
000120 57 27 8e bd 9c b8 b4 bd e4 f9 0d 3e d2 10 a4 bd
       -0.06941097 -0.08824274 0.13864857 -0.08011021
000130 a2 f8 a5 bd b6 41 f7 3d 79 cc d8 3d 29 fb 75 bd
       -0.081040636 0.1207308 0.10585875 -0.060053978
000140 e1 8c 8c bd d9 2c 05 3e 16 ac 8c bd 90 14 91 bd
       -0.06862808 0.1300539 -0.0686876 -0.07084
000150 2c 9a 8f bd aa 44 a9 bd ff 58 80 bd d7 e6 14 3e
       -0.07011828 -0.0826505 -0.06266975 0.14541183
000160 a7 8f a6 bd 5c 43 0d 3e 13 93 9a bd 42 26 e3 3d
       -0.08132868 0.13795227 -0.075475834 0.110912815
000170 b3 e4 f8 3d 9d 56 f1 3d 4f 21 83 bd c4 fa 75 bd
       0.12152996 0.11784098 -0.064028375 -0.0600536
000180 62 56 0b 3e 8b ae 63 bd a2 f9 75 bd 24 fb 75 bd
       0.13607171 -0.05558638 -0.06005252 -0.06005396
000190 28 41 05 3e ac 6c 03 3e 37 9e f8 3d 93 58 fc 3d
       0.13013136 0.12834424 0.12139552 0.12321582
0001a0 5b c2 e7 3d 2d d1 f2 3d 61 52 6f bd b7 62 f0 3d
       0.11316367 0.11856303 -0.058428172 0.11737578
0001b0 be 5e 8c bd c8 8e 09 3e d9 39 f4 3d 8c 15 f8 3d
       -0.06854008 0.13433373 0.11925096 0.12113485
0001c0 da 53 fa 3d 6a a1 82 bd 22 6f 09 3e 3e c3 a0 bd
       0.12223025 -0.063784435 0.134213 -0.078497395
0001d0 cb f6 e7 3d 52 9e c5 bd 2e 6c 0f 3e ac 90 01 3e
       0.11326369 -0.09649338 0.14006111 0.12652844
0001e0 a1 4a eb 3d ec 1f 7a bd ee 0c 02 3e db fd 8f bd
       0.11488844 -0.0610656 0.12700245 -0.07030841
0001f0 8d dd 78 bd 66 e1 84 bd 55 3d f9 3d c7 be fb 3d
       -0.060758162 -0.06488304 0.12169901 0.12292247

model.6.weight f4 [1, 128]
000000 19 41 0d 3e b1 18 a4 3c d9 b9 c9 bc 9b 8e 17 be
       0.13794364 0.020031305 -0.024624752 -0.14800493
000010 92 ba 5b 3e 4b 56 b1 3b c6 0b 38 3e 16 f3 d7 bd
       0.2145789 0.0054118983 0.17973241 -0.10544412
000020 1b 74 ff 3c 36 5d 30 bd f2 ea e8 bd d9 34 4e 3d
       0.031183293 -0.043057643 -0.11372937 0.05034337
000030 35 fd 9a 3c fc e0 a8 3e 0c 3d 91 bd e5 cd 3c 3e
       0.018919567 0.3298415 -0.07091722 0.18437918
000040 c3 37 32 bd ba 4f 82 3e 76 cb 9c 3e 43 0c 49 3e
       -0.04351021 0.25451452 0.30623978 0.19633584
000050 f4 67 52 3e e4 55 0d be 39 11 64 3e 2d f2 37 3e
       0.20547467 -0.13802296 0.22272195 0.17963476
000060 09 95 16 be 04 8d 87 bd bb bd 7f bd 2c e7 87 3e
       -0.1470529 -0.066186935 -0.0624368 0.26543558
000070 e8 9b 22 bd 57 fd c6 bd c8 35 39 3e ea 36 38 3d
       -0.039699465 -0.097162895 0.18086922 0.044974245
000080 51 96 81 3e 6e c6 94 bd 1e 85 8b bd bf 2f 5d 3e
       0.25309995 -0.0726441 -0.068124995 0.21600245
000090 ec cb e2 bc 96 cc 09 3e 6f ca 53 3e cf 4e 50 3e
       -0.027685128 0.1345695 0.20682691 0.20342563
0000a0 27 02 4b 3e aa b0 48 3e 76 d3 51 3e ac 37 9d 3e
       0.1982504 0.19598642 0.20490822 0.30706537
0000b0 ac 6c 0f 3e ba 0b f7 bd ac ac 9e 3c 94 b2 05 be
       0.14006299 -0.120627835 0.019369446 -0.13056403
0000c0 47 c2 90 3e bf 9c 81 3d a0 36 b8 3c 17 45 3e bd
       0.28273222 0.06328725 0.022486985 -0.046452608
0000d0 84 49 79 3e fd a7 09 bc 5a 13 e6 3d 5c 52 db 3c
       0.2434445 -0.008401868 0.1123416 0.02677267
0000e0 6b 24 d2 3d 74 30 a4 3c 49 f4 87 3b 90 6b 9d bd
       0.102608524 0.020042636 0.004148994 -0.076865315
0000f0 cf 8b 49 3e c9 75 42 bc ce 56 a9 3e 25 b6 57 3e
       0.19682239 -0.0118689025 0.3307404 0.21065576
000100 a6 8b 34 3e bd 31 8b 3e 46 9a 8b 3e 50 88 9b bd
       0.17631397 0.27186385 0.2726614 -0.07594359
000110 8f e4 e3 3c 35 22 9f 3c fe 5e 7f 3e 32 21 0e bc
       0.027818946 0.01942549 0.2493858 -0.008674907
000120 8e a4 12 3c 56 71 eb bd c3 1a 21 3e 6e 87 6f 3d
       0.008950366 -0.114962265 0.15732865 0.058478765
000130 05 68 80 bc 31 9d 72 3e a4 39 e9 3c bb c2 14 be
       -0.0156746 0.23692776 0.028469868 -0.14527409
000140 4c cb 4a 3d a5 c0 f4 3c db a2 ab bd 77 3b 19 bd
       0.049510285 0.029877016 -0.083806716 -0.037410226
000150 ef 92 71 3d 59 b5 27 bc cf a2 36 3d 56 bc db 3d
       0.058978017 -0.010236108 0.04458886 0.107292816
000160 34 34 0e 3d 6d ee 6c 3e b4 a6 2a 3c 58 01 91 3e
       0.034717754 0.23137827 0.010415722 0.28321338
000170 b3 d9 4a 3e bb 00 22 3e 95 6c 8d bc bf 44 18 3d
       0.19809608 0.15820591 -0.01726369 0.037174936
000180 e0 70 1e 3e d6 c6 44 bd a3 a0 95 bc 77 7f 36 bd
       0.15472746 -0.048041187 -0.018265074 -0.044555154
000190 3d 5f 6c 3e 43 a1 de 3d fc 76 0b 3e 5e d5 3c 3e
       0.23083206 0.10870602 0.13619608 0.18440768
0001a0 bc 7e a7 3e 98 37 ab 3e f0 1b 5b 3d 76 54 2a 3e
       0.32713878 0.33440852 0.05349344 0.16633782
0001b0 16 9e a9 bd 2c f9 52 3e 89 7a 9b 3e b9 03 85 3e
       -0.082821056 0.20602864 0.30366924 0.25979403
0001c0 ee 50 f5 3d 09 b7 0b be 3d 8d 97 3d e8 aa 13 be
       0.11978327 -0.13644041 0.07399986 -0.14420664
0001d0 c9 5e 9a 3e 90 c2 7a bd 2e c9 d4 3d c8 5a 0f 3e
       0.3015044 -0.061220706 0.103899345 0.13999474
0001e0 e4 13 82 3e 09 f0 10 be cc 1d a2 3e db 16 71 bd
       0.254058 -0.14154066 0.31663358 -0.058859687
0001f0 0c fd 3c bd 71 1c d4 bc e2 f2 95 3e ba 35 1a 3e
       -0.04613976 -0.025892468 0.29286867 0.15059558
