models/neural_networks/regression/2024-08-15_16-16-58/model.pt (torch, 533736 bytes, 7 tensors)

model.0.weight f4 [128, 777]
0	0x3df45649	0.1193052
1	0x3d286a85	0.04111721
2	0xbd404a6e	-0.04694598
3	0xbda2ad00	-0.079431534
4	0xbc666eff	-0.0140645495
5	0x3d4422f1	0.047884885
6	0xbd68666b	-0.0567383
7	0xbcee870b	-0.029117128
8	0x3dcbf00e	0.09957896
9	0xbc20bf76	-0.009811273
10	0xbd84842a	-0.06470521
11	0xbd8392bc	-0.06424472
12	0x3d3593ab	0.04433028
13	0x3c869535	0.01642857
14	0x3b0d50c0	0.0021563023
15	0xbd6e2c50	-0.05814773
16	0x3da76967	0.08174401
17	0x3cf9c49c	0.030489258
18	0xbbb285d0	-0.0054480806
19	0x3dabb503	0.083841346
20	0x3cced320	0.025247157
21	0x3d99937d	0.07498834
22	0x3d377102	0.044785507
23	0x3d7886af	0.06067532
24	0x3bf88efd	0.007585405
25	0xbd875f49	-0.06609971
26	0x3d89b7e6	0.06724529
27	0xbd9749c8	-0.073871195
28	0x3b5431e0	0.003237836
29	0xbccbd1ca	-0.024880309
30	0x3d5f9836	0.05458852
31	0xbcf6b90c	-0.030117534
32	0xbc9c123c	-0.019051664
33	0xbdabc8be	-0.08387898
34	0x3d142941	0.036172155
35	0xbd222505	-0.039586086
36	0x3c8923ac	0.016740642
37	0x3bd93820	0.006629005
38	0x3da07277	0.078343324
39	0x3d0e8518	0.034794897
40	0xbd50c2ae	-0.05096691
41	0x3da735f1	0.081645854
42	0xbcc47de4	-0.02398581
43	0x3d8d358f	0.06894981
44	0x39225afd	0.0001548342
45	0x3d97a331	0.07404173
46	0x3d3dd3f2	0.046344705
47	0xbd7abb20	-0.061213613
48	0xbd7be85b	-0.06150089
49	0x3da8c3db	0.082404815
50	0x3c887fac	0.016662441
51	0x3c75a3a0	0.0149926245
52	0x3d85ce37	0.06533473
53	0xbd9a1647	-0.0752378
54	0x3d1334e6	0.03593912
55	0x3d6c5957	0.05770239
56	0xbce107ae	-0.027469482
57	0x3d185942	0.037194498
58	0xbd3034b3	-0.043019008
59	0xbd46d94e	-0.04854708
60	0xbd493650	-0.049124062
61	0xbd62cf36	-0.055373393
62	0x3d8edc9a	0.0697567
63	0x3cc538ea	0.02407499
64	0x3d653b9a	0.055965044
65	0xbc907854	-0.017635502
66	0x3bcfbf10	0.006339915
67	0x3d4c92ee	0.04994481
68	0x3d6a8766	0.057258032
69	0x3d1d6666	0.038427733
70	0xbd7ef892	-0.062248774
71	0xba6c9700	-0.00090251863
72	0xbd5ed7bf	-0.05440497
73	0xbd8843ac	-0.066535324
74	0xbaa615dd	-0.0012671311
75	0xbcc69d38	-0.02424489
76	0x3d268a56	0.04065927
77	0x3d33b4ea	0.043873705
78	0xbd8a935c	-0.06766388
79	0xbcb979ec	-0.022641145
80	0x3c3c2d93	0.011485475
81	0x3db3b0e5	0.08773974
82	0x3dab835c	0.08374664
83	0x3d54d2da	0.051958896
84	0x3d26ed52	0.04075367
85	0xbd91ce10	-0.071193814
86	0x3dae97ed	0.08525071
87	0xbd459f51	-0.04824764
88	0xbd92adb6	-0.07162039
89	0x3ce37780	0.027766943
90	0xbcf4b3dd	-0.029870922
91	0x3d594db2	0.05305261
92	0x3ce29ba0	0.027662098
93	0xbdaa3fa8	-0.08312923
94	0x3db01705	0.085981406
95	0x3aaa77c0	0.0013005659
96	0x3cdc6454	0.026903309
97	0xbdaa70df	-0.0832231
98	0xbda9b207	-0.08285909
99	0x3d845eab	0.06463369
100	0x3d8329bf	0.06404447
101	0x3d8f1358	0.069861114
102	0x3c93aacc	0.018025778
103	0x3d878b4f	0.06618368
104	0x3d54dd6a	0.05196897
105	0xbd61d028	-0.055130154
106	0x3d44b406	0.048023246
107	0x3d6023c3	0.054721605
108	0x3c7695d1	0.015050367
109	0xbd8e7ac8	-0.069570124
110	0xbdacbfbb	-0.08435007
111	0x3d547a46	0.05187442
112	0x3d2a4eca	0.041579045
113	0x3c260637	0.010133318
114	0x3d4373ea	0.047717966
115	0x3d6c6c92	0.05772073
116	0xbcdae47a	-0.026720274
117	0x3c86f7a5	0.016475508
118	0x3d8a25ab	0.06745466
119	0xbd91441b	-0.07093068
120	0xbd42824d	-0.047487546
121	0xbc8f021c	-0.01745706
122	0xbc8fe68c	-0.017565988
123	0xbd3162f4	-0.04330726
124	0x3d8e64b7	0.069528036
125	0xbcdf3cc1	-0.02725065
126	0xbd5d3b17	-0.05401143
127	0x3d898c93	0.067162655
128	0xbd74ed30	-0.059796512
129	0xbd65d39f	-0.05611002
130	0x3da47a05	0.08031086
131	0xbda10515	-0.078622974
132	0xbd805779	-0.06266684
133	0xbb6c3c20	-0.003604658
134	0xbae94f82	-0.0017800184
135	0x3d0a08ac	0.033699676
136	0x3d6fee7e	0.058577053
137	0x3cdad2c0	0.026711822
138	0x3bc64f6e	0.006051949
139	0xbd8b23b2	-0.06793918
140	0x3da79f13	0.08184638
141	0xbda05c94	-0.07830158
142	0xbd1a47cb	-0.037666123
143	0x3d192096	0.037384592
144	0xbd6fcee8	-0.05854693
145	0x3d2e4885	0.04254963
146	0x3c4b1c9c	0.012396958
147	0x3da76ac3	0.0817466
148	0x3b230620	0.0024875477
149	0x3db20469	0.086922474
150	0x3d813951	0.0630976
151	0xbd816739	-0.06318516
152	0x3d2629da	0.040567257
153	0xbd8f2db3	-0.06991138
154	0x3d670f4e	0.05641108
155	0x3c9b497f	0.018955944
156	0xbd7e1824	-0.06203474
157	0x3d2f856b	0.042851847
158	0xbcb921c0	-0.022599101
159	0x3cacb602	0.021082882
160	0xbc6138f8	-0.013746493
161	0x3d7db05e	0.061935775
162	0xbd8fc064	-0.070191175
163	0xbcc865cc	-0.024462603
164	0x3cc5166c	0.024058543
165	0x3d919771	0.07108963
166	0x3d1454ae	0.03621357
167	0x3db072b5	0.08615629
168	0x3d797122	0.060898907
169	0xbd49423b	-0.049135428
170	0x3d9ef0b3	0.077607535
171	0xbd96eb85	-0.073691405
172	0x3d7f03c6	0.062259458
173	0xbd1721c6	-0.036897443
174	0xbd97e874	-0.07417384
175	0xbd850759	-0.06495542
176	0xbda53319	-0.08066387
177	0x3d860810	0.065445065
178	0xbd8ac970	-0.067767024
179	0xbd7ef530	-0.062245548
180	0x3d0a74d8	0.033802837
181	0x3da7cd8b	0.08193501
182	0xbc9d38a3	-0.019192046
183	0xbd52bb8c	-0.05144839
184	0xbca8dda1	-0.020613493
185	0xbc150d50	-0.009097412
186	0xbc8b59c4	-0.017010577
187	0x3d8b1b09	0.06792266
188	0xbd6ea435	-0.05826207
189	0xbd1d0d52	-0.03834278
190	0xbd8b489e	-0.0680096
191	0x3d94fc69	0.07274706
192	0x3d4a3c61	0.049373988
193	0x3cedca90	0.029027253
194	0xbda7ee7c	-0.08199784
195	0x3d68cdef	0.05683702
196	0xbd643937	-0.055718627
197	0x3c588b85	0.013216858
198	0x3c749500	0.0149281025
199	0x3c55e068	0.013053991
200	0xbca3e968	-0.020008758
201	0xbd0971ac	-0.03355567
202	0x3db0eee5	0.086393155
203	0xbd992fe4	-0.074798375
204	0x3dad4143	0.08459713
205	0xbd9d9d06	-0.076959655
206	0x3d7667fa	0.060157754
207	0x3d198b1a	0.037486173
208	0x3c711420	0.014714271
209	0x39623400	0.00021572411
210	0x3b9f66f0	0.004864566
211	0xbd25b870	-0.040459096
212	0xbccbdfbf	-0.024886964
213	0xbdaf18c6	-0.08549647
214	0xbd8f0c67	-0.069847874
215	0x3da7e9e9	0.08198912
216	0xbcc19584	-0.023630865
217	0x3d6772b6	0.05650588
218	0x3da13dcd	0.07873116
219	0xbd5bf3e9	-0.053699408
220	0xbcb7a65c	-0.022418194
221	0x3c8aa02c	0.016922079
222	0x3d859ade	0.06523679
223	0xbdaad76a	-0.08341868
224	0x3dabab6f	0.08382308
225	0xbd53118b	-0.051530402
226	0x3cc5def4	0.024154164
227	0x3d1fdc4a	0.039028443
228	0x3b06436f	0.002048697
229	0x3d105d98	0.035245508
230	0xbd65b6f4	-0.05608268
231	0xbd90c7d5	-0.07069365
232	0x3c9a123c	0.018807523
233	0xbae2c2cd	-0.0017300487
234	0xbd3b647d	-0.04575013
235	0xbcd6723c	-0.026177518
236	0xbd98d163	-0.07461812
237	0xbd6ae8ca	-0.05735091
238	0x3c149fad	0.009071273
239	0xbda71213	-0.08157744
240	0xbd268b6a	-0.0406603
241	0xbd24405a	-0.040100433
242	0xbd515855	-0.05110963
243	0xbc7ca3f0	-0.015419945
244	0x3d1492aa	0.036272682
245	0x3d509c42	0.05093027
246	0x3d1203a0	0.03564799
247	0xbcb5edf8	-0.022208199
248	0xbc051bb8	-0.008124284
249	0xbd97830e	-0.073980436
250	0x3cf46114	0.029831447
251	0x3d3c959c	0.046041116
252	0x3c9f1e47	0.019423617
253	0xbd81c638	-0.06336635
254	0xbda7d50b	-0.081949316
255	0x3d100cb6	0.035168372

model.0.bias f4 [128]
0	0x3d309f0d	0.043120433
1	0x3c8e310a	0.017357368
2	0x3d08ac1c	0.03336726
3	0x3d04e1c5	0.032441873
4	0xbaaadaa4	-0.0013035131
5	0xbc00ea6c	-0.0078683905
6	0xbcde50b1	-0.027138086
7	0x3d2bac76	0.04191252
8	0x3d0f7e68	0.03503266
9	0xbb6cbfe5	-0.003612512
10	0xbc4ccb69	-0.012499669
11	0xbc25ac74	-0.010111917
12	0xbbef125f	-0.007295891
13	0x3cc0ae8a	0.023520727
14	0xba07052a	-0.0005150611
15	0xbc997acc	-0.018735312
16	0xbc102ec8	-0.008800216
17	0x3ce3c2a4	0.027802773
18	0x3ce31e52	0.027724419
19	0xbc8950d7	-0.01676218
20	0x3cc37bab	0.02386268
21	0x3cd1fd5a	0.025633503
22	0x3ba56978	0.0050479732
23	0x3c2bdcc2	0.0104896445
24	0x3c8928b5	0.016743043
25	0xbbbc1678	-0.005739983
26	0x3bd24f24	0.0064181257
27	0x39b2d763	0.0003411128
28	0xbb9c9935	-0.004779006
29	0xbb81af49	-0.003957663
30	0x3d1bf9ab	0.0380799
31	0x3a4eb9fa	0.0007885989
32	0x3d017e2f	0.03161448
33	0x3ca67c32	0.020322893
34	0x3b6cf669	0.0036157614
35	0xbd15dfde	-0.03659045
36	0x3cc02c46	0.023458611
37	0x3c97a99e	0.018513497
38	0x3b38a70a	0.0028175735
39	0x3bdfa621	0.006825224
40	0x3ba0685c	0.004895253
41	0xbbcf9edc	-0.006336076
42	0xbba1898d	-0.0049297274
43	0xbad61402	-0.0016332867
44	0xbb5db6a7	-0.0033830793
45	0xbc378cd0	-0.011203006
46	0x3c834135	0.016022304
47	0x3b8c232e	0.0042766547
48	0xbd0b1138	-0.033951968
49	0xbc8e74a6	-0.017389607
50	0xbbcd7a34	-0.0062706713
51	0x3ce817f0	0.028331727
52	0xbc827855	-0.01592652
53	0x3cef32e8	0.029199079
54	0x3d3ab65e	0.045584075
55	0xbcd8f5d6	-0.026484411
56	0x3c44889e	0.011995463
57	0x3d298f3a	0.041396357
58	0x3c2b2ba5	0.010447417
59	0x3c4a7994	0.012358088
60	0xbbd4d67f	-0.0064952965
61	0xbc8dac57	-0.017294092
62	0x3c72f849	0.014829704
63	0x3bf391d6	0.0074331565
64	0x3d2c5280	0.042070866
65	0xbc3530ef	-0.01105903
66	0x3c0791dc	0.008274522
67	0xbcc29530	-0.023752779
68	0x3cbb2668	0.022845462
69	0xbbc68807	-0.006058696
70	0x3cea8c53	0.028631365
71	0x3c8de7b9	0.017322408
72	0x3d2abe00	0.041685104
73	0xbc5d4733	-0.013505745
74	0x3ccece0f	0.02524474
75	0xbbfcefd3	-0.007719019
76	0xbcb60154	-0.02221743
77	0xbb987693	-0.004652807
78	0xbb9f0bb6	-0.004853691
79	0x3d02fa72	0.031977125
80	0xbbcbad0f	-0.0062156986
81	0x3c04f63d	0.008115348
82	0x3c9828b2	0.018574093
83	0x3cc5e18c	0.0241554
84	0x3d6bed32	0.057599254
85	0xbbb0e7a1	-0.005398706
86	0x3cc259b6	0.023724418
87	0x3ce051f3	0.027382826
88	0x3c46f13c	0.012142476
89	0x3c9f1820	0.019420683
90	0xbc8acdb4	-0.01694379
91	0x3bb501fb	0.0055239177
92	0x3ccf6557	0.025316877
93	0x3c9450be	0.018104907
94	0x3d70da66	0.05880203
95	0x3b9c49f1	0.0047695567
96	0xbb70f012	-0.0036764187
97	0x3c34346b	0.010998826
98	0x3cad3d7e	0.021147486
99	0x3cf98412	0.030458484
100	0x3da9e167	0.08294945
101	0xbc9bfc9c	-0.019041352
102	0x3c807088	0.01567866
103	0xbc56cc5a	-0.013110245
104	0x3cac1361	0.021005334
105	0xbb326015	-0.0027217914
106	0xbbe76efe	-0.007062792
107	0x3c2e7b41	0.010649503
108	0xbcdd36f3	-0.02700374
109	0x3c94620d	0.01811316
110	0x3bfa6bc0	0.0076422393
111	0xbaccd2e4	-0.0015626815
112	0x3c8705d9	0.01648228
113	0x3cd652a1	0.026162447
114	0xbc361dfa	-0.011115545
115	0x3bb2b614	0.0054538343
116	0xbb06480f	-0.0020489728
117	0x3c9d6a87	0.019215835
118	0x3ce1bf33	0.027556991
119	0x3c9a9173	0.018868184
120	0x3d63e63a	0.055639483
121	0xbc8d6492	-0.01725987
122	0x3c5e35a4	0.013562594
123	0x3be55a7d	0.0069993124
124	0xbb821dde	-0.0039708456
125	0xbbb26fc7	-0.005445454
126	0x3d394c45	0.045238752
127	0x3d26f750	0.0407632

model.2.weight f4 [128, 128]
0	0x3e4867aa	0.19570795
1	0x3e1b2e98	0.15154493
2	0x3ddb98a5	0.10722474
3	0x3dbda0cd	0.09259186
4	0x3e21c495	0.15797646
5	0x3daac8df	0.08339094
6	0xbdd50f6d	-0.10403333
7	0x3d98ac70	0.07454765
8	0x3d90f434	0.07077828
9	0xbe37dd50	-0.17955518
10	0x3e14527a	0.14484587
11	0xbcedcd1b	-0.029028466
12	0x3de86151	0.11346687
13	0xbdaf8f7a	-0.08572288
14	0x3e27fe3f	0.16405581
15	0x3d51aba5	0.051189084
16	0xbdfbbb1c	-0.12291548
17	0x3e2058bb	0.15658848
18	0x3e2bed4f	0.16789745
19	0xbc527560	-0.012845367
20	0xbd2aaa6a	-0.041666426
21	0x3e4e4ac8	0.20145714
22	0x3d4a299b	0.049356084
23	0x3e567220	0.20941973
24	0x3c860b47	0.0163628
25	0x3e277901	0.16354753
26	0x3e4bc183	0.19898038
27	0xbe00beaa	-0.12572733
28	0xbd67b739	-0.05657122
29	0xbd3853c2	-0.045001753
30	0x3c23deb3	0.010001826
31	0xbe0126e6	-0.12612495
32	0x3d68a144	0.05679442
33	0xbbcab877	-0.0061865407
34	0x3d80339a	0.06259842
35	0xbd25f52b	-0.040517014
36	0xbddb6abb	-0.107137166
37	0x3de4130c	0.111364454
38	0xbe3a1cf4	-0.18175107
39	0xbe0070c3	-0.12543015
40	0x3d8c34c8	0.06846005
41	0x3e0abe82	0.13549235
42	0x3e3679f2	0.17819956
43	0x3e2dc9d8	0.16971529
44	0xbe5a4f7c	-0.21319383
45	0xbda6b8bf	-0.08140706
46	0xbdcf149e	-0.10111354
47	0xbdf9604a	-0.12176569
48	0x3e4dd223	0.20099692
49	0xbd9067ed	-0.07051072
50	0x3d88c84f	0.06678831
51	0xbe2a6054	-0.16638309
52	0xbb405413	-0.0029346987
53	0x3e4f1cf0	0.20225883
54	0xbcf0c4eb	-0.029390773
55	0x3dd2a8a8	0.10286075
56	0xbdb18970	-0.08668792
57	0x3e0ac5db	0.13552038
58	0x3d8ae59b	0.06782075
59	0x3a312fa9	0.0006759116
60	0xbd73500b	-0.059402507
61	0x3d375abd	0.04476427
62	0x3d9caef5	0.07650558
63	0xbe164e48	-0.146783
64	0xbdf4c4bc	-0.119515866
65	0xbd93430d	-0.07190523
66	0x3d89b5d5	0.06724135
67	0x3d97ab51	0.07405723
68	0xbe2c57f4	-0.16830426
69	0xbdc05c0a	-0.09392555
70	0xbd90b31b	-0.07065412
71	0xbd985c5c	-0.07439491
72	0x3e18cc9c	0.14921802
73	0x3dcb9a30	0.09941518
74	0x3cca89a3	0.024723833
75	0xbde15a09	-0.11003501
76	0x3e4bdf66	0.19909438
77	0x3d538e8d	0.05164962
78	0x3e0d627b	0.13807099
79	0xbe498911	-0.19681193
80	0xbd43e920	-0.047829747
81	0xbe4674e7	-0.19380532
82	0x3de53adb	0.111928664
83	0x3cc01a60	0.023450077
84	0xbe58fbf0	-0.21189857
85	0x3d37d9f5	0.044885594
86	0x3d4f5316	0.050616346
87	0x3c78988c	0.015173089
88	0x3e10aace	0.14127657
89	0x3e1d2771	0.15347077
90	0xbe4431b5	-0.19159587
91	0xbd5bd474	-0.053669408
92	0x3e14b0ff	0.14520644
93	0xbd491d0a	-0.04909996
94	0xbe53e114	-0.20691329
95	0xbd8f2db5	-0.0699114
96	0xbc778baa	-0.015108982
97	0xbe447ae7	-0.19187509
98	0x3e2bb9f5	0.16770156
99	0x3e128ed4	0.14312297
100	0xbdb65da7	-0.089045815
101	0xbe3ad3d5	-0.1824487
102	0x3e3c644c	0.18397635
103	0xbe0dea21	-0.13858844
104	0x3e4ffd28	0.20311415
105	0x3e44bec6	0.192134
106	0xbe079d0d	-0.13243504
107	0xbdda915d	-0.10672257
108	0xbde517db	-0.11186191
109	0xbdca35c9	-0.0987354
110	0xbd8d188b	-0.06889447
111	0xbdaf3e71	-0.08556832
112	0xbe33836f	-0.17530607
113	0x3d8ad9d9	0.067798324
114	0x3e3efa89	0.18650259
115	0xbe2abed0	-0.16674352
116	0xbdd70631	-0.10499228
117	0xbd694f95	-0.05696066
118	0x3e0da073	0.13830738
119	0xbe03f6da	-0.12887135
120	0xbce80029	-0.028320389
121	0x3ddfbd76	0.10924809
122	0xbdde5290	-0.10855591
123	0xbca5495c	-0.020176582
124	0xbe2c82e9	-0.16846813
125	0x3dacc609	0.0843621
126	0xbe1e0c5e	-0.15434405
127	0x3e3daead	0.18523665
128	0x3d4d3d67	0.050107386
129	0xbc8942d9	-0.016755508
130	0xbc16fb90	-0.009215251
131	0xbb58c7ec	-0.0033078147
132	0xbe18fecc	-0.14940947
133	0x3d8ee6bd	0.069776036
134	0xbe186a01	-0.14884187
135	0x3d98fbe4	0.07469919
136	0xbcf0dfeb	-0.029403647
137	0x3e01f0e9	0.12689556
138	0xbd0b460d	-0.034002353
139	0x3c3c88ca	0.011507222
140	0xbdd6c9ed	-0.10487733
141	0x3e43ffca	0.19140545
142	0xbd34746d	-0.044056345
143	0xbbf77a4d	-0.007552421
144	0xbe2bb12b	-0.16766803
145	0x3b8b790e	0.004256374
146	0x3e2c6b0e	0.16837713
147	0x3e59732c	0.21235341
148	0xbdbbb04f	-0.091644876
149	0xbe502894	-0.2032798
150	0xba8aa28e	-0.001057701
151	0x3e286b8c	0.16447276
152	0xbe1ca994	-0.15299064
153	0x3e01817b	0.12647049
154	0xbde786f8	-0.1130504
155	0x3e4799fa	0.19492331
156	0xbe3dc45e	-0.1853194
157	0xbe4077a2	-0.18795636
158	0xbe4c872a	-0.19973436
159	0x3e45db07	0.19321834
160	0x3da7a5eb	0.08185943
161	0xb9319b17	-0.00016937811
162	0xbbd7d61b	-0.0065868027
163	0x3e4283c2	0.18995574
164	0x3cfcd967	0.030865384
165	0xbdc339e5	-0.09532527
166	0x3d7d52b5	0.061846454
167	0xbd237b62	-0.03991259
168	0x3c677909	0.014127978
169	0xbda6e65b	-0.081494056
170	0x3c04872f	0.008088871
171	0xbe4b5902	-0.19858173
172	0xbe44a764	-0.1920448
173	0x3e1cf602	0.1532822
174	0x3e2988a1	0.16556026
175	0x3e1c481e	0.15261886
176	0x3e07e185	0.13269623
177	0xbe2d6ee7	-0.16936837
178	0xbda64337	-0.08118289
179	0xbe199f29	-0.15002121
180	0xbcecbb25	-0.028897831
181	0xbddb1b29	-0.1069854
182	0xbae7da01	-0.0017688872
183	0xbe0e21ba	-0.13880053
184	0xbe36042a	-0.17775026
185	0xbdfa1617	-0.122112446
186	0x3d1387cf	0.03601819
187	0xbd81265a	-0.06306143
188	0x3e2be3cf	0.16786121
189	0xbd741a71	-0.05959553
190	0x3deb7349	0.11496598
191	0xbe4722b3	-0.1944683
192	0x3da87b38	0.08226627
193	0xbc8c1025	-0.017097542
194	0x3e0cb4c5	0.13740833
195	0x3e551344	0.2080813
196	0xbcdf9400	-0.027292252
197	0xbd9a73df	-0.07541632
198	0x3e19c37d	0.15015979
199	0xbca5997b	-0.020214787
200	0x3ce67c13	0.028135335
201	0xbcd10f2b	-0.025519928
202	0x3e517280	0.20453835
203	0x3e54c0cf	0.20776676
204	0xbdbbc1ce	-0.09167825
205	0xbe16eb52	-0.14738205
206	0x3d9f40e6	0.0777605
207	0x3e32f2ef	0.17475484
208	0xbd926e22	-0.071499124
209	0xbba058df	-0.0048934068
210	0xbe5b2a67	-0.21402894
211	0xbe0d9069	-0.1382462
212	0x3e1ff76a	0.15621725
213	0xbd4ce285	-0.050020713
214	0x3e3f16e4	0.18661076
215	0x3da8a681	0.08234883
216	0xbc58f6a2	-0.013242396
217	0xbe15f0a3	-0.14642577
218	0xbd430a4b	-0.047617238
219	0xbcb8c372	-0.022554133
220	0xbd13e024	-0.03610243
221	0x3d90b0f9	0.07065005
222	0x3e423389	0.18964972
223	0xbe3f7e41	-0.18700506
224	0x3e39362e	0.18087074
225	0x3e0f0b1a	0.13969079
226	0xbcd21774	-0.025645949
227	0x3e18b295	0.14911874
228	0xbe2d2983	-0.16910367
229	0x3dfdef19	0.1239912
230	0x3dd36f79	0.10323996
231	0x3dd64008	0.10461432
232	0x3dd54445	0.10413412
233	0x3d55ae34	0.052168086
234	0xbd67a85f	-0.056557056
235	0xbe4b9f11	-0.19884898
236	0xbdd83fb8	-0.105590284
237	0x3e5841c8	0.21118844
238	0x3ce359c4	0.027752765
239	0x3e11cb5a	0.14237729
240	0x3db47bf2	0.08812703
241	0xbd738073	-0.05944867
242	0x3e052960	0.13004065
243	0x3dc5be85	0.09655479
244	0xbe1f3e5b	-0.1555113
245	0xbe080be0	-0.1328578
246	0x3dd5d046	0.10440116
247	0x3d8b770b	0.06809815
248	0xbc85a887	-0.016315712
249	0x3e5845fc	0.21120447
250	0x3e0948fa	0.13406745
251	0xbd86f752	-0.06590141
252	0x3ca54432	0.02017412
253	0xbe0f9ebf	-0.140254
254	0xbd5eff3c	-0.05444263
255	0xbda922b8	-0.08258575

model.2.bias f4 [128]
0	0x3c6f525b	0.014607037
1	0xbc7573cf	-0.014981224
2	0xba8b92a9	-0.0010648567
3	0x3c29f4ed	0.010373336
4	0x3deac7b8	0.114638746
5	0xbbb16131	-0.0054131974
6	0xbbabeee6	-0.005246985
7	0xbbd358e3	-0.006449805
8	0x3d52baa5	0.05144753
9	0x3cdb01c2	0.026734237
10	0xb9b6557b	-0.00034777433
11	0x3d78c297	0.06073245
12	0x3adbff85	0.0016784525
13	0x3c892a23	0.016743725
14	0x3b64dcff	0.0034921763
15	0xbb44175a	-0.0029921145
16	0x3c28b22a	0.010296384
17	0x3b81d44f	0.0039620767
18	0x3b51dcdc	0.0032022512
19	0x3d90005e	0.0703132
20	0x3d69da8e	0.057093196
21	0x3cea1f45	0.028579364
22	0xbcc7c256	-0.024384659
23	0xbab7538f	-0.0013986694
24	0x3cea0975	0.028568963
25	0x3c1a6b8f	0.009425058
26	0xbbf9a10b	-0.007618075
27	0x3c95953d	0.018259639
28	0x3cd29c64	0.025709338
29	0x3cc033d3	0.023462212
30	0x3bf1852d	0.007370612
31	0x3b93877a	0.004502234
32	0x3d431d08	0.04763511
33	0xbb4f5c71	-0.0031640793
34	0xbc199e3a	-0.009376103
35	0x3bbcbcc0	0.0057598054
36	0xbc57ead4	-0.013178546
37	0x3d2afe17	0.041746225
38	0x3c76c0be	0.015060602
39	0x3d0ed57e	0.03487157
40	0x3d3ed90b	0.046593707
41	0xbcb58b22	-0.02216107
42	0xbaae5e1e	-0.0013303196
43	0xbc66680a	-0.014062891
44	0xbd0b0472	-0.033939786
45	0x3cbf185f	0.02332705
46	0xbb9c73bd	-0.0047745393
47	0xbbad2710	-0.0052841976
48	0xbb94955f	-0.004534408
49	0x3ba18018	0.0049286
50	0x3c8f5595	0.017496863
51	0xbab9e0bc	-0.0014181356
52	0xbc122359	-0.00891956
53	0x3c4dae82	0.012553813
54	0xbc8fa95a	-0.017536808
55	0xbc17ca99	-0.009264612
56	0xbb516f9e	-0.0031957398
57	0xbabe718f	-0.0014529693
58	0xbb0a488d	-0.0021100373
59	0x3d364b88	0.044505626
60	0x3c990e7a	0.01868366
61	0x3c605042	0.01369101
62	0x3d133e82	0.035948284
63	0xbca30874	-0.019901492
64	0xbb6b0b6a	-0.0035864958
65	0x3bf27c53	0.0074000745
66	0x3c892130	0.016739458
67	0xbb887f82	-0.0041655907
68	0x3c85a780	0.016315222
69	0xbc30633c	-0.010765847
70	0x3c825fce	0.015914824
71	0xbb3dc11f	-0.002895422
72	0x3c0551f9	0.00813722
73	0xbb65e163	-0.0035076968
74	0x3abb4e80	0.0014290363
75	0x3bd43f32	0.00647726
76	0xbc9ec7b3	-0.019382333
77	0x3b82b774	0.0039891545
78	0xba71a9fd	-0.00092187506
79	0x3c583e24	0.013198409
80	0x3bd0df0a	0.0063742446
81	0x3b498c68	0.0030753855
82	0x3dbf1832	0.09330787
83	0x3d423272	0.04741139
84	0x3c0b31d0	0.008495763
85	0x3bfa8cfd	0.0076462016
86	0x39f08848	0.00045877905
87	0x3d055676	0.03255316
88	0x3d0bdb9c	0.034144983
89	0x3b8715e9	0.004122485
90	0x3ce92f2e	0.02846488
91	0x3d4857a8	0.04891172
92	0x3ca43e44	0.020049222
93	0x3c1cf5b3	0.009580064
94	0xbd0e545f	-0.03474843
95	0x3ca6fb6e	0.020383563
96	0xbd35840b	-0.04431538
97	0x3cf151d6	0.029457968
98	0x3cd429b5	0.025898794
99	0x3d5652e0	0.05232513
100	0x3da273dd	0.079322554
101	0xbcb2d358	-0.021829292
102	0xbc998088	-0.018738046
103	0x3a99fe10	0.001174869
104	0xbc2d3989	-0.0105727995
105	0xbb9523cd	-0.004551387
106	0x3c32f17f	0.010921835
107	0xbc825ed4	-0.015914358
108	0x3c67e490	0.014153615
109	0x3cb2fb60	0.02184838
110	0xbca87040	-0.020561337
111	0x3d11b5a6	0.035573624
112	0xbd000857	-0.031257953
113	0x3d142c4d	0.03617506
114	0xbb459062	-0.0030145873
115	0x3c3d1656	0.01154097
116	0x3d818dad	0.06325851
117	0x3aa6d346	0.0012727759
118	0x3c07b9a0	0.008284003
119	0xbb135323	-0.0022479973
120	0x3d10a4b4	0.035313323
121	0xbaad977d	-0.0013244
122	0x3d7dd805	0.06197359
123	0xbca12e64	-0.019675441
124	0xbc75f3a3	-0.015011701
125	0x3b47644f	0.0030424779
126	0x3bc076f7	0.0058735567
127	0x3cbadcc8	0.022810355

model.4.weight f4 [128, 128]
0	0x3e26ceb3	0.16289787
1	0x3dcfb727	0.101423554
2	0x3d6e4fb7	0.05818149
3	0x3dfcdc4c	0.12346706
4	0x3d0c9f82	0.034331806
5	0x3e3fb70b	0.18722169
6	0xbdbabc68	-0.09117967
7	0xbd65b60b	-0.056081813
8	0xbe007ed8	-0.12548387
9	0x3c9ed955	0.019390741
10	0xbd24fd24	-0.040280476
11	0x3c094799	0.008378887
12	0x3d0c18b3	0.034203243
13	0x3e5dd4a7	0.21663152
14	0xbd3791de	-0.044816844
15	0xbcce15af	-0.025156824
16	0xbcc628d1	-0.024189385
17	0x3dd455e2	0.10367943
18	0x3e237b77	0.15965067
19	0x3e3700ec	0.17871445
20	0xbe4cf570	-0.20015502
21	0x3d2c6feb	0.04209892
22	0x3e214f95	0.15753014
23	0xbe33820e	-0.1753008
24	0x3d94c9ab	0.072650276
25	0x3e1d163d	0.15340514
26	0xbcffbed0	-0.031218916
27	0xbdb10bcb	-0.086448275
28	0x3da468c9	0.08027799
29	0x3d4d4728	0.050116688
30	0x3e02f3a3	0.12788253
31	0xbe1a6995	-0.15079339
32	0xbdea8c23	-0.1145251
33	0x3e5daf6e	0.21648952
34	0x3d48fedf	0.04907119
35	0xbe1da12c	-0.15393513
36	0x3db02fcf	0.08602869
37	0xbe109a48	-0.14121354
38	0xbdef08f5	-0.1167163
39	0xbe26993f	-0.16269396
40	0x3e1022b4	0.14075738
41	0x3e5697b5	0.20956309
42	0x3e287ece	0.16454622
43	0xbe2d4c8b	-0.1692373
44	0x3d9af311	0.075658925
45	0xbc49314f	-0.0122798225
46	0xbe5c1e01	-0.2149582
47	0x3e5c92dd	0.21540399
48	0xbe1371ef	-0.14398931
49	0xbe18ab42	-0.1490908
50	0x3dd48abf	0.10378026
51	0xbad4ab95	-0.0016225452
52	0x3e309114	0.17242843
53	0x3cf731f1	0.030175181
54	0x3dcbcd93	0.099513195
55	0x3e22909b	0.15875475
56	0xbddd2216	-0.10797517
57	0x3bf9a4cf	0.0076185237
58	0x3be9d851	0.0071363826
59	0x3d8f497a	0.069964364
60	0xbe492cbe	-0.19645974
61	0x3d281773	0.041037988
62	0x3d8f8ea2	0.07009627
63	0x3de971ce	0.1139866
64	0x3de1a9a2	0.11018683
65	0x3e3c7266	0.18403015
66	0xbe189243	-0.14899544
67	0xbd882fee	-0.06649767
68	0xbceac83e	-0.028659936
69	0xbe215f6f	-0.15759061
70	0xbe2eb043	-0.17059426
71	0xbd857983	-0.06517317
72	0xbe3b037e	-0.18263051
73	0xbda453f0	-0.08023822
74	0xbe07a48c	-0.13246363
75	0xbdda6aa7	-0.106648736
76	0x3ccf8be6	0.025335263
77	0x3e03bd1b	0.12865107
78	0x3debfcf1	0.11522854
79	0xbdc19d7c	-0.09453866
80	0x3e0d66f9	0.13808812
81	0x3d316c57	0.04331621
82	0xbe0c8d0f	-0.13725685
83	0x3dfddb96	0.12395398
84	0x3d363cf4	0.044491723
85	0x3e4d68da	0.20059529
86	0x3b0545d2	0.0020335806
87	0xbdd5eede	-0.10445951
88	0x3e44c377	0.19215189
89	0x3daa6cca	0.08321531
90	0x3d06bbf1	0.03289408
91	0x3e5ca062	0.21545556
92	0xbe32da5c	-0.1746611
93	0xbde96b5c	-0.1139743
94	0xbe160724	-0.14651161
95	0x3e45980c	0.19296283
96	0x3d51e45d	0.051243175
97	0xbdfff8b7	-0.124986105
98	0x3dbdaea2	0.09261824
99	0x3e030d7d	0.12798114
100	0x3d9f8840	0.077896595
101	0xbe14f7c0	-0.14547634
102	0x3d38b28e	0.045092158
103	0x3de4ca7c	0.11171433
104	0xbdec979a	-0.11552353
105	0x3e4b64f8	0.19862735
106	0x3e2c7162	0.16840127
107	0x3cce27f0	0.025165528
108	0xbe2e3a5c	-0.1701445
109	0x3d79b01e	0.060958974
110	0x3e01aa00	0.12662506
111	0x3d2a36bb	0.0415561
112	0xbd849bc6	-0.06475024
113	0xbd879bb8	-0.06621498
114	0x3e44f573	0.19234256
115	0x3e39137e	0.18073842
116	0x3d417b8a	0.047236957
117	0xbe588759	-0.21145381
118	0x3d8aa725	0.067701615
119	0x3d8e7445	0.069557704
120	0xbe256b48	-0.16154206
121	0xbe34ff4c	-0.17675513
122	0x3d5baf36	0.05363389
123	0xbd18dcc4	-0.037319914
124	0x3e3033d4	0.17207271
125	0x3d89ea64	0.067341596
126	0x3d1d4732	0.038397975
127	0x3cdb64fd	0.026781553
128	0xbe5e2b88	-0.21696293
129	0x3e067a47	0.13132583
130	0x3db07557	0.08616131
131	0x3d81c4ef	0.0633639
132	0x3dcdf27c	0.10056016
133	0xbd7ce546	-0.06174209
134	0x3b9af463	0.00472884
135	0xbcfc2892	-0.030781064
136	0xbd89e89d	-0.067338206
137	0xbdbc6b4b	-0.09200152
138	0x3e593ec1	0.21215345
139	0x3e566535	0.20937045
140	0xbe036f8f	-0.12835525
141	0xbdad5a31	-0.08464468
142	0xbe25906c	-0.16168374
143	0xbe5400d2	-0.20703438
144	0x3e0717c7	0.13192664
145	0x3e417584	0.18892485
146	0x3d094906	0.033516906
147	0xbe3de9cd	-0.18546219
148	0x3dce8c76	0.100853845
149	0x3a9f2a4e	0.0012143345
150	0x3e416302	0.18885425
151	0xbd593ece	-0.05303841
152	0xbe466cfd	-0.19377513
153	0xbe0b9ee5	-0.13634832
154	0x3e4e6e0b	0.20159166
155	0xbdcda04d	-0.100403406
156	0x3d9bc8fa	0.076066926
157	0xbd7194e5	-0.058979888
158	0xbe2fcd99	-0.17168273
159	0x3e220717	0.15823017
160	0x3df01e71	0.11724556
161	0xbdf70b18	-0.12062663
162	0x3b07601f	0.0020656658
163	0xbe5c56f2	-0.21517542
164	0xbd4a2589	-0.049352203
165	0x3ce248f9	0.027622687
166	0xbdaecf6f	-0.085356586
167	0x3e09fdf5	0.13475783
168	0x3dea1ddb	0.11431476
169	0x3e4e5ca7	0.20152532
170	0x3d81301c	0.06308004
171	0xbd290471	-0.041264
172	0x3e0de481	0.13856699
173	0x3dc2706e	0.094941005
174	0x3d9bedaa	0.0761369
175	0x3d4e8f32	0.05042953
176	0x3d85cbae	0.065329894
177	0xbdd7cd8a	-0.1053725
178	0xbc884a59	-0.016637014
179	0xbd308a9d	-0.043100942
180	0x3e0a92ec	0.13532609
181	0xbd5c7116	-0.053818785
182	0x3dcbc35c	0.09949371
183	0xbcb0f811	-0.021602662
184	0x3e55aedc	0.20867485
185	0x3d5a0fba	0.053237654
186	0x3db115bf	0.08646726
187	0x3e0390c0	0.12848186
188	0xbe3ffcae	-0.18748733
189	0x3e16c1c3	0.14722352
190	0xbe456478	-0.19276607
191	0xbe05d63d	-0.13070007
192	0x3e3234a2	0.1740289
193	0x3b29b4bc	0.002589508
194	0xbe0cbcf9	-0.13743962
195	0xbd831c54	-0.064018875
196	0xbe0c785f	-0.13717793
197	0xbcc5816f	-0.02410957
198	0x3e387d83	0.18016629
199	0x3e297b54	0.16550952
200	0xbd566562	-0.05234278
201	0x3de15ccd	0.110040285
202	0xbdb040ed	-0.086061336
203	0xbb90140b	-0.0043969206
204	0xbd79eabd	-0.06101488
205	0xbdb534c7	-0.08847957
206	0x3e051fa7	0.13000356
207	0xbdc7a247	-0.09747749
208	0x3d6aea3c	0.05735229
209	0x3e54800a	0.20751968
210	0x3ddae1b4	0.10687581
211	0xbc8ead7b	-0.017416706
212	0xbe04f661	-0.12984611
213	0x3e06173c	0.130948
214	0x3bb04abe	0.0053800037
215	0x3e08fcfa	0.13377753
216	0xbbc9e804	-0.0061616916
217	0xbde6eee5	-0.11276034
218	0x3cd1ab58	0.025594398
219	0x3ddc525c	0.10757896
220	0xbda9ffb9	-0.08300728
221	0xbe25cf2e	-0.16192314
222	0xbd631f95	-0.05545004
223	0xba9c741c	-0.0011936459
224	0xbe517a6f	-0.20456861
225	0x3e45e7f4	0.19326764
226	0x3d1cf3d4	0.03831847
227	0x3cef58e7	0.029217197
228	0xbe129634	-0.1431511
229	0x3e15bfeb	0.14623992
230	0x3e592ded	0.21208926
231	0x3dd7381a	0.105087474
232	0xbdd3634f	-0.10321676
233	0x3d221200	0.039567947
234	0x3d2daebd	0.04240297
235	0xbe353660	-0.17696524
236	0xbe3d843f	-0.18507479
237	0x3aab95c9	0.0013090904
238	0x3e205803	0.15658574
239	0xbe0072d1	-0.12543799
240	0x3e4f11e7	0.20221673
241	0x3db38c91	0.08767045
242	0xbe014453	-0.1262372
243	0xbe19b6a5	-0.1501108
244	0x3c5b0246	0.013367241
245	0x3e08d354	0.13361865
246	0xbd81983f	-0.06327867
247	0xbd1e381e	-0.038627736
248	0x3e06c3d8	0.13160646
249	0xbe1200bd	-0.14258094
250	0x3d857bdf	0.06517767
251	0xbcfd436d	-0.03091594
252	0x3d50ec83	0.051006805
253	0x3e2412de	0.16022822
254	0x3d085d86	0.033292316
255	0xbe45ea30	-0.19327617

model.4.bias f4 [128]
0	0x3c71be44	0.0147548355
1	0xbc0c79e8	-0.008573987
2	0x3d81d54f	0.063395135
3	0xb9aed05f	-0.00033343115
4	0x3d57fb5d	0.052729953
5	0xbc4d0d42	-0.012515368
6	0xba82f872	-0.0009992255
7	0xbcf79647	-0.030223025
8	0xbcca3db0	-0.024687618
9	0x396f2082	0.00022804926
10	0x3d0460f4	0.032319024
11	0x3bfd59bb	0.007731644
12	0x3d8c2379	0.06842703
13	0xbc68466c	-0.014176946
14	0x3aa97430	0.0012928303
15	0xba4e81db	-0.00078776263
16	0xbbbd1d4e	-0.0057713157
17	0xbc3d0382	-0.011536481
18	0xbbaf60a0	-0.005352095
19	0xbce2dafd	-0.027692312
20	0x3b1458df	0.002263598
21	0x3a89b883	0.0010507259
22	0x3ce6a75c	0.028155975
23	0x3dabbd28	0.08385688
24	0x3c849939	0.016186344
25	0x3bfed76a	0.007777144
26	0x3d4e1668	0.050314337
27	0x3cb041b6	0.021515708
28	0x3be85ea4	0.00709136
29	0xbbb3b516	-0.0054842336
30	0x3b800ba1	0.0039076363
31	0xb9c51a24	-0.00037594244
32	0x3d547339	0.051867697
33	0xba1b37ab	-0.0005921076
34	0x3bf05b8d	0.0073351325
35	0x3d41b62a	0.047292866
36	0xbc950d33	-0.01819477
37	0x3c368d3a	0.0111420695
38	0xbb65c897	-0.0035062188
39	0xb9f02277	-0.00045802045
40	0x3a90ce83	0.0011047873
41	0x3d9d223c	0.07672545
42	0xbd147f8d	-0.036254454
43	0xbaa55df2	-0.0012616499
44	0x3920b852	0.00015327454
45	0xbc1bb38b	-0.009503256
46	0x3cded57d	0.027201409
47	0xbab646ec	-0.0013906634
48	0x3ca002ba	0.01953255
49	0x3db0d6c2	0.08634712
50	0xbb6994ca	-0.0035641664
51	0x3d0018f1	0.031273786
52	0xb90ae563	-0.00013246159
53	0xbcb307b4	-0.02185426
54	0xbced8f8b	-0.02899911
55	0x3d86268e	0.065503225
56	0x3c7661a8	0.0150379315
57	0xbcbe13eb	-0.023202857
58	0xbae96c9d	-0.0017808859
59	0xbb7a72c7	-0.0038215385
60	0x3cf8b80c	0.030361198
61	0xbca9cfb1	-0.020728918
62	0xbbbd77e9	-0.0057821167
63	0x3d5a403e	0.053283922
64	0x3d44e455	0.048069317
65	0x3d5dd8e2	0.054161914
66	0x3abb7343	0.0014301318
67	0xbb0d9627	-0.002160439
68	0x3c559d26	0.013037955
69	0xb87ac98f	-5.979236e-05
70	0xbc02ccbc	-0.007983383
71	0xbcb597ea	-0.022167165
72	0xbc9dc329	-0.019258099
73	0xbc8aa275	-0.016923169
74	0xbba7f2a3	-0.00512536
75	0x3d874fee	0.06607042
76	0x3c92f6ae	0.017939892
77	0xbc158fe4	-0.0091285445
78	0x3d3eced8	0.04658398
79	0x3c85379f	0.016261874
80	0x3c5cdaed	0.01347993
81	0x3d63b4fa	0.055592515
82	0x3b3a1c31	0.002839815
83	0x3b9603e1	0.004578099
84	0x3d041276	0.03224417
85	0xbbbd2535	-0.0057722577
86	0x3abbb376	0.0014320451
87	0x38403025	4.5821205e-05
88	0xbd1e854e	-0.038701348
89	0x3da2eafb	0.07954975
90	0xbc08ef8e	-0.008357896
91	0xbd316444	-0.04330851
92	0xbc3c48ee	-0.011491997
93	0x3d94009f	0.07226681
94	0xb91f52b5	-0.00015194232
95	0xbba5c6e6	-0.005059111
96	0xba338501	-0.0006848127
97	0x3cf58fff	0.02997589
98	0x3d00190c	0.031273887
99	0x3b055303	0.0020343668
100	0x3b199f89	0.0023441038
101	0xbcf14411	-0.029451402
102	0xbcde0120	-0.027100146
103	0x3ad5298f	0.0016262996
104	0xbc8f79a2	-0.017514054
105	0x3cd68b8f	0.026189594
106	0xbc88f805	-0.016719827
107	0x3d013ebf	0.03155398
108	0x3c7750b1	0.015094922
109	0x38c208a1	9.252248e-05
110	0xbd4b104e	-0.049576096
111	0xbc56276c	-0.013070922
112	0x3a6d0cb8	0.0009042728
113	0xbb7da413	-0.0038702532
114	0xbb45b949	-0.0030170253
115	0xbc612395	-0.013741394
116	0xbcdc6fb8	-0.02690874
117	0xbd0a04d1	-0.033696
118	0xba154c04	-0.0005695226
119	0x3c8b0c06	0.016973507
120	0x3bf759f6	0.007548566
121	0xb8fb0f9d	-0.00011971521
122	0x3d5b7534	0.05357857
123	0xbbbd4bce	-0.005776859
124	0xbc839262	-0.016061012
125	0xbbe33774	-0.0069341008
126	0x3d081a84	0.033228412
127	0x3ce0a4d0	0.027422339

model.6.weight f4 [1, 128]
0	0x3dac483c	0.08412215
1	0xbc5e3ffa	-0.013565058
2	0x3e850556	0.25980633
3	0xbc3b98f9	-0.011450046
4	0x3e73c8c5	0.23807056
5	0xbdf14305	-0.11780361
6	0xbd826060	-0.06366038
7	0xbdf5ff1a	-0.120115474
8	0xbdfa77c4	-0.12229875
9	0x3bc1eb0d	0.005917913
10	0x3e121abd	0.14268012
11	0x3e53f1e4	0.20697743
12	0x3e8b86c9	0.2725127
13	0xbe36e608	-0.17861187
14	0x3ca66743	0.02031291
15	0x3d09d804	0.033653274
16	0xbc425b8f	-0.01186265
17	0xbe260ef9	-0.16216649
18	0x3c1005a8	0.008790411
19	0xbe41a852	-0.18911865
20	0x3d0107a7	0.03150144
21	0x3d40a188	0.04702905
22	0x3e3038b2	0.17209128
23	0x3eaea4e0	0.34110165
24	0x3e2ca0db	0.16858236
25	0x3e504bbe	0.20341393
26	0x3e52f684	0.20601851
27	0x3e553859	0.20822276
28	0x3e5bd349	0.21467318
29	0xbe530258	-0.20606363
30	0x3de5c953	0.1122004
31	0xbcc3f9e8	-0.023922876
32	0x3e5df79d	0.21676488
33	0x3c75d908	0.015005358
34	0x3d63c86f	0.05561107
35	0x3e43a55f	0.19106053
36	0xbdde6b08	-0.10860258
37	0x3d8ace69	0.06777651
38	0xbce530dc	-0.0279774
39	0xbbedd0b3	-0.007257545
40	0x3e0de960	0.13858557
41	0x3e94122a	0.28920108
42	0xbdf65ec0	-0.12029791
43	0xbe0397ad	-0.12850828
44	0x3d664966	0.056222342
45	0xbdc94a8f	-0.09828674
46	0x3e10b9e8	0.14133418
47	0xbd33be02	-0.043882377
48	0x3de32eb1	0.1109289
49	0x3eaee31b	0.34157643
50	0xbe31c04f	-0.17358516
51	0x3e1335a3	0.1437593
52	0xbdfafa74	-0.122548014
53	0xbd9512a6	-0.072789475
54	0xbe47ea55	-0.19522984
55	0x3e89604f	0.2683129
56	0x3db9e2ea	0.090764835
57	0xbd771d0a	-0.06033043
58	0x3d0f1957	0.034936275
59	0xbd81521f	-0.063144915
60	0x3e2e3985	0.1701413
61	0xbd013645	-0.031545896
62	0xbdb410f0	-0.08792293
63	0x3e552e99	0.20818557
64	0x3e5d9fd9	0.21643008
65	0x3e6a8d0d	0.22905369
66	0x3e0fddaa	0.14049402
67	0xbcb98341	-0.022645595
68	0x3e37aa07	0.17935954
69	0xbd5b0b1f	-0.053477403
70	0xbe4208c6	-0.1894866
71	0xbd625407	-0.055255916
72	0xbda784f9	-0.081796594
73	0xbdd350eb	-0.10318168
74	0xbddbc268	-0.107304394
75	0x3e878a87	0.26472875
76	0x3dbc64ae	0.091988906
77	0xbdeed23d	-0.116611935
78	0x3e53d4e1	0.20686676
79	0x3db66650	0.08906233
80	0x3e40b0ff	0.18817519
81	0x3e653a03	0.22385411
82	0x3e198a45	0.14994152
83	0x3db22c01	0.08699799
84	0x3e51a79a	0.20474091
85	0xbe2f90ff	-0.17145155
86	0x3cd5cd68	0.026098922
87	0x3bd1860f	0.006394155
88	0xbdf4aa1a	-0.11946507
89	0x3ea21b19	0.316613
90	0xbda8192d	-0.08207927
91	0xbe29d684	-0.16585737
92	0xbd81513c	-0.06314322
93	0x3e99c396	0.30032033
94	0xbcf201a2	-0.029541794
95	0xbe1b239e	-0.15150306
96	0xbd033fb8	-0.03204319
97	0x3e20d2e3	0.15705447
98	0x3e0d3138	0.13788307
99	0x3d79e8bb	0.061012965
100	0x3dacf53d	0.08445213
101	0xbe523e0a	-0.20531479
102	0xbdba4ecf	-0.09097063
103	0x3ccf9f65	0.02534456
104	0xbda042d3	-0.07825246
105	0x3e1610d6	0.1465486
106	0xbde1fb62	-0.110342756
107	0x3e249119	0.16070975
108	0x3d9594d2	0.07303776
109	0x3c6ed909	0.014578112
110	0xbe3e22ff	-0.18568037
111	0xbe0f57fe	-0.1399841
112	0x3c5fcffe	0.013660429
113	0x3cc23148	0.02370514
114	0xba58221f	-0.00082448305
115	0xbe37c89d	-0.17947622
116	0xbe2f9044	-0.17144877
117	0xbde1c9c3	-0.11024811
118	0xbd5ff391	-0.054675642
119	0x3da52a8a	0.08064754
120	0x3e10c27f	0.14136694
121	0xbe0d0563	-0.13771586
122	0x3e877569	0.26456764
123	0xbd9fb9c7	-0.07799106
124	0xbe55b1f3	-0.20868663
125	0xbe2200de	-0.15820643
126	0x3e1a013f	0.15039538
127	0x3e307a5e	0.1723418
