models/neural_networks/regression/2024-08-15_16-16-56/model.pt (torch, 467252 bytes, 5 tensors)

model.0.weight f4 [128, 777]
000000 53 59 26 3e ff 7f 69 3e 03 1f 15 3d 6b 3d 49 3e
       0.16245012 0.22802733 0.03640653 0.19652335
000010 83 d1 84 3d c6 d1 e4 3d 60 3a e9 39 13 5c 6d bd
       0.06485274 0.111728236 0.00044484716 -0.057949137
000020 4a df 95 3d 44 76 24 3e a2 9e 5f 3e 2a 60 b4 3c
       0.0731798 0.1606074 0.21837857 0.02201851
000030 4f 1e 8a 3e 6b 43 1d 3e 91 c9 49 bd 5c e3 a0 bd
       0.2697625 0.15357749 -0.049264494 -0.07855865
000040 91 11 66 bd 50 78 36 3c d3 08 90 bd 89 03 11 3c
       -0.056169096 0.011137083 -0.07032933 0.0088509405
000050 f2 64 d7 bd 03 6c 01 3e d4 a8 53 be 7f d2 a3 3d
       -0.10517301 0.1263886 -0.20669872 0.07999133
000060 54 04 af bc a0 57 a4 3c 04 06 bd 3c 27 5c 1a 3e
       -0.021364368 0.020061314 0.023074158 0.15074216
000070 52 f5 c6 bd 21 5b c9 3d d3 52 1e 3e b8 9f 09 bc
       -0.0971476 0.098318346 0.15461282 -0.008399896
000080 0e 56 21 bd ba 39 dc bd f2 57 cc bd 69 fa 29 be
       -0.03938871 -0.10753198 -0.09977712 -0.1659943
000090 c9 af b2 bd 40 e0 77 bd 4e 0b 14 bd 6b 94 3a bc
       -0.087249346 -0.060516596 -0.036143593 -0.011387925
0000a0 95 5d 1c bd ca 0c be bd 11 bb 90 3d 98 da 94 bc
       -0.038175184 -0.09279783 0.0706693 -0.01817064
0000b0 c3 58 00 be 0d 8f 7f bc 42 e1 8e bd 40 d4 d7 3b
       -0.1253386 -0.015598071 -0.06976558 0.0065865815
0000c0 70 19 45 bd ee 73 ab 3d dd e3 4b bd ca 52 fa bd
       -0.048119962 0.08371721 -0.049777854 -0.12222822
0000d0 1f f7 af bd 81 89 c0 bd 3a 01 64 bd 29 18 22 bd
       -0.085920565 -0.09401227 -0.055665232 -0.039573822
0000e0 c6 21 18 3d c5 ba fb bd 3a b5 a3 bd 7f f3 93 bd
       0.037141584 -0.12291483 -0.079935506 -0.072241776
0000f0 15 85 91 3c 23 a8 ae 3e cf c8 63 be f7 34 78 be
       0.017763654 0.34112653 -0.22244571 -0.24238954
000100 e1 ef 30 be 0b f1 a1 3d 08 d2 65 bc db 09 ab bd
       -0.17279007 0.079073034 -0.014027126 -0.08351489
000110 89 fd ca bd 3a b3 b0 bd 24 11 d1 3c 6e b3 7a 3e
       -0.09911639 -0.08627935 0.025520869 0.2448251
000120 57 75 1d be 0a 45 a1 bd d2 00 98 3c 94 b2 96 bd
       -0.15376793 -0.07874496 0.018555079 -0.0735828
000130 7c 00 16 3d f5 cc 20 3e cb 69 5a 3e ac 6e 92 3c
       0.036621556 0.15703185 0.2132942 0.017875038
000140 26 0d 57 3d 60 45 ee 3c 3c b6 9d bc 80 d2 22 3a
       0.052502774 0.029085815 -0.019251935 0.00062111765
000150 11 5b b1 bd bd e1 89 bc 17 be 4f be dc 13 6c 3d
       -0.08659948 -0.016831273 -0.20287357 0.057636127
000160 75 c8 a1 3c 64 0f 75 3d fa bc 14 3e b7 13 a5 3c
       0.019748906 0.05982913 0.14525214 0.020151002
000170 5b 50 7c 3e bf 8a 8b bc 81 c1 80 3d 9d 69 57 be
       0.24640028 -0.017033933 0.06286908 -0.21036382
000180 f7 1a b3 bd db 80 a1 3d 8e ba 1b 3d 58 87 ee bd
       -0.087453775 0.07885905 0.03801971 -0.116469085
000190 80 ce 59 ba 59 d4 fe bd bc 68 1e bb df e9 83 3d
       -0.0008308664 -0.12442846 -0.0024171313 0.06441092
0001a0 ee ec d1 bd 70 05 9f 3d 63 b9 dc bc af 43 96 bd
       -0.10250269 0.07764709 -0.026943868 -0.07337128
0001b0 b7 82 ad be 70 bd 97 bd b6 ea c9 3e d0 af a5 bc
       -0.3388879 -0.07409179 0.39436883 -0.020225435
0001c0 c9 36 17 bd 22 36 66 3e b0 86 39 3c b8 82 14 3c
       -0.03691748 0.22481588 0.011323616 0.009064369
0001d0 5b de 88 bc 9a 5a 37 3d 1d 2b a0 3a 9f bd 32 bd
       -0.01670759 0.04476414 0.001221988 -0.043637868
0001e0 66 21 97 3d ec 5d ce bd fe 88 26 3e 30 12 b9 3e
       0.07379417 -0.10076508 0.16263196 0.36146688
0001f0 7a 5e 52 3d fa 71 31 3d 76 01 46 be b8 23 10 bc
       0.05135963 0.043321587 -0.19336495 -0.0087975785
000200 00 82 6e bd 6d 58 10 3e 61 c3 b3 bd a0 4a 04 3d
       -0.058229446 0.14096232 -0.087775 0.03229773
000210 11 a9 90 be e0 7b 1d bd a0 4e cb bb 1f ba 9e 3e
       -0.28253987 -0.038448215 -0.006204441 0.31001374
000220 56 63 0b 3d 74 7b 5f bc 70 1b e4 bb d0 07 eb 3b
       0.03403028 -0.013640273 -0.0069612786 0.007172562
000230 b7 b4 9a bd 03 a9 ad 3d 66 94 4e bd ca 7d 3b 3d
       -0.07554 0.08479502 -0.050434493 0.04577426
000240 32 e5 a9 bd 6c e7 c4 bd 06 0c 85 3c 6f ae 1c bd
       -0.08295669 -0.09614453 0.016241085 -0.03825229
000250 a8 aa a7 3e d8 ee 7c 3e df 29 21 bd f9 a8 ac bc
       0.32747388 0.24700487 -0.039346572 -0.021076666
000260 fd d4 47 3e 5e 95 18 3d 6d b5 07 3e 0a 52 37 bc
       0.19514842 0.037251823 0.13252802 -0.011188993
000270 5a f5 a3 bd 00 a0 3a 3c 16 7f 6d be 4b de 06 3d
       -0.080057815 0.011390686 -0.2319301 0.03292684
000280 0f 57 4a bd 5c 1c 83 3e 37 20 42 3e 0e a9 94 bd
       -0.04939943 0.25607574 0.18957601 -0.07258807
000290 8c 17 c9 bd e9 d9 a7 bd 9b 3a 89 3d 41 90 05 be
       -0.09818944 -0.0819586 0.06700631 -0.1304331
0002a0 cf ec c6 bd 38 28 80 bd 28 4f 08 3c a7 bd a3 3d
       -0.097131364 -0.06257671 0.008319654 0.07995158
0002b0 1a 66 bb 3d 58 dd aa ba e0 77 dd 39 98 56 bf 3d
       0.09150334 -0.0013035936 0.0004224172 0.09342688
0002c0 03 ba 80 3d cf 5c d4 bd 36 b2 c4 bc ae 67 4f 3d
       0.06285479 -0.10369264 -0.024010759 0.050635986
0002d0 24 8e 2f be 07 d0 21 bd a4 84 45 3d a0 2b 56 be
       -0.17144066 -0.03950503 0.0482222 -0.20915079
0002e0 08 e9 42 bc 20 f5 99 bd e9 c5 6f bd 65 e5 43 bd
       -0.011896379 -0.07517457 -0.05853835 -0.04782619
0002f0 ce 03 02 3d 2e c7 e0 bc f6 65 51 3d c4 5d 2a bd
       0.03174191 -0.027438726 0.05112263 -0.041593328
000300 95 93 ae 3d 48 cb 37 bc b9 3f 67 bc a1 8b 66 bd
       0.08524243 -0.0112179 -0.014114314 -0.056285504
000310 66 a5 66 3d 44 d2 bb 3d 82 47 e2 bb 22 db 20 3d
       0.05631008 0.09170964 -0.006905497 0.03927148
000320 cb 39 15 3e cb 0b 20 bd 93 f6 be 3d 48 e1 8a 3c
       0.14572828 -0.039073747 0.09324374 0.016953126
000330 4e fc 5d bd 72 4f 4a 3d 8e 69 32 3d 43 f9 84 3e
       -0.054195695 0.04939217 0.043557696 0.25971422
000340 6c 01 d5 bc 30 33 86 bd 3f d5 88 bd 1e d5 31 3d
       -0.026001655 -0.06552732 -0.066812985 0.043416135
000350 80 fb 90 3c e0 16 86 3c 5a fd 87 bb 32 56 69 3d
       0.01769805 0.01636833 -0.004150075 0.056966968
000360 50 34 f8 3d 86 7f 1e be d7 d4 62 3e 63 40 3c be
       0.12119353 -0.15478334 0.22151504 -0.18383937
000370 ba 12 33 be 3e 04 69 bd d8 da 41 bc 4d 9b 98 bd
       -0.17487612 -0.05688881 -0.011831962 -0.07451496
000380 78 4d 3a bc d8 78 af bd 51 d4 06 bd 3a a4 5d 3d
       -0.011371009 -0.08567971 -0.032917324 0.054111697
000390 d6 14 1f 3e ff 93 2a bd ae 19 60 bd 80 ef 7b ba
       0.15535292 -0.041645046 -0.05471199 -0.00096105784
0003a0 ed 89 89 3d c3 25 91 bd 34 12 fa bd 23 57 12 bd
       0.067157604 -0.070872806 -0.12210503 -0.03572763
0003b0 9a 4f 86 3e 99 84 89 bd ab 09 01 be fa 9d 51 3d
       0.26232606 -0.06714744 -0.12601344 0.05117605
0003c0 18 1f b4 bd 3c bf d9 3c 3b 07 93 3d 1e 97 aa 3e
       -0.08794993 0.026580445 0.071791135 0.33318418
0003d0 10 ca 86 bb 19 48 11 bd aa 72 4a be f7 ee b7 3c
       -0.004113443 -0.03546915 -0.19770303 0.022452815
0003e0 7b 8d 01 be e6 9a 7d bd a4 f7 65 be 5f 31 05 3e
       -0.12651627 -0.0619153 -0.22457749 0.13007115
0003f0 7c 41 1a be aa 61 31 3e 00 73 80 3e c5 bc a7 3e
       -0.15064043 0.17322412 0.25087738 0.32761207

model.0.bias f4 [128]
000000 bf 32 1c 3e 2f 87 64 3d 8c 68 a4 3d c4 d0 97 3d
       0.15253733 0.055792984 0.08027753 0.07412866
000010 a9 4f 21 3e 39 6d 01 3e 7f a3 2e 3e ad 99 6d bd
       0.15753044 0.12639321 0.17054556 -0.058007885
000020 c9 07 aa 3d 19 22 a5 3d ff 3a 27 3e 5b 76 22 3e
       0.08302266 0.08063144 0.16331099 0.15865462
000030 89 f0 17 3e 2e 80 1f 3e 93 b9 59 3d db 9c 11 3d
       0.1483785 0.1557624 0.053155493 0.03554998
000040 ec 65 1a 3e 31 82 29 3e ee 4a 19 3e 1c bb 1f 3e
       0.15077943 0.1655357 0.1496999 0.1559872
000050 84 98 0e 3e 81 2e 20 3e 9b 9c 24 3e 23 17 03 3e
       0.13925368 0.1564274 0.16075365 0.12801795
000060 a4 62 ce 3d 6e 62 f2 bd 21 43 2b 3e dd a8 d5 3d
       0.10077408 -0.1183518 0.16724826 0.10432599
000070 bf cf 58 3d 20 f1 18 3e f9 6a e6 bd 8a 13 0a 3e
       0.052932497 0.14935732 -0.11250872 0.13484016
000080 7b ca 20 3e 21 41 d7 bd e8 37 b7 3d 51 8a d8 3d
       0.1570224 -0.10510469 0.0894621 0.10573257
000090 3f 6f de 3d b8 7b ba 3d 94 4b 1b 3e ed 2c f8 3d
       0.10861062 0.09105629 0.1516555 0.12117944
0000a0 6f 04 e6 3c 85 72 c9 3d 91 68 99 3d 7b 0a f1 3d
       0.028078286 0.09836296 0.074906476 0.11769577
0000b0 f0 f0 2d 3e 76 0c 04 3e b9 40 ea 3d 40 6c 18 3e
       0.16986442 0.12895378 0.11438126 0.14885044
0000c0 05 19 66 3d cc 9c 1b 3e 7c ef 04 3c d2 4e 8b 3c
       0.056176204 0.15196532 0.008113738 0.017005358
0000d0 7b e0 23 3e 13 b6 17 3e 0a 0e 2a 3e 5a a5 a1 3d
       0.16003601 0.1481555 0.16606918 0.078928664
0000e0 fb 67 0c 3e d2 01 2f 3e d0 d5 d9 3c 48 4c 20 3d
       0.1371154 0.17090538 0.026591212 0.039135247
0000f0 94 a2 4e 3d 6a d7 0e 3e 9e 33 30 3e 57 87 13 3e
       0.050448015 0.13949361 0.1720719 0.14407097
000100 07 4e 0e 3e 8b f9 c0 3d 05 c8 09 3e 9e 15 83 bd
       0.13896953 0.094225965 0.13455208 -0.064006075
000110 c3 fe 9e 3d 0e 22 29 3e 62 7b b4 3c e0 f3 33 3e
       0.07763436 0.16516897 0.02203149 0.175735
000120 c5 25 12 3e 15 0a 0d 3e bc 0e d6 bd 96 f7 72 3d
       0.1427222 0.13773377 -0.10452029 0.059318148
000130 bb a5 58 3c 71 d3 45 3d 81 82 f5 3d 5d 07 6c 3d
       0.013223107 0.04829735 0.11987782 0.05762421
000140 b6 da 0c 3e e4 98 19 3d 62 9d 64 bc e7 7b 9f 3d
       0.13755307 0.037499323 -0.013953539 0.07787304
000150 d2 24 26 3e b2 7d 2d 3e d4 b1 b9 bd 2a 9d bd 3d
       0.16224983 0.1694248 -0.09067121 0.09258492
000160 dc ca 0f 3e 5d b7 21 3e d7 f0 04 3d 76 ff 1c 3e
       0.14042228 0.15792604 0.032456245 0.15331826
000170 ab 48 01 3d 50 70 29 3e 99 8e ea 3d 9a b4 a9 3d
       0.031563442 0.1654675 0.114529796 0.082864
000180 1f 68 06 3e 4c 41 24 3e b0 e7 a9 bd 8c 17 42 3e
       0.13125657 0.16040534 -0.08296144 0.18954295
000190 c8 5c 2d 3e bf 89 1d 3e 60 2b 2c 3b 0a 5e 15 3e
       0.16929924 0.15384577 0.002627097 0.14586654
0001a0 c8 24 26 3d 74 ce 15 3e cb 69 ff 3d 0f 77 8f 3d
       0.04056242 0.14629537 0.1247135 0.070051305
0001b0 44 2f 24 3e 72 24 1a 3e 8d 54 1f 3e 55 29 b3 3d
       0.16033655 0.15052965 0.15559597 0.08748118
0001c0 3c fb d6 3d 80 b3 ff 3d 72 ef e0 3d d2 f6 a8 3d
       0.10497138 0.12485409 0.109831706 0.08250202
0001d0 09 dc e3 3d 0b 5f 15 3e b4 d4 07 3e 67 56 f2 3d
       0.11125953 0.14587037 0.13264734 0.11832886
0001e0 a2 46 17 3e 49 d2 ab 3d 7a b6 21 3e 79 81 1e 3e
       0.14773038 0.08389718 0.15792266 0.15479077
0001f0 09 d2 30 3e 86 10 d2 3d 8b 59 16 3e 2a 05 35 3e
       0.17267622 0.10257058 0.14682595 0.17677751

model.2.weight f4 [128, 128]
000000 82 6d fb 3d 3e b3 2a bd ba f6 60 3d 0b 4b 1f 3d
       0.12276746 -0.041674845 0.054922797 0.038889926
000010 39 70 02 be bc 26 87 3a 1b c8 09 be 2a cf 62 be
       -0.12738122 0.0010311226 -0.1345524 -0.2214934
000020 47 a9 33 be 48 72 35 be 54 64 ac bd 97 72 db 3d
       -0.17545043 -0.17719376 -0.084175736 0.10715216
000030 ad 9e 48 be c4 3c 23 be b4 fe 12 3d 4b 19 82 be
       -0.1959178 -0.15941149 0.035887435 -0.25409922
000040 97 48 ca bd c9 9f 05 3e ca 6c 8e 3d ba 77 2b 3b
       -0.09877127 0.13049234 0.069543436 0.0026163892
000050 a3 41 98 3c 54 ea 8d 3c 1f ca f1 3d 64 8d 86 be
       0.018585986 0.01732365 0.1180613 -0.26279747
000060 02 9c 82 3c 70 cc 8c 3a 14 6b 58 be 31 2b 83 be
       0.015943531 0.001074208 -0.21134597 -0.2561889
000070 a0 06 86 bd 85 c8 51 be 6d f0 d4 3d 4c d0 01 be
       -0.06544232 -0.20486648 0.1039742 -0.12677115
000080 ba cf 34 bc ce bc 49 bd d0 b3 c1 3d 70 33 16 bd
       -0.011035854 -0.049252324 0.09458125 -0.03667015
000090 6b fc 27 be 05 f7 e2 3d 21 14 29 be d9 a3 77 be
       -0.16404884 0.110822715 -0.16511585 -0.24183597
0000a0 97 ab 8f 3b a2 c1 71 be 95 b2 88 be 66 32 60 be
       0.004384469 -0.23609021 -0.26698747 -0.21894225
0000b0 d6 90 57 be e1 42 a5 bd 36 ab 6f 3d 61 27 5f 3d
       -0.21051344 -0.08069397 0.05851289 0.054480914
0000c0 31 e0 a9 3d aa 09 74 be 59 06 64 bd 07 01 b1 3d
       0.08294714 -0.23831812 -0.055670116 0.08642774
0000d0 89 dc 06 3b b7 a4 9b bd 35 2d 7c be 53 59 64 be
       0.0020578227 -0.07599776 -0.2462662 -0.222997
0000e0 41 8c 36 be 93 b9 9f 3c 47 7c 49 be fa 36 92 bc
       -0.1782694 0.019497668 -0.19676314 -0.01784848
0000f0 bc 15 39 3d 69 51 5f 3c f9 ba 88 bc 4e 3f 74 be
       0.045186743 0.01363025 -0.016690718 -0.23852274
000100 dd a9 06 be 40 27 d5 bd ba 42 90 bd 6c 26 ed bd
       -0.13150735 -0.10407877 -0.07043977 -0.11579594
000110 84 07 53 3c c9 4a 94 3b 81 ec 08 be a0 05 21 be
       0.01288021 0.0045255166 -0.13371469 -0.15724802
000120 ef fb 8a be 12 f8 86 bd 5c f7 07 3e f3 ae 02 3e
       -0.27145335 -0.065902844 0.13277954 0.1276205
000130 47 fd cc 3d a6 92 e1 3d 1d 88 ca 3d 85 0b 79 be
       0.10009246 0.11014299 0.09889243 -0.243208
000140 59 38 85 bd bc 45 62 bd 03 c6 8b 3d d8 35 b7 bd
       -0.06504888 -0.055242285 0.06824877 -0.08945817
000150 90 c7 03 3e 63 bb cd bd 43 3e cb bd 71 e8 03 be
       0.12869096 -0.10045507 -0.09923985 -0.12881638
000160 4b 17 ed bc 66 0c ec bc 7c 25 e4 3c 9c cd 9b 3c
       -0.028941771 -0.028814506 0.027849905 0.01901894
000170 f0 86 03 be 31 76 4a be c9 6a e7 3d c0 78 a7 bd
       -0.12844443 -0.19771649 0.112996645 -0.08177328
000180 15 ca 7a be 5a 80 48 be 9e 71 6d 3d 59 41 dc 3d
       -0.2449115 -0.19580212 0.057969682 0.107546516
000190 0e a7 fc 3c 16 0f 29 be 90 f8 dc bd 87 ae 7a be
       0.030841377 -0.16509661 -0.10789597 -0.2448064
0001a0 51 c2 ab 3d a8 b2 3f be c7 b0 a2 bc ac 3b 66 be
       0.08386672 -0.18720496 -0.019859685 -0.224837
0001b0 02 f3 ce 3c 03 59 73 3d 6a 21 17 be 89 73 f2 3d
       0.02526236 0.05941106 -0.1475884 0.11838443
0001c0 8b 07 76 be 05 f4 c3 3d 4d 32 63 3d f3 9a 82 bd
       -0.24026315 0.095680274 0.055467892 -0.063772105
0001d0 84 c4 67 bd 1e 03 1a be 8b 76 b3 3d 50 ec a0 bc
       -0.056583896 -0.15040252 0.08762845 -0.019643933
0001e0 0f 59 80 be 67 92 8a be cb 86 79 3d 8c 2c 5d bd
       -0.25067946 -0.2706482 0.060919564 -0.05399756
0001f0 1b b7 da bd 6b 34 0f be 6e be 87 be d0 bf 9a bd
       -0.10679456 -0.1398484 -0.26512474 -0.075561166
000200 44 4b 5e be e1 6c bb bd fc 67 57 be 50 12 27 bc
       -0.21708399 -0.091516264 -0.2103576 -0.010197237
000210 cb 1e 48 3d bd 59 84 be d7 68 51 3d 9d 3e 7a 3c
       0.04885749 -0.25849715 0.051125374 0.015273717
000220 60 68 d1 bc 8b a9 81 be 6a de ed 3d 71 b3 70 3d
       -0.025562465 -0.25324664 0.11614688 0.05876488
000230 c8 6c 16 bb a8 99 79 bd 5f ae 45 be cb 62 89 be
       -0.0022953022 -0.060937554 -0.19304799 -0.26833186
000240 66 e5 0a be 0f 5c a0 bd 53 fc 15 bb 32 3c 62 be
       -0.13564071 -0.07830059 -0.0022885993 -0.22093275
000250 7c ef ca bc 21 da 6c 3c 9a e5 e5 bc c6 9e c2 bd
       -0.024772398 0.014456303 -0.028063584 -0.0950294
000260 77 aa 23 be 30 4a 21 be 79 c3 29 bb 28 ef a0 bc
       -0.15982996 -0.15750957 -0.0025903864 -0.019645289
000270 02 ea 19 3d 6f 37 6b bc 6a 60 e3 bd 85 e4 03 3e
       0.037576683 -0.014356478 -0.11102374 0.12880142
000280 80 2e 03 3e 8f 05 d4 bc ce aa 91 3c 58 48 82 be
       0.12810707 -0.025881557 0.017781641 -0.2544582
000290 6f 38 11 3e f3 c2 2c 3d 3e 24 47 3d 54 1a b2 3d
       0.14181684 0.042178106 0.048618548 0.08696428
0002a0 4f e6 9a bd 0c 7c b1 bd 21 71 21 bd c4 3d 63 be
       -0.07563459 -0.08666238 -0.03941453 -0.2219153
0002b0 48 51 93 bd e5 28 62 be e9 7f 45 be 45 7c 36 be
       -0.071932375 -0.22085913 -0.19287075 -0.17820843
0002c0 83 32 53 be c9 28 f2 bd 40 d0 66 3c bf f1 f5 bd
       -0.20624737 -0.118241854 0.014087737 -0.12009
0002d0 cc 9a 22 be 00 2a 37 ba ad 20 45 3e 3d c1 1e be
       -0.15879363 -0.00069871545 0.19250746 -0.15503402
0002e0 53 eb 19 3d e1 96 1b bc 3f b0 29 bd 6a 5b aa bd
       0.03757794 -0.009496422 -0.041427847 -0.08318217
0002f0 3c 4e 2f 3c 20 ba 39 be 5c 0c a3 3d ce da 24 be
       0.010699805 -0.18137407 0.07961342 -0.16099092
000300 cd 86 25 bd 29 87 08 bd 75 d0 5a be d1 85 d2 bd
       -0.04041176 -0.033332024 -0.21368583 -0.1027943
000310 60 dd e6 bd c4 77 0e 3d 44 f7 25 3d 31 ec 08 be
       -0.11272693 0.034782186 0.040519014 -0.1337135
000320 53 ed 46 be eb 24 52 be da 09 b7 3d 40 58 7a bd
       -0.1942647 -0.20521896 0.08937426 -0.061119318
000330 a5 76 02 3e 1a 7b b0 3d 81 20 73 3d f4 35 c5 3b
       0.12740572 0.0861723 0.05935717 0.0060183946
000340 ad cd bb bc 25 a7 d7 bd f3 b6 72 bc a4 44 34 be
       -0.022925222 -0.10529927 -0.014814126 -0.1760431
000350 ee 8e 4a be 65 73 8c be 11 65 33 be 20 bf fb bc
       -0.19781086 -0.2743179 -0.17519023 -0.030730784
000360 eb 35 f1 bd 2a f0 06 3e 24 ab 43 bd 98 c2 21 bd
       -0.11777862 0.13177553 -0.047770634 -0.03949222
000370 1c 35 0d be 04 70 85 be 38 bb 0e 3e 78 ef 9b bd
       -0.13789791 -0.26062024 0.13938606 -0.076140344
000380 e6 2d cf bd 2d 94 ad 3d 62 09 84 be ae c8 95 3d
       -0.10116176 0.08475528 -0.2578841 0.07313667
000390 b4 41 51 bd 69 aa 00 be a4 da 31 bd 73 47 43 be
       -0.05108805 -0.12565006 -0.043421403 -0.19070224
0003a0 a0 8b 28 bd b8 3a 77 bd 52 68 13 be 45 cb 7a 3d
       -0.04114878 -0.060358733 -0.14395264 0.06122901
0003b0 ab 7a 85 be c5 c8 7e be ef 0b bf bd 78 0c b4 3c
       -0.2607015 -0.24881275 -0.09328448 0.021978602
0003c0 9f bc 08 3e 80 e8 cb bb e3 7f 27 be 3b 1f 90 bc
       0.13353203 -0.0062227845 -0.16357379 -0.017593017
0003d0 6a 55 a7 3d f8 92 ea bd 2e bb 55 be 39 47 19 3e
       0.08170588 -0.11453813 -0.20872185 0.14968576
0003e0 bf 2e 0e 3b 0c 01 5f bd f6 76 aa bd 50 11 cc bc
       0.0021695343 -0.054444358 -0.08323471 -0.024910599
0003f0 62 c9 20 3e 56 2c 44 be b0 bd 03 bd 04 29 c5 bd
       0.15701821 -0.19157538 -0.032163322 -0.09626964

model.2.bias f4 [128]
000000 79 44 8f bd c1 5f a9 bd 6e 15 5e bd e9 3c 90 bd
       -0.06995482 -0.08270217 -0.054219656 -0.07042868
000010 a3 34 91 bd fc cb 1d 3e a2 af 27 3e eb a8 99 bd
       -0.07090118 0.15409845 0.16375592 -0.07502922
000020 26 ba 9f bd 22 4e 27 3e 8f 72 9f bd 67 2a 9d bd
       -0.07799177 0.16338399 -0.07785522 -0.07674103
000030 13 04 89 bd c5 83 25 3e 94 44 27 3e 02 c1 24 3e
       -0.0669023 0.16163547 0.16334754 0.16089252
000040 55 44 8a bd 36 bf 1f 3e 34 dc 1a 3e a7 d5 9e bd
       -0.067513146 0.15600285 0.15123063 -0.07755595
000050 35 8e 24 3e 26 04 2a 3e d6 47 82 bd 42 f9 75 bd
       0.16069873 0.16603145 -0.06361358 -0.060052164
000060 f5 77 2c 3e af f2 30 3e 08 85 93 bd 1d c0 86 bd
       0.16842635 0.17280076 -0.07203108 -0.065796115
000070 85 1f 98 bd 89 fd 25 3e c1 21 1a 3e b6 58 24 3e
       -0.07427887 0.16209997 0.15051939 0.16049466
000080 82 09 2e 3e ec 29 83 bd 5b 21 a9 bd 52 54 15 3e
       0.16995814 -0.0640448 -0.08258315 0.14582947
000090 6f 59 1e 3e e7 08 82 bd 7f 07 1f 3e 38 18 19 3e
       0.15463804 -0.06349354 0.15530203 0.14950645
0000a0 40 0b 2a 3e dd dc 18 3e 95 d9 a9 bd 97 2b ad bd
       0.16605854 0.14928003 -0.082934536 -0.0845558
0000b0 ca 7a 26 3e db 93 18 3e 74 63 24 3e fa ee 21 3e
       0.16257778 0.14900152 0.16053563 0.15813819
0000c0 d8 1d 00 bd f5 ce a1 bd 1b 70 2a 3e 57 e3 9d bd
       -0.03127846 -0.07900802 0.16644327 -0.07709377
0000d0 0f 7b 24 3e 64 65 94 bd c0 e8 26 3e ff fa 75 bd
       0.16062568 -0.07245901 0.16299725 -0.06005382
0000e0 b7 29 22 3e 0c ee 24 3e 78 ed 87 bd f2 4b 22 3e
       0.15836225 0.16106433 -0.066370904 0.15849283
0000f0 68 38 7c bd bc f0 25 3e da b8 27 3e 4e 1c 8a bd
       -0.06157723 0.16205114 0.16379109 -0.0674368
000100 88 80 94 bd 82 4d 17 3e ad 5e 26 3e d5 c2 29 3e
       -0.07251078 0.1477566 0.16247053 0.16578229
000110 b0 6b a6 bd 2b be 8b bd b9 10 27 3e 34 4d 26 3e
       -0.081260085 -0.06823381 0.16314973 0.16240388
000120 fd 96 17 3e 64 1d a1 bd 6c a7 2a 3e a1 77 28 3e
       0.14803691 -0.07866934 0.16665429 0.16451885
000130 c3 db a2 bd 14 eb 20 3e 96 91 aa bd 91 08 a8 bd
       -0.079520725 0.15714675 -0.083285496 -0.08204759
000140 94 05 7a bd 45 15 90 bd 4f 5b a3 bd b9 0a 29 3e
       -0.061040476 -0.07035307 -0.079764 0.16507997
000150 f4 f4 7b bd 80 fb 76 bd 8f d5 27 3e f3 f9 29 3e
       -0.061512902 -0.060298443 0.1639006 0.16599254
000160 22 ad 19 3e 8c 86 8c bd 48 f2 1e 3e 55 f1 26 3e
       0.15007451 -0.068616 0.1552211 0.16302998
000170 e5 14 a5 bd 23 c6 28 3e ac 07 97 bd da 86 22 3e
       -0.08060626 0.16481833 -0.0737451 0.15871754
000180 29 df 21 3e 8c 4b 95 bd d2 49 1d 3e cf 3c 23 3e
       0.15807785 -0.072898 0.15360191 0.15941165
000190 65 7b 81 bd 5b c2 8b bd e4 b3 98 bd cc 5f 9a bd
       -0.06322364 -0.0682418 -0.074561864 -0.07537803
0001a0 87 56 1d 3e 80 ea 22 3e c6 b7 27 3e 92 b7 c0 bd
       0.15365039 0.15909767 0.16378698 -0.09410013
0001b0 40 87 6b bd 68 3a b9 bd 8a 30 8f bd 88 c4 92 bd
       -0.05750203 -0.09044343 -0.0699168 -0.071663916
0001c0 bf 42 21 3e 46 4b a3 bd c5 96 7f bd 08 fb 75 bd
       0.15748118 -0.07973342 -0.062399644 -0.060053855
0001d0 3d 16 aa bd 20 fb 75 bd 67 f5 1f 3e 5f 29 be bd
       -0.08305023 -0.060053945 0.15620957 -0.09285235
0001e0 66 d5 20 3e 7d 02 b6 bd f5 1e 1c 3e 46 5c a3 bd
       0.15706405 -0.08887193 0.15246184 -0.07976584
0001f0 ed f9 8a bd eb df 8a bd de d5 9c bd c3 61 a1 bd
       -0.06785951 -0.0678099 -0.076579794 -0.07879975

model.4.weight f4 [1, 128]
000000 6a 94 fe bd 94 be 93 bd b8 c3 99 3d 7f 2a 12 be
       -0.124306515 -0.07214084 0.075080335 -0.14274023
000010 fc c9 0a be a7 7c 7d 3e 47 0d db 3e 04 62 ba bc
       -0.13553613 0.24754582 0.42783567 -0.022751816
000020 d4 ab 77 3d a1 37 c7 3e 43 ed 8d 3d b0 46 16 bd
       0.060466602 0.3890963 0.0693002 -0.036688507
000030 bd 8d a6 bd 8f a4 8c 3e a1 e3 ec 3e b9 27 93 3e
       -0.08132503 0.27469298 0.46267417 0.28741243
000040 97 44 5b bd 90 e5 b2 3e 4b 67 c1 3e 30 76 e4 3c
       -0.05353221 0.34940767 0.3777412 0.027888387
000050 26 93 b1 3e cc 58 af 3e a6 61 85 3b 22 40 f6 3c
       0.34682578 0.34247434 0.0040704785 0.030059878
000060 a2 c2 c8 3e a6 60 c8 3e ea f5 3f 3c 97 10 01 be
       0.39210993 0.39136237 0.011716345 -0.12603985
000070 b6 ee 62 bc 82 f3 91 3e 9b 06 cf 3e 99 67 89 3e
       -0.013850858 0.28506094 0.40434727 0.2683685
000080 7c c9 e4 3e a8 c2 15 be 13 fe 95 bc ab 12 cc 3e
       0.4468497 -0.14625037 -0.018309629 0.39857993
000090 de 81 94 3e 5b 90 c0 bd c5 b5 c1 3e bf af 75 3e
       0.2900533 -0.094025336 0.37833992 0.23992823
0000a0 7c 15 d2 3e ed 7a dd 3e 14 00 be bd 6b 7f 85 bc
       0.41032016 0.43257847 -0.09277359 -0.01629611
0000b0 84 e7 bc 3e 37 01 c9 3e 75 6a 8d 3e bb d1 8f 3e
       0.36895382 0.3925874 0.27620283 0.280897
0000c0 d2 22 74 3d 86 83 47 bd aa 86 e4 3e 55 71 35 bc
       0.05960352 -0.048709415 0.4463399 -0.011074384
0000d0 0f 59 87 3e 90 fe ea bd 47 72 a5 3e 01 ee 5d bd
       0.26435134 -0.11474335 0.3231375 -0.054182056
0000e0 3a 9a d9 3e 06 56 8d 3e f1 81 ce bd 5c 23 e7 3e
       0.42500478 0.27604693 -0.10083378 0.45144165
0000f0 df 75 87 3c 49 5a ea 3e 7c 82 8d 3e 3c 37 4b 3b
       0.016535698 0.45772007 0.27638614 0.0031008264
000100 9a e8 7e 3d 38 4a d4 3e cc 63 98 3e f9 fd c7 3e
       0.062233545 0.41462874 0.2976364 0.39060953
000110 9f 85 0a bd 0f 0b 98 bd 68 33 bc 3e 2b c5 e7 3e
       -0.033818837 -0.07423984 0.3675797 0.45267615
000120 83 18 d5 3e cd 64 02 3c 18 06 cb 3e 6d f7 95 3e
       0.41620263 0.007958603 0.39653087 0.29290333
000130 b2 87 f6 3b 47 cf 9f 3e 7b e6 cd bd 43 12 fa 3c
       0.0075235004 0.31212828 -0.10053726 0.030526286
000140 7a aa 16 bc 6e f6 d8 bd 20 22 4b bd 01 3e b3 3e
       -0.009195918 -0.10593878 -0.04959309 0.35008243
000150 4c fb 82 3d 17 76 00 bd 0a 50 bc 3e 75 65 ba 3e
       0.06395587 -0.03136262 0.36779815 0.3640553
000160 10 63 69 3e 59 b7 a4 bd 60 2b 97 3e 2e 87 ba 3e
       0.22791696 -0.08042783 0.2952528 0.3643126
000170 d1 c0 38 3d 75 58 ac 3e e8 4d 9d bc 20 15 aa 3e
       0.04510576 0.33661237 -0.019202188 0.33219242
000180 ba be a1 3e de 74 22 bc 66 b1 da 3e d2 fa b6 3e
       0.31590825 -0.009915559 0.4271347 0.35738236
000190 af b9 df 3b 4c 34 04 3c 3b 35 d7 bd 8b ef f8 bd
       0.006827555 0.008069109 -0.105082 -0.12155064
0001a0 9f ba ab 3e a6 1b b3 3e 02 c5 c6 3e 8e a6 61 3c
       0.33540818 0.34982032 0.3882218 0.01377262
0001b0 b6 83 00 be 32 29 22 3d dd 56 e9 bd 81 ff f0 bd
       -0.12550244 0.03959007 -0.11393521 -0.117674835
0001c0 c7 18 ef 3e dc 5d 55 bd c9 ec 04 be 17 38 13 be
       0.4669859 -0.052091464 -0.12980951 -0.14376865
0001d0 1b 5f 48 bb c0 63 fb bd 1e 81 7e 3e ce c7 eb bd
       -0.0030574265 -0.12274885 0.24853942 -0.11512719
0001e0 ed d2 f0 3e 00 06 d5 bc 46 c0 6f 3e e4 d2 a5 3c
       0.47035924 -0.026003838 0.2341319 0.020242162
0001f0 7e b6 d1 bd 3e c0 0d 3d ca c9 ef bd d0 57 76 bd
       -0.10239886 0.034607165 -0.1170841 -0.06014234
