models/neural_networks/regression/best_model/model.pt (torch, 410932 bytes, 5 tensors)

model.0.weight f4 [128, 667]
0.111486435 0.102679394 -0.1605131 0.029757978 0.16217911 0.029363124 0.019995216 0.09401445
0.15268354 0.069771156 0.056682654 0.048991516 0.14195457 0.027163519 0.08138703 -0.03600483
-0.04875637 -0.0933954 -0.050111078 0.077105746 0.07023801 0.08270507 0.0048087314 -0.07771241
-0.07338929 0.041371394 -0.046781 0.043415677 -0.07640253 -0.046711165 0.006510498 0.018405281
0.07501921 0.05014348 -0.066278465 0.042633068 0.107210755 0.049400892 -0.046396837 -0.065731704
-0.09450857 0.05181466 0.07535009 -0.09209829 -0.02279992 -0.07033934 0.0841514 -0.014706504
-0.077982016 -0.06790027 0.04484155 -0.0708057 -0.011652195 0.010998061 -0.09050096 0.029898202
-0.075739205 0.024987034 -0.06914988 -0.011221506 0.0048619136 0.025421975 0.052278217 -0.08036671
-0.049784094 -0.034446523 0.110061616 0.09502547 -0.032681625 0.057061628 0.049279768 0.04832151
-0.03743989 0.003110264 0.0003825446 0.018038504 0.007574823 -0.019842638 -0.014338282 -0.0108130835
-0.02577201 0.016393367 0.091713674 -0.037959598 -0.08270325 0.078694984 0.09522037 -0.024610303
0.1267582 0.041605055 -0.03344052 0.005853359 0.0892477 0.08161095 0.10726464 0.0320075
-0.07439565 0.08817949 0.008900782 0.09416996 0.11564357 0.049470633 0.038578793 0.07637052
-0.07077079 -0.05575972 0.052868873 -0.026840188 0.027834006 -0.010297857 -0.01588063 0.06895155
-0.07512818 -0.04351428 -0.021321625 0.048961625 0.013237305 -0.013937049 0.08252166 -0.007903211
0.09461718 0.06035858 -0.038453612 0.02552136 -0.038555115 -0.07606624 0.054208085 -0.04831735
-0.09319396 -0.0019510151 0.008451667 0.041887876 0.039936975 -0.005142029 0.08436986 0.06584233
-0.03834404 0.066111095 0.017188722 0.020369437 0.02960974 -0.085816115 0.08630049 0.013807128
0.05521323 0.053238932 -0.058930624 -0.033541273 -0.08573607 0.06383651 -0.0059391097 0.10121245
0.05910877 0.047021598 -0.051346764 -0.079912595 -0.014534561 0.040785924 0.03554031 -0.048362345
-0.039251804 -0.04254199 0.012702346 0.07874505 0.084698975 0.033332184 -0.053706452 0.037366774
0.055842713 0.10757257 0.08763745 0.08135097 0.089373246 0.010847591 -0.06657737 0.061372463
0.11768672 -0.024555176 0.040080722 0.043072104 -0.057284467 -0.06747208 0.02817665 0.07421951
0.059252515 0.07034231 0.067715436 0.0043958114 0.050898366 0.033321276 0.04654164 0.10923552
-0.09137306 -0.019800736 -0.06355574 -0.040259603 -0.029516451 0.039129585 0.08542584 0.08021112
-0.04768555 0.020587854 -0.045873035 0.016172372 0.006512366 -0.07019869 0.09487738 0.102380425
-0.0601284 0.07176186 -0.07933454 -0.071674354 -0.012192979 0.026940413 -0.05033024 0.038141783
-0.02825939 0.005688004 0.060967926 0.028650798 0.019740462 -0.0057021603 0.07867753 -0.03163392
0.033407986 0.009085283 0.086208805 0.012116812 -0.060207233 0.111065626 -0.062273994 0.060210485
-0.055968836 -0.028139753 0.03927029 0.023779444 0.090357065 -0.060003463 0.055841763 0.06605217
0.09048672 -0.0075497106 -0.06945896 -0.035311013 -0.06978473 0.07572383 0.08682297 -0.024148904
-0.03590068 0.032672957 0.09431884 0.07387235 0.023749769 0.086703464 0.06637584 0.05853434
00000000: 0053 e43d 9349 d23d 8c5d 24be 01c7 f33c
00000010: 4812 263e ef8a f03c 02cd a33c a68a c03d
00000020: 1359 1c3e 2ee4 8e3d 122c 683d 54ab 483d
00000030: 8a5c 113e 0786 de3c 3eae a63d cd79 13bd
00000040: c2b4 47bd 1646 bfbd 4641 4dbd 9ee9 9d3d
00000050: f2d8 8f3d 4761 a93d 9092 9d3b af27 9fbd
00000060: 204d 96bd 0d75 293d 6f9d 3fbd a3d4 313d
00000070: ee78 9cbd 3554 3fbd 0456 d53b acc6 963c
00000080: aca3 993d 4063 4d3d 01bd 87bd 03a0 2e3d
00000090: 5091 db3d 9758 4a3d 9c0a 3ebd 589e 86bd
000000a0: b68d c1bd 9c3b 543d 2651 9a3d 079e bcbd
000000b0: e6c6 babc 120e 90bd 9257 ac3d 8cf3 70bc
000000c0: 09b5 9fbd 4c0f 8bbd c6ab 373d 9402 91bd
000000d0: d9e8 3ebc 3631 343c 9158 b9bd 13ed f43c
000000e0: 281d 9bbd 9cb1 cc3c 749e 8dbd 68da 37bc
000000f0: b050 9f3b bf41 d03c af21 563d 4d97 a4bd
00000100: 68ea 4bbd cc17 0dbd fc67 e13d b79c c23d
00000110: 2bdd 05bd 74b9 693d 95d9 493d c7ec 453d
00000120: 925a 19bd 92d5 4b3b 4490 c839 7cc5 933c
00000130: 3936 f83b 078d a2bc 1deb 6abc 5c29 31bc
00000140: d31f d3bc 624b 863c 61d4 bb3d 867b 1bbd
00000150: 5260 a9bd d62a a13d e602 c33d 8c9b c9bc
00000160: e7cc 013e 106a 2a3d edf8 08bd 89cd bf3b
00000170: 80c7 b63d a423 a73d 90ad db3d 4c1a 033d
00000180: bf5c 98bd 7397 b43d 96d4 113c 2edc c03d
00000190: 89d6 ec3d b8a1 4a3d cc04 1e3d 2668 9c3d
000001a0: 47f0 90bd 4e64 64bd 088d 583d f4df dbbc
000001b0: 2404 e43c 58b8 28bc 1818 82bc 7836 8d3d
000001c0: cedc 99bd 083c 32bd b0aa aebc fc8b 483d
000001d0: 48e1 583c 3858 64bc 1e01 a93d 787c 01bc
000001e0: a7c6 c13d 8f3a 773d 8981 1dbd 2c12 d13c
000001f0: f8eb 1dbd 9ec8 9bbd 4c09 5e3d 6ae8 45bd
00000200: 7adc bebd 34b9 ffba dc78 0a3c 9f92 2b3d
00000210: f494 233d 777e a8bb 1bca ac3d 58d8 863d
00000220: a40e 1dbd 4165 873d 5dcf 8c3c cedd a63c
00000230: 2090 f23c 5cc0 afbd 50be b03d 4b37 623c
00000240: 4527 623d 1111 5a3d 3d61 71bd 9362 09bd
00000250: 6596 afbd b7bc 823d dd9c c2bb 7948 cf3d
00000260: 0a1c 723d b899 403d fc50 52bd 37a9 a3bd
00000270: 5e22 6ebc 240f 273d b792 113d 9817 46bd
00000280: 80c6 20bd 8240 2ebd 801d 503c 1645 a13d
00000290: a876 ad3d 5487 083d 4cfb 5bbd e70d 193d
000002a0: 54bb 643d 024f dc3d 437b b33d 569b a63d
000002b0: 5209 b73d 18ba 313c b759 88bd b161 7b3d
000002c0: bc05 f13d f027 c9bc af2b 243d 606c 303d
000002d0: 1ea3 6abd cd2e 8abd b8d2 e63c 6600 983d
000002e0: c4b2 723d a10f 903d 64ae 8a3d bd0a 903b
000002f0: ce7a 503d e47b 083d 72a2 3e3d dfb6 df3d
00000300: cd21 bbbd 2735 a2bc 8329 82bd 41e7 24bd
00000310: 7ccc f1bc 5846 203d bef3 ae3d ba45 a43d
00000320: ec51 43bd dca7 a83c 5de5 3bbd ec7b 843c
00000330: af65 d53b 55c4 8fbd 124f c23d d4ac d13d
00000340: 3249 76bd e2f7 923d 267a a2bd 01ca 92bd
00000350: 10c5 47bc 24b2 dc3c 1527 4ebd 8f3a 1c3d
00000360: 3c80 e7bc 7062 ba3b 81b9 793d 14b5 ea3c
00000370: c0b6 a13c 30d9 babb af21 a13d 9292 01bd
00000380: d0d6 083d 70da 143c 3e8e b03d 9885 463c
00000390: dc9b 76bd 6076 e33d 0413 7fbd 459f 763d
000003a0: 943f 65bd 5785 e6bc e2d9 203d 1ccd c23c
000003b0: 200d b93d 31c6 75bd 55ba 643d 5c46 873d
000003c0: 1a51 b93d 9063 f7bb 8040 8ebd 48a2 10bd
000003d0: 4ceb 8ebd 1815 9b3d 3ed0 b13d ecd3 c5bc
000003e0: 970c 13bd 14d4 053d 3c2a c13d 634a 973d
000003f0: e08e c23c 9691 b13d 0ef0 873d b4c1 6f3d

model.0.bias f4 [128]
0.09422007 0.095329 0.10607335 0.115315646 0.100003995 -0.020654691 0.046578597 0.09704751
0.096588746 0.06798044 0.08487206 0.06175993 -0.0008315059 0.083605304 0.046514057 0.09083803
0.10017643 0.03233536 0.04991197 0.10425808 0.101472534 0.08731811 0.10730887 0.09821489
0.0015493359 0.10703277 0.09506539 0.10336055 0.09519352 0.12104934 0.094724506 0.10997522
0.07855145 0.09123303 0.09158091 0.10309621 0.10360583 0.1033769 0.09287193 0.048804015
0.11054657 0.0064693848 -0.02225869 -0.030116906 0.11828575 0.08951026 0.08766818 0.09635179
0.10886652 0.095201366 0.10296634 0.09261112 0.097205125 0.09909343 0.094980456 0.08292202
0.106894396 0.0942788 0.1036299 0.07489066 0.114241056 0.10060946 0.10588112 0.09204189
0.066665374 0.08710427 -0.010228296 0.108501464 0.054244537 0.10270857 0.09263958 0.08910642
0.06513299 0.08330906 0.091348395 0.041583188 0.100990474 0.075908504 0.0980978 0.09938628
0.08981988 0.10374025 0.10200128 0.107561216 0.08981836 0.00056401006 0.09152186 0.083558075
0.10243222 0.07128264 0.09338971 0.034241468 0.032639597 0.072366975 0.0085176295 0.0917033
0.10090599 0.09464721 -0.0042702723 0.08701848 0.10656051 0.1059251 -0.01006995 0.10668322
0.114232406 0.060737945 0.10808532 0.08433714 0.0940677 0.10943855 0.1021073 0.10547516
0.095036015 0.005812909 0.10509705 0.09082166 -0.026355462 -0.004360046 0.059340846 0.1064561
0.07360729 -0.019455533 0.1006441 0.082315974 0.091795444 0.09221682 0.09160168 0.110360004
00000000: 74f6 c03d da3b c33d fc3c d93d 9c2a ec3d
00000010: e5ce cc3d 0734 a9bc 33c9 3e3d d8c0 c63d
00000020: 52d0 c53d 5439 8b3d 67d1 ad3d fbf7 7c3d
00000030: 6bf9 59ba 4239 ab3d 8685 3e3d 4a09 ba3d
00000040: 4d29 cd3d 1572 043d 7e70 4c3d 4385 d53d
00000050: d5d0 cf3d d6d3 b23d c1c4 db3d e324 c93d
00000060: 1613 cb3a ff33 db3d a5b1 c23d b2ae d33d
00000070: d2f4 c23d b7e8 f73d ecfe c13d b03a e13d
00000080: 95df a03d 62d8 ba3d c68e bb3d 1b24 d33d
00000090: 4b2f d43d 45b7 d33d a333 be3d b8e6 473d
000000a0: 3d66 e23d 22fd d33b db57 b6bc bbb7 f6bc
000000b0: cd3f f23d 2851 b73d 608b b33d 1654 c53d
000000c0: 69f5 de3d eff8 c23d 04e0 d23d e6aa bd3d
000000d0: 7b13 c73d 7ff1 ca3d 1d85 c23d 05d3 a93d
000000e0: 73eb da3d 3e15 c13d ea3b d43d 4660 993d
000000f0: 37f7 e93d 550c ce3d 33d8 d83d 7580 bc3d
00000100: db87 883d b963 b23d 9594 27bc 0436 de3d
00000110: 852f 5e3d df58 d23d d2b9 bd3d 6d7d b63d
00000120: 7264 853d f19d aa3d de14 bb3d 2253 2a3d
00000130: 18d4 ce3d eb75 9b3d 80e7 c83d 098b cb3d
00000140: 7cf3 b73d c575 d43d 0ce6 d03d 0e49 dc3d
00000150: b0f2 b73d 13da 133a d06f bb3d 7f20 ab3d
00000160: fcc7 d13d a2fc 913d 1b43 bf3d c840 0c3d
00000170: 19b1 053d 2335 943d 878d 0b3c f1ce bb3d
00000180: cda7 ce3d 65d6 c13d a4ed 8bbb bf36 b23d
00000190: 663c da3d 42ef d83d 6efc 24bc bb7c da3d
000001a0: aef2 e93d 5ac8 783d d65b dd3d f3b8 ac3d
000001b0: 91a6 c03d 5221 e03d a21d d13d 5c03 d83d
000001c0: 3ea2 c23d 377a be3b 1f3d d73d b500 ba3d
000001d0: 69e7 d7bc b7de 8ebb 630f 733d a805 da3d
000001e0: 6bbf 963d 3661 9fbc 7e1e ce3d 4795 a83d
000001f0: 40ff bb3d 2cdc bc3d a999 bb3d 6d04 e23d

model.2.weight f4 [128, 128]
0.3267772 0.0331802 0.021272944 -0.095045716 0.30021465 -0.016175553 0.044062402 -0.046094425
0.16440174 0.003359946 0.023056254 0.16080758 0.16818051 -0.05640933 0.01508878 -0.096028395
0.12207734 -0.056101408 0.17162485 -0.007896603 0.001653963 0.2690906 -0.040637836 0.31225696
0.08759644 -0.011635602 0.24701735 -0.04501544 0.21299845 0.32400173 0.023090152 -0.07864207
0.22903661 0.2375518 0.08891551 0.19063593 -0.022153655 0.03998393 -0.09517685 -0.07298974
-0.04836181 0.068185 -0.09795014 0.1990359 0.325606 0.07810436 0.054505944 0.04126068
0.20753756 0.25719762 0.2917194 0.28515837 0.10556984 0.16715378 0.011416219 -0.009960836
0.27205014 0.04550823 0.1565689 0.22551997 0.32463437 0.028013103 -0.03870414 -0.0346817
0.11147499 -0.081969105 0.1568359 0.20914735 0.232341 0.24215706 -0.08519305 0.1714166
0.26741627 -0.016213052 -0.012412778 -0.03079924 0.29314616 0.33035186 0.12853974 0.1214395
-0.035294212 0.26860577 0.2536237 0.17427044 0.1890996 -0.00025546819 -0.03582419 0.1941262
0.29574126 0.10402786 0.1932701 -0.07765103 0.20040667 0.275894 0.037735667 0.33377764
0.10760946 0.23547778 0.09302405 -0.008555069 -0.011139143 0.2974384 0.06702073 -0.07124351
-0.08479419 0.018124484 0.029003192 0.08109618 0.11130882 0.21423535 -0.0740684 0.31693894
0.08839578 0.112100184 -0.038191494 0.21483654 0.041196153 0.037586115 0.03051112 0.2747349
0.018556815 0.036880344 0.051889423 -0.06949669 0.31349227 0.22339647 0.060456768 -0.056938
-0.2021128 0.13868771 -0.04257254 -0.050588097 0.15394484 0.046903204 0.10415202 0.09292413
-0.04928677 0.107046925 -0.12903647 0.093522035 -0.19321573 -0.16219501 -0.050682068 0.004587561
-0.07122918 -0.19486913 -0.23075579 -0.15647294 -0.18259236 -0.023109129 -0.09508242 0.069715366
0.04981583 0.10644304 0.09949793 -0.114947855 -0.07060469 -0.20511506 -0.0012731757 -0.116679475
-0.17489953 0.0079427045 0.18724366 -0.21074918 -0.16037406 -0.22786278 -0.10085549 0.060978316
-0.0474419 0.09405343 0.08409192 -0.09111988 0.13566914 -0.077221915 -0.0012400032 0.0035476538
0.051691975 -0.037370834 0.1007034 -0.23154351 -0.04511253 0.15675682 -0.09900261 0.056380246
0.09300593 0.023134537 0.1339104 0.14521974 0.1253272 0.104336545 -0.11258282 -0.17293757
-0.11949867 0.13661973 -0.10829029 0.12990163 -0.20136124 -0.21411031 -0.18519196 0.061870173
0.17886175 0.040311813 -0.118480206 0.16705583 -0.09700877 -0.030459788 -0.2325259 -0.046256255
-0.14181872 0.043766752 -0.22705872 0.1621233 0.062180158 -0.09101656 -0.15591823 -0.076417096
0.18822005 -0.23313613 0.118991524 0.011026604 0.11352359 0.1385585 0.19341342 -0.13847938
0.050182194 0.023798047 -0.046773385 -0.08412139 -0.19766338 -0.1928739 -0.12304928 0.10953135
0.13287237 0.033440743 0.067177296 -0.034990586 0.15711622 -0.0576906 -0.21532574 -0.049707092
0.112912364 0.106959544 0.017198594 0.14004095 -0.1412544 0.028851641 0.1951847 0.16847643
-0.049124144 -0.06990377 -0.18839587 0.089374356 -0.053030528 -0.14847882 -0.13935825 0.034143835
00000000: 574f a73e f6e7 073d 9944 ae3c 54a7 c2bd
00000010: bcb5 993e 9882 84bc c77a 343d 82cd 3cbd
00000020: ee58 283e 8a32 5c3b 78e0 bc3c beaa 243e
00000030: 8337 2c3e 780d 67bd ee36 773c 89aa c4bd
00000040: af03 fa3d 97ca 65bd 6dbe 2f3e c160 01bc
00000050: cac9 d83a 3ec6 893e dc73 26bd 25e0 9f3e
00000060: c365 b33d 41a3 3ebc 1ef2 7c3e 1c62 38bd
00000070: 441c 5a3e 8ee3 a53e 8f27 bd3c 180f a1bd
00000080: 9388 6a3e c740 733e 5619 b63d 1136 433e
00000090: 957b b5bc 30c6 233d 15ec c2bd a57b 95bd
000000a0: 0917 46bd 94a4 8b3d 159a c8bd 11d0 4b3e
000000b0: d4b5 a63e 2ef5 9f3d a041 5f3d f500 293d
000000c0: ba84 543e 68af 833e 3f5c 953e 4700 923e
000000d0: 0035 d83d 5c2a 2b3e 180b 3b3c c632 23bc
000000e0: 284a 8b3e d666 3a3d 9953 203e b5ee 663e
000000f0: 7a36 a63e bc7b e53c 3b88 1ebd 660e 0ebd
00000100: 004d e43d 6bdf a7bd 9799 203e b92a 563e
00000110: cdea 6d3e 05f8 773e b279 aebd d587 2f3e
00000120: c9ea 883e 3cd1 84bc f75e 4bbc b04e fcbc
00000130: 4117 963e e123 a93e ec9f 033e 46b5 f83d
00000140: aa90 10bd b286 893e f7da 813e f373 323e
00000150: 53a3 413e 5cf0 85b9 63bc 12bd 05c9 463e
00000160: 666b 973e 8f0c d53d 99e8 453e 8107 9fbd
00000170: 6837 4d3e fa41 8d3e b790 1a3d e7e4 aa3e
00000180: 5962 dc3d 1621 713e 6583 be3d 8f2a 0cbc
00000190: f480 36bc d949 983e 2a42 893d 1ee8 91bd
000001a0: 94a8 adbd cc79 943c 1a98 ed3c c115 a63d
000001b0: e1f5 e33d 8360 5b3e 2cb1 97bd d245 a23e
000001c0: d908 b53d c894 e53d af6e 1cbd 1cfe 5b3e
000001d0: 4cbd 283d e6f3 193d 75f2 f93c 0eaa 8c3e
000001e0: 7604 983c d80f 173d 018a 543d 4854 8ebd
000001f0: 0f82 a03e 0bc2 643e 84a1 773d d237 69bd
00000200: a8f6 4ebe 2704 0e3e 8b60 2ebd 7735 4fbd
00000210: b7a3 1d3e 931d 403d a74d d53d 024f be3d
00000220: ede0 49bd 6b3b db3d 2322 04be 7b88 bf3d
00000230: 58da 45be 7316 26be 0098 4fbd 4053 963b
00000240: 9be0 91bd c68b 47be 3f4b 6cbe 713a 20be
00000250: 7ef9 3abe 5b4f bdbc 92ba c2bd eec6 8e3d
00000260: af0b 4c3d cffe d93d 92c5 cb3d c869 ebbd
00000270: 3199 90bd af09 52be b0e0 a6ba a6f5 eebd
00000280: dd18 33be 1e22 023c cdbc 3f3e a2ce 57be
00000290: 1939 24be dc54 69be 538d cebd 66c4 793d
000002a0: 7052 42bd 169f c03d 6238 ac3d 0f9d babd
000002b0: daec 0a3e 8626 9ebd 9a87 a2ba c17f 683b
000002c0: f7ba 533d 2912 19bd 963d ce3d be19 6dbe
000002d0: ebc7 38bd dc84 203e e1c1 cabd f9ee 663d
000002e0: e579 be3d a484 bd3c cf1f 093e 7cb4 143e
000002f0: c655 003e 66ae d53d d291 e6bd 8c16 31be
00000300: b8bb f4bd 0be6 0b3e 4dc7 ddbd ef04 053e
00000310: a431 4ebe bc3f 5bbe f6a2 3dbe 946b 7d3d
00000320: 8927 373e 001e 253d c0a5 f2bd af10 2b3e
00000330: 89ac c6bd ce86 f9bc 451b 6ebe 3377 3dbd
00000340: ed38 11be c444 333d 1582 68be a603 263e
00000350: 9fb0 7e3d e466 babd 07a9 1fbe 9180 9cbd
00000360: c2bc 403e 3dbb 6ebe d4b1 f33d eea8 343c
00000370: 0e7f e83d 48e2 0d3e 2b0e 463e 8acd 0dbe
00000380: d88b 4d3d 1ff4 c23c 7395 3fbd d647 acbd
00000390: 4568 4abe bc80 45be 4301 fcbd f951 e03d
000003a0: b20f 083e 29f9 083d 4094 893d 4a52 0fbd
000003b0: 13e3 203e fb4c 6cbd 5a7e 5cbe aa99 4bbd
000003c0: 993e e73d 9b0d db3d 11e4 8c3c e566 0f3e
000003d0: fea4 10be 475a ec3c 7fde 473e 1685 2c3e
000003e0: 6636 49bd b529 8fbd d9ea 40be e709 b73d
000003f0: 8a36 59bd d50a 18be eeb3 0ebe 68da 0b3d

model.2.bias f4 [128]
0.103347346 -0.019941587 -0.02541715 -0.012933544 0.061187018 -0.0169097 -0.028188229 0.096417405
-0.027106391 -0.020220246 0.06128781 -0.01749164 0.07594377 -0.01922665 -0.024447786 0.09935892
-0.024343774 -0.023160737 0.06912422 -0.022399968 0.07605083 0.0651914 0.062274966 0.07768629
0.08898445 0.07659725 0.06656855 -0.025904302 0.0731747 0.10004316 -0.021370947 0.08128379
0.07069999 0.08735383 0.07885938 -0.022855038 0.06482891 0.06197173 -0.01718837 0.06331282
-0.025386037 -0.025035894 -0.020317763 0.0644156 0.0676654 -0.022236869 -0.026744997 0.08773594
0.09185994 -0.017943753 -0.023651987 -0.02438506 -0.02167214 -0.019135468 -0.024182431 0.07504096
-0.024288302 0.07768701 0.07989345 0.0839599 -0.02399715 0.06478699 0.07891901 0.096639395
0.069854096 -0.020426674 -0.022859946 -0.027861224 -0.019380318 -0.020598339 -0.028232472 -0.02801841
0.08350998 -0.018864887 0.093842655 0.076662935 -0.020596366 0.06808006 0.074619815 0.05899709
-0.01733206 0.06924513 -0.02877422 -0.02182841 0.06703081 -0.018886007 0.065374695 0.06178988
-0.026752982 0.072485045 0.08126176 0.06827334 0.069808125 -0.019618487 0.07906892 -0.016395962
0.086617775 0.06408146 -0.025602493 0.10430632 0.059604846 0.057123054 -0.020480176 0.09465233
0.0969165 -0.018402042 -0.025969185 -0.025810348 -0.021001237 0.07399135 -0.025768042 0.06819105
0.091286 0.06706261 0.06370903 -0.020905808 0.07064953 -0.011538433 0.06190148 0.07497209
0.08529652 -0.030062743 0.056673408 -0.023643093 0.08442805 -0.03242174 -0.020282546 0.03352797
00000000: c6a7 d33d 8a5c a3bc a137 d0bc 37e7 53bc
00000010: 3d9f 7a3d 3686 8abc 00eb e6bc 7d76 c53d
00000020: 390e debc eea4 a5bc ed08 7b3d a14a 8fbc
00000030: 6888 9b3d 3581 9dbc b946 c8bc b07c cb3d
00000040: 986c c7bc 96bb bdbc 0091 8d3d 2380 b7bc
00000050: 8ac0 9b3d 1283 853d 0914 7f3d fd19 9f3d
00000060: 7b3d b63d 05df 9c3d 1855 883d 4235 d4bc
00000070: 9edc 953d 6ee3 cc3d 2012 afbc 1e78 a63d
00000080: 28cb 903d 91e6 b23d 0781 a13d 7d3a bbbc
00000090: 05c5 843d 12d6 7d3d a0ce 8cbc 27aa 813d
000000a0: 61f6 cfbc 1318 cdbc 7071 a6bc 53ec 833d
000000b0: 2894 8a3d 182a b6bc 5318 dbbc e7ae b33d
000000c0: 1021 bc3d c7fe 92bc d0c1 c1bc 2dc3 c7bc
000000d0: c689 b1bc fcc1 9cbc 3c1a c6bc 13af 993d
000000e0: 43f8 c6bc 5e1a 9f3d 2d9f a33d 2bf3 ab3d
000000f0: ac95 c4bc 0baf 843d 4aa0 a13d e0ea c53d
00000100: aa0f 8f3d d755 a7bc c844 bbbc 393d e4bc
00000110: 79c3 9ebc d9bd a8bc c947 e7bc dd86 e5bc
00000120: 4807 ab3d 898a 9abc 9430 c03d 7501 9d3d
00000130: b6b9 a8bc 8f6d 8b3d 46d2 983d efa6 713d
00000140: f7fb 8dbc 64d0 8d3d eab7 ebbc 7ed1 b2bc
00000150: 7347 893d d4b6 9abc 2be3 853d 6317 7d3d
00000160: 1229 dbbc 0a73 943d 916c a63d e5d2 8b3d
00000170: 90f7 8e3d f3b6 a0bc e3ee a13d d350 86bc
00000180: a964 b13d 243d 833d 52bc d1bc 8d9e d53d
00000190: 3624 743d ddf9 693d 0bc6 a7bc 15d9 c13d
000001a0: 287c c63d e1bf 96bc 54bd d4bc 3970 d3bc
000001b0: c90a acbc c788 973d 8017 d3bc c0a7 8b3d
000001c0: 28f4 ba3d 1f58 893d e179 823d a842 abbc
000001d0: b3b0 903d b20b 3dbc 688c 7d3d f88a 993d
000001e0: f1af ae3d 2446 f6bc 6022 683d 29af c1bc
000001f0: 9de8 ac3d a9cc 04bd 9527 a6bc a054 093d

model.4.weight f4 [1, 128]
0.12723233 -0.024422556 -0.03508972 -0.16950184 0.21573353 -0.0072899195 -0.19226861 0.115651436
-0.15727107 0.0050019845 0.29856768 -0.1829174 0.15534003 -0.0026313232 -0.16180933 0.11153394
-0.16980089 -0.13190566 0.26286516 -0.1383683 0.22012396 0.20538475 0.30536172 0.33515254
0.31436437 0.1643794 0.3238161 -0.08296039 0.19958138 0.12907359 -0.10687367 0.26204658
0.25688 0.19773318 0.17820029 -0.09983716 0.2836716 0.25187826 -0.11612069 0.30058104
-0.094411 -0.12504995 -0.04728892 0.1892486 0.24258336 -0.15199167 -0.16152483 0.13950181
0.11820048 -0.10113632 -0.17117262 -0.12312259 -0.077392906 -0.07222745 -0.04511292 0.1383929
-0.10765787 0.14136207 0.15947671 0.18581246 -0.051606536 0.30331215 0.1998014 0.32378405
0.16456395 -0.19035223 -0.10339085 -0.16514467 -0.07732254 -0.18302904 -0.052653473 -0.16519983
0.10609404 -0.19053893 0.12039838 0.23689288 -0.18146263 0.22397456 0.17499417 0.29568794
-0.13290238 0.25929964 -0.056347284 -0.12331797 0.28943992 -0.090722226 0.24874467 0.27851987
-0.10373935 0.16145821 0.14896613 0.25153166 0.19736356 -0.14044681 0.12954283 -0.011188433
0.11748381 0.211224 -0.15519358 0.17207645 0.31567937 0.088451035 -0.027607637 0.16480018
0.13217384 -0.1382308 -0.076128766 -0.106801406 -0.113520704 0.27824625 -0.009033056 0.15594627
0.28657064 0.28610733 0.31234714 -0.09082164 0.30023813 0.009680917 0.28923777 0.12695666
0.28156966 -0.03207074 0.07817467 -0.11996661 0.12248273 -0.03473653 -0.11316281 0.074069016
00000000: 3149 023e d011 c8bc 3dba 0fbd e491 2dbe
00000010: 40e9 5c3e 47e0 eebb 10e2 44be a9da ec3d
00000020: ab0b 21be b0e7 a33b dddd 983e b34e 3bbe
00000030: 7511 1f3e 4772 2cbb 58b1 25be e86b e43d
00000040: 49e0 2dbe 4712 07be 4396 863e 6bb0 0dbe
00000050: 2d68 613e 6150 523e 5f58 9c3e 1d99 ab3e
00000060: 5ef4 a03e 1353 283e 39cb a53e 23e7 a9bd
00000070: 105f 4c3e de2b 043e 95e0 dabd f82a 863e
00000080: c685 833e 917a 4a3e 237a 363e 6d77 ccbd
00000090: 673d 913e 30f6 803e afd0 edbd c2e5 993e
000000a0: 8e5a c1bd 180d 00be 07b2 41bd 63ca 413e
000000b0: c667 783e b4a3 1bbe c466 25be 90d9 0e3e
000000c0: 1813 f23d 8f20 cfbd e047 2fbe b227 fcbd
000000d0: 2c80 9ebd fceb 93bd 53c8 38bd deb6 0d3e
000000e0: bb7b dcbd 38c1 103e dd4d 233e 9f45 3e3e
000000f0: 6061 53bd bb4b 9b3e bd98 4c3e 06c7 a53e
00000100: 7483 283e b2eb 42be 95be d3bd af1b 29be
00000110: 485b 9ebd f76b 3bbe 2bab 57bd 252a 29be
00000120: d547 d93d a31c 43be 6d93 f63d 0c94 723e
00000130: 57d1 39be 9659 653e ac31 333e 6964 973e
00000140: 9017 08be ecc2 843e 69cc 66bd 228e fcbd
00000150: 7831 943e 93cc b9bd ecb6 7e3e 289a 8e3e
00000160: 4c75 d4bd 4d55 253e 948a 183e c2c8 803e
00000170: ac19 4a3e 4ad1 0fbe e0a6 043e b04f 37bc
00000180: 5a9b f03d 1b4b 583e 11eb 1ebe cf34 303e
00000190: baa0 a13e d125 b53d 6929 e2bc 61c1 283e
000001a0: 9458 073e 608c 0dbe 66e9 9bbd b2ba dabd
000001b0: 8b7d e8bd 4b76 8e3e 62ff 13bc 61b0 1f3e
000001c0: 63b9 923e a97c 923e f7eb 9f3e b200 babd
000001d0: d0b8 993e b59c 1e3c f916 943e ed00 023e
000001e0: e629 903e 9c5c 03bd 0b1a a03d 0eb1 f5bd
000001f0: 3ad8 fa3d e447 0ebd e7c1 e7bd 7fb1 973d
