models/neural_networks/regression/2024-08-15_16-48-41/model.pt (torch, 533736 bytes, 7 tensors)

model.0.weight f4 [128, 777]
00000000: cb32 ea3d 3c57 003d d400 803c 0386 0abd
00000010: b39f a7bb 362f 87bb ead5 cf3d 1280 04bd
00000020: 3b67 803c 52b7 e23d 5ffb 183d 4945 86bd
00000030: d4ff 8b3d 3e28 8c3c bd80 2dbd bc0e d7bc
00000040: 9211 003c 482b 3f3c 81e9 853d 4094 08bb
00000050: 2097 b83c 0918 a43b bbd0 eb3c a568 be3c
00000060: b4f4 4fbd 207c 443b 1cbc d0bc a594 ad3d
00000070: 00fd c23b 0dbd 463d 9000 963c b083 db3b
00000080: 4e8a 45bc 5722 9e3d 8c63 b4bd f290 213d
00000090: 1d18 ad3d 97d9 333b cc6a 01bd 747b bdbc
000000a0: ba52 483d e49d 8abd 88e6 64bc 1426 3bbc
000000b0: 6299 163d e536 8cbd 8909 043d 76c5 873d
000000c0: 5eb7 cd3d 7e88 6dbd e16f 54bd deca 003d
000000d0: 6099 b73c a51f a4bd d1b1 b33d 1ddf b93c
000000e0: 6c98 6fbd 817d b2bd f4e4 a7bd c497 8abd
000000f0: 2c37 94bc b89d 0e3c 4eb8 96bd a38f 22bd
00000100: ddb8 6bbd c079 5ebd 83f6 5abd acf9 bebd
00000110: ca22 473d 3596 b3bd 4ac8 083d 4036 973a
00000120: 10fe e13c 80b8 5bbc b4c3 8f3d def0 55bd
00000130: 835a 9d3d dcd6 43bd b541 ca3d be9a 013d
00000140: 257b a2bd 5853 1fbc 1a76 a73d d4a4 2bbd
00000150: 3b61 1abd 4e15 d6bc 879c 8c3b b9a6 a0bd
00000160: 4546 c3bb cf97 033d 3c87 19bd 084a 6abc
00000170: 6971 c83d e33d ccbc f6af 173d c270 64bc
00000180: c901 af3d 949f 143b 1851 45bd 5017 85bb
00000190: 8359 43bc 06a7 043d 476c 99bd 18e3 10bc
000001a0: 0897 953d 488a 1abc ba38 153d d836 92bd
000001b0: ab08 1bbd 20d9 243b d1f6 e33d 4433 59bd
000001c0: 1afb 723d c1c1 963d c8d2 0fbd 00fb b93a
000001d0: 5989 7c3d 005d a3ba 4e42 dd3d 6ad4 3b3d
000001e0: adff 41bd a889 78bc 2f24 7abd 7be5 aabd
000001f0: 5779 c6bc 066e 4fbd f0af ad3c 3c83 03bd
00000200: f24d 79bd 404b 16bc 3db3 89bd adc1 27bd
00000210: 2d16 343d 049e 3c3c 3f62 393d 5066 933d
00000220: 21d5 f0ba 32df a73d b19c c2bd 8405 573c
00000230: 976c 65bd 7029 48bd 1873 4f3c ffae 993d
00000240: 94f3 043d 33be ac3d 646f 8bbd 0717 8ebc
00000250: 2264 9f3d 7b5b a03d 40f0 423b 3630 7d3d
00000260: ed02 e23c 24ec 33bd 0cfb 4c3d ebde 94bd
00000270: dd7d 24ba 1cfc ef3c 465a a83c 5a65 a63d
00000280: c007 f1ba 72e8 0a3d ca08 cc3d 5921 7c3d
00000290: 006a 2c3c 324a 8dbd ec70 35bc 5ce9 873d
000002a0: ba02 a8bd 706a e43c 2ee8 6ebd c95f 2abd
000002b0: 1e30 f13c 3ea5 38bc 21f2 bcbd 6060 dabb
000002c0: 6044 17bb 565d ea3c 45a0 97bd ffe5 183d
000002d0: c0bf b2ba 2cc9 683d 5ae4 da3d 4c69 c03c
000002e0: 33f2 2cbd c6b2 a03d 5134 e43b 6566 783d
000002f0: 461c a23b 1b2d 993d c05e 46bd 9619 f73b
00000300: a315 64bd 1a24 0c3d ccfa 0e3d a162 28bd
00000310: c115 aabd 64ec 543d f19b 8f3c 78e4 50bd
00000320: 9baf ac3d 16aa a93d 50d9 ccbb a4fb 8ebd
00000330: 6bc9 8f3d 5fe1 b4bb bb07 8fbd 3af6 cfbc
00000340: c634 333d f499 c7bc 0a8e 103d 8075 a03c
00000350: 1698 693d fe94 59bd 9e01 4b3c 19f3 a8bd
00000360: c046 8a3a 7bfe 1cbd e6a5 d13d 6758 ae3d
00000370: 9885 c93c 9ec1 8dbd 50b1 7a3c 658b babc
00000380: 53ef 533d 1623 dfbc 423f 5b3d 2ec6 223d
00000390: e519 d63c 3f18 2e3d 3343 85bd d8e3 aa3c
000003a0: 6eee 56bd cae8 8ebd 3092 f4bb 6a74 3bbd
000003b0: 0f98 e8bc a461 a93c c55f aabd dfd3 2f3d
000003c0: 41f2 9fbc 6873 a83d f827 38bd ce44 2b3d
000003d0: 3aef b33d c657 5fbd 9116 53bd 0000 b837
000003e0: b755 05bc ff14 57bd f4f1 d9bd b20c 8c3d
000003f0: e719 67bd 8b2b 8f3b c21a 87bd c4ef fb3d
0.11435469 0.031333193 0.015625395 -0.03381921 -0.005115473 -0.004125501 0.10148223 -0.0323487
0.015674224 0.11070122 0.0373491 -0.06556184 0.06835905 0.017109033 -0.042359103 -0.026252143
0.007816689 0.011668034 0.06538678 -0.0020840317 0.022533 0.005007748 0.028786054 0.023243258
-0.050770476 0.002998121 -0.025480323 0.08475617 0.00595057 0.048520137 0.018310815 0.006699048
-0.0120569 0.077213936 -0.088080496 0.03944487 0.08451865 0.0027442926 -0.03159599 -0.023130156
0.04890702 -0.067683965 -0.013970979 -0.011422653 0.03676737 -0.06846408 0.032235656 0.066294596
0.1004474 -0.057991497 -0.05186451 0.03144347 0.022412002 -0.08013848 0.0877415 0.022689397
-0.05849497 -0.08715344 -0.08197966 -0.06767228 -0.018092714 0.008704595 -0.07359372 -0.039687764
-0.057549346 -0.05431533 -0.05345775 -0.09324965 0.04861716 -0.08768884 0.033394136 0.0011536554
0.027586967 -0.013410687 0.07019749 -0.052231662 0.07683279 -0.047812328 0.09875814 0.031641714
-0.07933644 -0.009724461 0.08176823 -0.04190524 -0.037690382 -0.026133206 0.0042911205 -0.078443
-0.0059593045 0.032127198 -0.037482485 -0.014299877 0.09787256 -0.024931854 0.037033044 -0.013942899
0.08545262 0.0022678124 -0.04817304 -0.004061617 -0.011923197 0.03238585 -0.074913554 -0.008843206
0.073041975 -0.009432383 0.03643105 -0.07139367 -0.037850063 0.002515383 0.11131061 -0.053027406
0.0593215 0.073611744 -0.035113126 0.0014189184 0.061654422 -0.0012463629 0.10803662 0.04585687
-0.047362972 -0.015169539 -0.061069664 -0.08344551 -0.024227781 -0.050642036 0.021202058 -0.032107577
-0.06086535 -0.009173214 -0.0672364 -0.040956188 0.04396646 0.011512283 0.04525971 0.07197249
-0.0018374064 0.08196868 -0.09502543 0.013123874 -0.056011762 -0.048867643 0.012661718 0.07504081
0.032458857 0.08434715 -0.068083555 -0.017344965 0.07782771 0.078299485 0.002974525 0.061813556
0.027589286 -0.043926373 0.050044104 -0.07269081 -0.00062748586 0.02929502 0.020550858 0.081248
-0.001838915 0.033913083 0.09962614 0.06155524 0.010523319 -0.06898917 -0.011074286 0.06636307
-0.08203645 0.027882785 -0.058326893 -0.041595254 0.02944189 -0.011269866 -0.0922587 -0.006664321
-0.0023081526 0.02860896 -0.07403616 0.037328716 -0.0013637468 0.056832477 0.10688086 0.02348771
-0.042223167 0.07846598 0.0069642444 0.060644526 0.004947218 0.07479306 -0.048430204 0.007540892
-0.055684697 0.034214117 0.034907147 -0.041109685 -0.083049305 0.051983252 0.017530413 -0.050999135
0.084319316 0.082843944 -0.0062514916 -0.069815904 0.07020839 -0.0055200304 -0.06983896 -0.025385965
0.0437515 -0.024365403 0.03529171 0.019587278 0.057029806 -0.053120606 0.012390522 -0.08249492
0.001054965 -0.03832863 0.10236721 0.08512955 0.024599835 -0.06921695 0.015301064 -0.022771547
0.05174191 -0.02723841 0.053527124 0.03973978 0.026135394 0.04250359 -0.06506958 0.020860597
-0.052473478 -0.06977995 -0.007463716 -0.045765318 -0.02839282 0.020676441 -0.08319048 0.042926665
-0.019524695 0.08225137 -0.044959992 0.041813664 0.08785863 -0.054527067 -0.051535193 2.193451e-05
-0.008138112 -0.052510258 -0.10641852 0.06838359 -0.056421187 0.0043692044 -0.065969005 0.12301591

model.0.bias f4 [128]
00000000: 7071 fe3c d12c be3d 0d5c 7f3d 4219 6dbc
00000010: 47c8 753d 236f 8a3d 8ab4 973d ebef 793d
00000020: 6c65 863d 58b3 a33d b816 903d d450 a53d
00000030: 963b cebc 5ae2 843d 4079 913d de69 9c3d
00000040: 217a a43d 005c a53d 3600 913d 538f 8b3d
00000050: 73d7 803d 0b2f b03d 60df c03d b672 6d3d
00000060: afdb 9b3d 0b45 9a3d c801 99bc 5ce6 8c3d
00000070: 4862 bf3d d1c7 a63d 6b5a 823d 9381 983d
00000080: dd20 aa3d a3ca 9e3d 0369 b9bb 5e82 7e3d
00000090: 3a96 b33c 06a1 913d b0a3 ac3d ff25 993d
000000a0: 1143 9b3d b975 f6bc 3e4a 863d 3f1d 983d
000000b0: 158e 0d3c 7d81 a93d a040 9e3d 5cee 973d
000000c0: f5b6 943d 4678 a13d 4925 ae3d 1da1 b73d
000000d0: 5d48 e03c c57f 05bd 65c8 a93d 32b4 a43d
000000e0: 7989 9a3d e415 59bc c3cb 8d3d 3718 9d3d
000000f0: 0f69 8a3d c065 113d dd12 a23d 36db 8d3d
00000100: b379 933d 69f2 a33d 833d a13d cf67 183d
00000110: e263 a23d 8dbf a23d c313 973d e5a4 f1bc
00000120: 1b45 7f3d 28ec 953d d608 b13d 616e b43d
00000130: efe9 ba3d 6b90 933d 7f4b be3d c9d2 973d
00000140: 0a67 883c cf64 743d 1e14 973c 9965 b93d
00000150: a5a2 903d 70fd 4c3d da46 363d 0fb1 a33d
00000160: 6aa7 883d 46db 993d 375b 9f3d 4014 983d
00000170: e084 733d c8f2 ab3c 14a7 aa3d d58c 9d3d
00000180: 924f b9bc 157a bb3d 202a 803d 45bf 993d
00000190: adae a63d 3608 a23d 24d3 7f3d 3e2a a63d
000001a0: 2436 9d3d f034 b63d ec55 6e3d ebc3 a93d
000001b0: a00c 5c3d a181 9b3d 55bd 953c 1b1e ab3d
000001c0: f940 a43d 9021 9a3d 95d2 8c3d ec8a 593c
000001d0: 40d7 993d cb44 b4bc d45d 873d 5150 9b3d
000001e0: ca0f a03d 83a6 05bd 1326 a03d c3df 973d
000001f0: 6ef0 213c c591 8c3d 7001 9d3d 72e1 a73d
0.03105995 0.09285892 0.062343646 -0.014471354 0.060005452 0.06759479 0.07407482 0.06101982
0.065623134 0.079931915 0.07035583 0.08072057 -0.025174897 0.06488486 0.07103205 0.0763738
0.08031107 0.08074188 0.07080118 0.06814446 0.06291094 0.08602723 0.094176054 0.057970725
0.07610261 0.075327 -0.018677607 0.06879875 0.093449175 0.08143581 0.06364902 0.07446589
0.083070494 0.07753494 -0.0056582703 0.062136047 0.02192222 0.07110791 0.084296584 0.0747795
0.07581151 -0.030085431 0.06557129 0.07427453 0.008639832 0.08276651 0.0772717 0.0741851
0.07261459 0.078842685 0.08503205 0.08966277 0.027378256 -0.032592554 0.08290175 0.08042182
0.07545752 -0.013249848 0.0692363 0.07670634 0.067583196 0.035497427 0.07913754 0.06926577
0.07200947 0.080052204 0.078730606 0.037208375 0.079292074 0.07946692 0.07376816 -0.029497573
0.062321763 0.07320434 0.086442634 0.088101156 0.091266505 0.0720528 0.092917435 0.07413251
0.016650695 0.05966645 0.01844221 0.09052581 0.07062272 0.050046384 0.044501163 0.079927556
0.06672557 0.07512526 0.0778107 0.074257374 0.05945289 0.02098979 0.08332649 0.07692877
-0.02262095 0.09154145 0.06258035 0.07507185 0.081387855 0.07911722 0.06245722 0.08113526
0.07676342 0.08896816 0.05818741 0.082893215 0.053722978 0.07593084 0.018278757 0.083553515
0.08020205 0.07525933 0.06876103 0.01327775 0.07511759 -0.02200546 0.06609693 0.075836785
0.078155115 -0.0326295 0.07819762 0.07415726 0.009883983 0.06863741 0.0766629 0.08197297

model.2.weight f4 [128, 128]
00000000: 5354 0d3e 8874 3d3e 7bf3 833e a3de 0bbe
00000010: ed7e 793d 3e22 a63d 1f80 fb3d ffd8 1b3d
00000020: 34fc 33bd 2063 fcbd 59bb 693e be66 693e
00000030: 9900 16bd a8fb 7b3e cbd5 893e 78a2 fa3d
00000040: b4c9 5d3e 0900 aebd 7631 1d3e 25ce 9a3d
00000050: 24a1 5a3e 1140 ee3d e73f 473e bd19 fe3c
00000060: a56b 6a3e 762b c03c c534 2e3e 69a1 313e
00000070: 06d1 403e 133d e83d 5b17 753e 47a3 91bc
00000080: dec0 a5bd 90dc cc3d 5f46 a9bd 62d2 0a3e
00000090: 0bda 15be 33e3 373e 6b06 c7bd 1850 1fbd
000000a0: 7cc8 643e 233a a3bd 5c6f a7bc f39d 903e
000000b0: d394 c13d 1ac4 8f3d 1e56 823d 661f 7b3e
000000c0: 4c9d 5b3e 4532 d43d 02f6 c6bd 66c0 d63d
000000d0: 34a6 5c3e 8cb2 0ebe a37d 333e cb83 313e
000000e0: 1a7e 333e 6a11 24be 477a 8c3e 45b5 06bd
000000f0: b985 a0bc f5e4 39bd e718 9d3d 2150 8d3e
00000100: 93b5 cfbd 07c8 cebd 3065 633e 72e9 8d3e
00000110: 353d 6e3e 17e9 20be facc 163d d360 5b3e
00000120: 1448 20bd e275 eb3c f909 b6bd ab2e 5e3e
00000130: 38c6 8d3e eb4e 15be e3cd bcbd c519 943e
00000140: 207b be3d ea9a afbd 9e77 c43d 9ee4 943e
00000150: d829 7e3e 5544 0cbe 2729 043e 9c7e c7bc
00000160: 69da 373d a7db aabc 271e ae3d f454 17be
00000170: 2144 383d 2c7a babd 7894 23bd e1a3 063d
00000180: 0dac a13b ef5d fc3d 0c2d e1bd 79f7 fdbd
00000190: 663e fb3d e8b7 c73d 53f4 0a3e 35b8 643e
000001a0: 24c4 623e a2b0 9b3b 7909 06be 587f 033e
000001b0: 3341 303e fa87 4b3e 1e4c a83d 4bf9 4b3e
000001c0: 30ab 253e 89f0 553e 0905 1dbd 464b 4bbb
000001d0: 8275 19be ce14 56bc 5630 1f3e de75 fa3d
000001e0: aba6 e33d 921a ca3d f20b 083e 6379 103e
000001f0: e83c a5bd 3785 7f3d f15e 963e d35e 5a3e
00000200: 7240 643e 4312 7e3d 7015 d73d 7784 5bbd
00000210: 61bd 423e 7386 633e eb25 b83d 1930 bd3a
00000220: 201f 7c3e 732f 883e df1e acbd 0d7a 553e
00000230: 10cf 12be 40bb 14be 6d02 443e ab57 ef3d
00000240: b794 e83d e3f4 893e 31ca 633e ba40 5f3e
00000250: ace3 e6bd 4281 843d dcf0 6c3e 812d b93d
00000260: dde0 413e 02b6 843e 742b 83bd 1270 d73d
00000270: 80f4 a7bd 3013 38bc ae34 75bd 1c01 263e
00000280: 05f2 dc3d 679b 513e 2761 533c e979 de3d
00000290: db49 f1bd 11aa 423e 484e 8b3d 25b2 2f3e
000002a0: 9620 713e 6df0 9f3d 6eaa 703e e6fa 363e
000002b0: a7b4 8fbd d7d6 8c3e 88a0 e4bb e3a7 fa3d
000002c0: b3e5 aebc 5f2b 9a3b 3e01 da3c 54d7 a6bd
000002d0: c5af 533e 7a61 3c3e 5ff7 3c3e 872a 68bd
000002e0: ef57 d33d e09e 143e 957b 243e 93eb 8a3e
000002f0: a9fd 65bd 5f72 bcbd cd19 36bd 2087 9d3d
00000300: 5c1d 203e 0de7 b0bc 6477 5e3e db0f 953d
00000310: 9f73 593e db40 653e d53e 6bbd f110 af3d
00000320: 98dc f0bd 21a1 c53d b312 e6bd efdc bcbd
00000330: 89ca dd3d e02b aabd 3a3c 0bbe fa54 913b
00000340: 531b 02be f7e0 08be d148 8b3b f049 5d3e
00000350: 7cef 10be c665 163e 1657 70bd 6177 553d
00000360: 970b 3c3e 2363 453e c0e1 95bd c215 423e
00000370: 8019 4bbd ee57 fabd ff90 093e 73b6 8b3d
00000380: 45f8 603d 2856 16be af56 e03d 1279 303e
00000390: 147a c6bc 5436 543e 2ecc febd 2826 8b3d
000003a0: 59bd d5bd 0fbc 103e ac8e 15be 5e54 503e
000003b0: f15f 4bbd 8af5 363e 413f 0cbe ab69 783e
000003c0: ae6b 833e 2e23 0cbd 90b5 2abc cd0e 02bd
000003d0: e075 7cbd 7382 1d3e 876d a7bc 9ab8 87bd
000003e0: 952e 4d3e 4217 be3d 82fa be3d c773 613e
000003f0: 0c90 7d3e 3f5c e53c 19b6 533e 7c4b a6bd
0.13801698 0.18501484 0.25771698 -0.13659148 0.06091206 0.08112 0.122802965 0.03804874
-0.04394169 -0.12323594 0.22825374 0.227931 -0.036621664 0.24607718 0.26920924 0.1223802
0.21658975 -0.084961005 0.15350899 0.0755885 0.21350533 0.116333134 0.1945797 0.031018132
0.22892626 0.023458224 0.17012317 0.1734673 0.18829736 0.11339774 0.2393469 -0.017778052
-0.08093427 0.100030065 -0.08265375 0.13556817 -0.14633958 0.17957763 -0.09718021 -0.038894743
0.22342104 -0.07970073 -0.020438842 0.28245506 0.09452214 0.07019825 0.06364082 0.24523696
0.21446723 0.10361151 -0.09714891 0.10485916 0.21547776 -0.13935298 0.17528395 0.17335431
0.17528573 -0.16022268 0.2743704 -0.032887716 -0.019595014 -0.045384366 0.07670765 0.27600196
-0.101420544 -0.10096746 0.22206569 0.27717167 0.23265536 -0.15713917 0.036816575 0.21423654
-0.03913124 0.028742734 -0.08888621 0.2169749 0.2769029 -0.14580886 -0.09218957 0.2892591
0.09300828 -0.085744694 0.09593128 0.2908067 0.2482065 -0.13697942 0.12906323 -0.024352364
0.044886027 -0.020856692 0.08501845 -0.14778501 0.044986848 -0.09105334 -0.039936513 0.03287113
0.00493384 0.12322604 -0.1099492 -0.12400717 0.12267761 0.09751874 0.13569765 0.22335894
0.22145134 0.004751281 -0.13089551 0.12841547 0.17212372 0.1987609 0.08217643 0.19919316
0.16178584 0.20892538 -0.03833488 -0.0031020208 -0.14986232 -0.013066484 0.15545782 0.12229513
0.11115774 0.09868349 0.13285807 0.14108805 -0.080682576 0.062382903 0.2936931 0.21325235
0.22290209 0.062029134 0.10502136 -0.053593125 0.19017555 0.22219257 0.08991607 0.001443389
0.24621248 0.265987 -0.08404326 0.2084734 -0.143368 -0.14524555 0.1914155 0.11686643
0.1135649 0.26944646 0.22245099 0.21802035 -0.11273894 0.064699665 0.23138756 0.09041882
0.18933435 0.2592011 -0.064047724 0.105194226 -0.082009315 -0.011235043 -0.059864692 0.1621136
0.10788349 0.20469438 0.012901581 0.10863096 -0.11781665 0.19010188 0.0680204 0.171578
0.23547587 0.078095295 0.23502514 0.17869148 -0.070168786 0.2750766 -0.0069771446 0.12239053
-0.021349763 0.0047048773 0.02661192 -0.08146539 0.2067252 0.1839656 0.1845374 -0.056681182
0.103195064 0.14513731 0.16062768 0.27132854 -0.056150112 -0.09201502 -0.0444582 0.07691789
0.156362 -0.021594549 0.21725231 0.07278415 0.21235512 0.22388022 -0.05743297 0.08548153
-0.11760825 0.096498735 -0.11234035 -0.09221827 0.10829646 -0.0830915 -0.13597193 0.004435179
-0.12705736 -0.13367067 0.0042506238 0.21610236 -0.14153856 0.14687261 -0.0586768 0.0521158
0.18363796 0.19276099 -0.07318449 0.18953612 -0.049584866 -0.122238025 0.13434218 0.06821909
0.05492427 -0.14681304 0.109540336 0.17233685 -0.024228133 0.2072385 -0.12441288 0.06794387
-0.10436506 0.14134239 -0.14605206 0.20344684 -0.049652044 0.17867103 -0.13696004 0.24259059
0.2566809 -0.034213237 -0.010419264 -0.031752396 -0.06163585 0.15381794 -0.020437969 -0.06627007
0.20037301 0.0928178 0.09325124 0.22016822 0.24761981 0.027998088 0.20674933 -0.08119866

model.2.bias f4 [128]
00000000: d63f 883d d73e 5b3d 717d 24bc e7d7 8e3d
00000010: 1ab7 d1bc 04b1 853d 0a85 83bc 6b05 ea39
00000020: a90e 86bc ec9f 913d 8f19 8a3d 506f 963d
00000030: eb51 883d 2af4 8fbc 6dc4 713d 99da 7fbc
00000040: a2a5 fcbb 3e25 903d a9b8 573d c09d 8b3d
00000050: 4d82 783d 1b99 143d 95e0 4c3d 325d 88bc
00000060: d478 3b3d be67 883d 58b0 543d e8be 553d
00000070: 18c0 94bc 9ff8 9dbc 4f01 483d 5413 863d
00000080: ce35 6a3d 19b9 033d 10ef 71bc f2d8 523d
00000090: 7aee 853d e27d 8f3d f91f 833d 8ae0 6d3d
000000a0: b951 7b3d e43b a2bc ccce 863d 2653 7c3d
000000b0: 1496 583d 96f6 703d fb11 12bc 143a 933d
000000c0: ce4d 6d3d d2d3 863d 9fc9 323d 4fa9 6e3d
000000d0: 1ea5 593d 35d6 553d b000 723d d325 953d
000000e0: 1fc1 3f3d 7013 763d 24f4 543d d3de 6abc
000000f0: 8152 433d e651 453d 1fe2 633d ae49 693d
00000100: 54cf 5e3d 0974 86bb ca75 3c3d a1ae 5c3d
00000110: e4a8 573d 59d4 793d 2d52 98bc 0226 6d3d
00000120: b64d 583d 3412 7a3d 5592 553d 6ecc 82bc
00000130: b6da 5d3d 6926 c2bc 443a 94bc f105 503d
00000140: d365 543d e43e 803d 9840 813d 1873 efbc
00000150: d40a 5c3d 4f12 7abc c4e2 5f3d 3f24 5f3d
00000160: 9a1f 683d e902 483d ae32 6d3d 297b 98bc
00000170: 20da 5e3d 8008 aabc 2530 553d 1c73 94bc
00000180: a954 50bc 67ee 6dbc 0f4b 4b3d 91c0 913d
00000190: 9527 6a3d dbf2 9cbc 3c2c 4f3d 8093 9abc
000001a0: 82b2 8fbc 7993 c73c 14e6 9a3d fe9f 943c
000001b0: 1a0e 503d 3891 703d 197e 5b3d 74f4 7b3d
000001c0: 3d86 d4bc 0cdf e83c 0b45 183d b320 2a3c
000001d0: 046d 7f3d 1d09 353d 21be b13d 98cc a33b
000001e0: cbfb aebc df1a 98bc f9ef 833d 16fd 7a3d
000001f0: 37cc 9f3d c23c 2b3d 207e 4e3d dc32 5a3d
0.06652801 0.053526726 -0.010039673 0.06974774 -0.025600005 0.06527904 -0.016054649 0.00044635995
-0.016364412 0.07110581 0.06743156 0.0734545 0.066562496 -0.017572481 0.059025217 -0.015616083
-0.0077101747 0.070383534 0.05266634 0.06817198 0.06067114 0.036278825 0.050018866 -0.016646001
0.045769528 0.06660412 0.051925987 0.052184016 -0.018158004 -0.01928359 0.048829373 0.06546655
0.05718022 0.032158945 -0.01476647 0.051476426 0.065396264 0.07006432 0.06402583 0.058075465
0.061357234 -0.019803949 0.06582412 0.061602734 0.0528775 0.058828913 -0.00891542 0.07188812
0.05793553 0.0658337 0.043649312 0.058266934 0.053135984 0.052206237 0.059082687 0.07282605
0.046815034 0.06007713 0.051990643 -0.014335352 0.047686104 0.048173808 0.055635568 0.056955032
0.054396942 -0.004103188 0.04601077 0.053877477 0.0526513 0.060993526 -0.018593872 0.057897575
0.052808486 0.061052516 0.052141506 -0.01596662 0.054163657 -0.023699956 -0.01809419 0.050786916
0.05185492 0.062619954 0.063111484 -0.029229686 0.053721264 -0.015263154 0.05465962 0.054477926
0.056670763 0.0488309 0.05790966 -0.018613415 0.05440724 -0.020756006 0.052047867 -0.018121295
-0.012715497 -0.014522172 0.04963213 0.07116807 0.057166655 -0.019158771 0.050579295 -0.018869162
-0.017541174 0.024362313 0.07563415 0.018142696 0.0507947 0.05873224 0.053587053 0.061512426
-0.025942916 0.02842667 0.03717522 0.010383773 0.062359825 0.044198144 0.08678842 0.0049987547
-0.021360299 -0.0185675 0.064422555 0.061276518 0.07802623 0.04180599 0.05041325 0.05327116

model.4.weight f4 [128, 128]
00000000: 6958 64be a72e 2f3e bc09 8bbd 8f6a 163e
00000010: 5ad9 38be 8c52 9cbd 321d 493e 666e a43d
00000020: 372f 09be 7de8 b3bd eb3a 14bd cc6e 89bd
00000030: cf38 123e b0f9 9cbd d4eb 55be f26d ad3c
00000040: 5f57 173e 6ace 4b3e 9436 1f3c 0fd8 fb3c
00000050: 82b4 6d3d c4a7 38bd a363 01be 1e75 283e
00000060: ca4b 353c 1751 7e3a c16c 293d 749f 0f3c
00000070: 1a42 00bc 6ef7 48be d88b e0bd 093c 003e
00000080: 06d5 b33c b0eb 2abd 00c6 33bd 4d2c 12be
00000090: cd9f 1d3e 6704 513e 6888 aebc ad48 28be
000000a0: 04ab f0bd 812b ae3d 9911 4abe a2ec 333e
000000b0: d5a1 c83b 772f 25be 75f3 51be 8c70 4bbe
000000c0: 733e 173e 297e 77bc 6d80 3b3e 1801 923d
000000d0: 577e 42be ecc0 27bd c0d8 05bd 8d15 e83d
000000e0: 28c3 363d d902 20bc 2fd0 73bd e0e3 0f3c
000000f0: b10e d63d 9a88 3bbe d42e 453c c45c c6bd
00000100: e49f 0e3e ca09 093c 194c 58bd 102c 34be
00000110: eac3 c1bc 5a0f bebd 520c 5dbe 37a2 4ebe
00000120: 486d b53c b3e8 3a3d d8e0 30be b8c3 febc
00000130: e6fb 3bbe 8460 d33d 939f 3e3e 6648 173d
00000140: 92c1 41bb add7 b93d 8a5c 0b3e d121 e03c
00000150: 381e 2d3e 44cf d2bc a94f 20be b02b be3d
00000160: 2b04 223e e037 42be d8b9 babc eeda 33be
00000170: 0351 fbbd 40c6 2bbe 8565 b6bc f0df 38bc
00000180: 351e c8bd c0eb 2ebe eac3 52be e35c df3c
00000190: 7bd9 0c3e 6c8a 263e f3f1 1d3e f68b 783c
000001a0: eb19 a7bd 15ad 2bbe 1e5e 2e3d 5b44 023e
000001b0: e58b 913d e477 f83c ed28 3ebe abee 32be
000001c0: 9fac 31be fbce 14be c945 40be 205d 5cbe
000001d0: 51ac 023e 552c c53c dae4 54be a167 253e
000001e0: c815 2cbe 00cf 03be 812b 58be 504d cfbd
000001f0: ef8d 503e 48c5 05be 677f 763d ab26 583d
00000200: 4940 70bd cffc 70be 8c45 3bbe 22ea 993d
00000210: 2b53 53bd bad7 943d d5c2 9a3d 1f96 193e
00000220: 8a52 313e 84ac c33d f437 163e 0cd7 f33d
00000230: b118 463d b3dd 22be b4a7 123e f785 64be
00000240: c128 2b3e df70 f4bb dd7b 823d b0b0 35bd
00000250: 067b 1dbe f737 5ebe 68fc a63c be38 163e
00000260: da99 0d3d d570 2cbe c16b 0cbd ca25 a2bb
00000270: ad99 373e c8c8 203c 2266 643d 6904 bdbd
00000280: 1b6e f1bd 8484 9abd 5092 17be cda9 6fbe
00000290: aae6 503d 3ce5 c23d be39 473d 5e8d ec3c
000002a0: d34d 6bbe 958d 21be adb3 69be ad17 273e
000002b0: 3c6a 1abe 1a8d f53d d04d 1ebe 0e6b b63a
000002c0: 861b 05bd 9b6e 37bd bfa2 e0bd cd15 743d
000002d0: 2637 5ebe 2ddc 52be 9c1b ac3d 31bb 393e
000002e0: f8e1 38be 8ea0 d2bd b7fb a5bd fde0 463e
000002f0: c226 0a3e 5cf4 0b3e f5ce 173e 21ec 883d
00000300: 0310 3f3e a523 263e 8e3d a3bd 6e3a 5e3d
00000310: 5dc8 40be 12a6 1abe d3ad debd 7e3c 743d
00000320: 7439 0e3e b2c6 d2bd 6317 ce3c 00fd 443e
00000330: ccb7 06be ed08 723d 2d59 3c3e 61a8 60be
00000340: 3b51 91bd 38ca 4e3c 530a 86bd b09d 2b3d
00000350: fd0e fb3d a216 4bbe eef9 6fbd 7d3f fa3d
00000360: 97c9 a4bd 88c1 12be f661 f83d aa8e ac3d
00000370: 4738 aa3d f4f1 463e c3e7 f43d 6c11 a23d
00000380: d122 d1b7 76c6 15be 5ff0 fb3d 18c8 263e
00000390: 7f58 87bd df86 48be 3706 1e3e de40 9c3d
000003a0: 67cc 58be f8f9 26be 175f ec3d d5e4 d33d
000003b0: c6cf e93d b510 093d 45fa 3f3e 750b 26be
000003c0: fc84 003e e7b5 ba3d 0057 2a3e 2efe 603d
000003d0: 4cef d3bd d562 adbb 4fec 6cbc 24f9 003e
000003e0: 4a98 3a3e 57c8 913d bf99 a23d 5c4a 67be
000003f0: b82e ffbd ff7d adbd 6dee c13d c99c b4bd
-0.22299351 0.1710764 -0.06788966 0.14689086 -0.18051663 -0.07632932 0.19640043 0.08028869
-0.13396917 -0.08784578 -0.036189 -0.06710586 0.14279483 -0.076648116 -0.20890743 0.02117059
0.14779423 0.1990296 0.009717602 0.030742673 0.058033474 -0.04508187 -0.12635665 0.16450927
0.011065433 0.00097014144 0.04136348 0.008766044 -0.00782826 -0.19625637 -0.10964173 0.12522902
0.021952163 -0.041728675 -0.04389 -0.14274712 0.1539299 0.20411836 -0.021305278 -0.16433974
-0.11751369 0.085043915 -0.19733275 0.17570737 0.0061228075 -0.16131388 -0.20503028 -0.19867152
0.14769916 -0.0151057625 0.1831071 0.07129115 -0.18993507 -0.04095547 -0.032677412 0.113322355
0.04461971 -0.009766304 -0.05952471 0.008782357 0.10452021 -0.18313828 0.0120350905 -0.096856624
0.13928181 0.00836415 -0.052806947 -0.17594934 -0.02365299 -0.09280272 -0.21586731 -0.20179068
0.022146836 0.045632076 -0.17273271 -0.031099185 -0.1835781 0.10321143 0.1861556 0.03693428
-0.002956484 0.0907434 0.1360952 0.027359875 0.16906059 -0.025733598 -0.15655388 0.092856765
0.15821902 -0.18966627 -0.022793695 -0.17563984 -0.12271311 -0.16774845 -0.022265205 -0.01128386
-0.097713865 -0.17082119 -0.20582548 0.027265972 0.13754837 0.16263741 0.15424328 0.015170088
-0.0815924 -0.16765244 0.042570226 0.12721388 0.07106761 0.030330606 -0.185703 -0.17473857
-0.17351006 -0.14532082 -0.18776621 -0.215199 0.12761046 0.02406899 -0.20790425 0.16152813
-0.16805184 -0.12871933 -0.21110345 -0.10122168 0.20366643 -0.13063538 0.060180094 0.05277125
-0.058655057 -0.23533939 -0.18288249 0.075153604 -0.051592987 0.07267709 0.075566925 0.14998673
0.17316642 0.09554389 0.14669782 0.11906251 0.04836339 -0.15904884 0.14321786 -0.22316729
0.16714765 -0.0074597443 0.06371281 -0.044357955 -0.15378961 -0.21701036 0.020384029 0.14670083
0.034570552 -0.16839917 -0.03428245 -0.0049483525 0.17929716 0.009813495 0.055761464 -0.09229357
-0.11788579 -0.075448066 -0.14801908 -0.23404618 0.05100123 0.09516379 0.04863905 0.028876003
-0.22978906 -0.15776666 -0.22822447 0.16317625 -0.15079588 0.119898036 -0.1545937 0.0013917403
-0.03249695 -0.044783216 -0.10968541 0.059591103 -0.21700725 -0.20591803 0.084037036 0.18137814
-0.1805495 -0.102845296 -0.081046514 0.19421764 0.13491347 0.13667434 0.14825042 0.06685663
0.18658452 0.16224535 -0.07970725 0.05425494 -0.18826433 -0.15102413 -0.10872998 0.059628002
0.13889104 -0.102918044 0.025157636 0.19237137 -0.1315605 0.059090544 0.18393393 -0.21939231
-0.070955716 0.012621455 -0.06544938 0.04189843 0.12258718 -0.19832852 -0.05858796 0.12219141
-0.08046263 -0.14331639 0.121280596 0.084256485 0.08311515 0.19428235 0.119582675 0.07913479
-2.4930954e-05 -0.14626488 0.123017065 0.16287267 -0.06608676 -0.19582699 0.15432058 0.0762956
-0.21171723 -0.16306293 0.115415744 0.103463806 0.11416583 0.0334632 0.18747814 -0.16215308
0.1255073 0.09116726 0.1663475 0.054929905 -0.10348377 -0.0052913227 -0.014460637 0.1259504
0.18222156 0.0711829 0.07939481 -0.2258696 -0.12460083 -0.084712975 0.09469304 -0.08818967

model.4.bias f4 [128]
00000000: ed81 26bc d85d bbbc aca9 85bc 9e0b aebc
00000010: 746a 7d3d 1992 95bc 747a 5c3d 1eb5 90bc
00000020: cec3 193d f9f4 443d 4e59 383d db19 96bc
00000030: 6fe4 1ebc 9caf 10bc f04b afbc 53a0 a1bc
00000040: 5d6e 4a3d ced4 93bc 1add 3b3d c107 403d
00000050: d025 173d 5dc7 cdbc 8153 43bc 3cfa 123d
00000060: a8a0 983d 5b54 97bc de6f 74bc e515 183d
00000070: adc1 1a3d 55fb 9bbc 0479 173d 77b0 533d
00000080: e965 7ebc a24f 2d3d 6316 82bc 8435 94bc
00000090: b25a 9bbc d2cf 4dbc 2394 1b3d 2e1d 123d
000000a0: b4fa 213d 529f 43bc ef9a 1c3d d83e 4e3d
000000b0: 446e 8fbc 7fcc 113c a7e1 51bc b40b f5bb
000000c0: c572 133d 4b5a 383d 9096 853d 437a 91bc
000000d0: b6a2 133d e4a1 893d 7d45 8d3d 068d 153d
000000e0: 92f4 493d 1fea a4bc 5701 773d f38b 86bc
000000f0: 468c b3bc 53f4 60bc 8175 96bc a749 90bc
00000100: aa68 5abc 339b 543d 58d9 40bc 9d5d 2e3d
00000110: bfd8 29bc 92f6 333d 8856 61bc 2d6f 99bc
00000120: fb14 31bc aad1 713d 621c 84bc bf62 7cbc
00000130: 6e6c 1b3d 242b 333d fe7b 73bc 3686 243d
00000140: ef26 67bc 9918 7b3d ea79 5c3d 3304 623d
00000150: 66dd 383d 9c46 89bc c1e0 4e3d 5517 b1bc
00000160: 1688 333d 341a 643d ef3a 173d fc0d c0bc
00000170: debe 333d 5d58 183d ea72 1c3d 1821 a2bc
00000180: 76de b1bc de7e cabc 2714 b1bc e17e 84bc
00000190: 5e33 1d3d e14c 4fbc 0932 163d 054b 1d3d
000001a0: f5f7 73bc 2caa 96bc 90f7 2e3d 1fc3 7ebc
000001b0: 29ec 6dbc c05b 453d 2163 343d 02ca 153d
000001c0: fe5f 133d a916 4d3d c7b8 833d 6387 69bc
000001d0: 5798 74bc 6b8c 553d b322 2d3d 0ac9 52bc
000001e0: 053a 913d c913 adbc 5e85 9cbc b647 703d
000001f0: a3e3 4ebc 98ae 403d f74c 233d a616 80bc
-0.010162813 -0.022871897 -0.016316257 -0.021245774 0.0618691 -0.018258141 0.053827718 -0.017664488
0.03754025 0.048085187 0.045007043 -0.018322876 -0.0096980175 -0.008830931 -0.021398515 -0.019729769
0.049421657 -0.01804581 0.045865156 0.046882395 0.036901295 -0.025119478 -0.011921764 0.035883173
0.07452518 -0.018472841 -0.014919249 0.037130255 0.03778236 -0.019040743 0.036980644 0.051681962
-0.015527227 0.042312272 -0.015879815 -0.018091924 -0.018964145 -0.012561755 0.03798307 0.03567236
0.03954573 -0.01193984 0.038233694 0.0503529 -0.017508633 0.008898853 -0.012810147 -0.0074782018
0.035998125 0.045007985 0.06522858 -0.017758494 0.036043845 0.06720331 0.068980195 0.036511444
0.049305506 -0.020131169 0.060304012 -0.016424155 -0.021917474 -0.013730126 -0.018366577 -0.017613245
-0.013330618 0.051905822 -0.011770569 0.042569745 -0.010366618 0.04393632 -0.013753541 -0.01872977
-0.010808225 0.05903784 -0.016126815 -0.015404402 0.037945203 0.043742314 -0.014861105 0.040167056
-0.014108404 0.061302755 0.053827204 0.055179786 0.045133017 -0.016757302 0.05050731 -0.02161757
0.043830954 0.05568905 0.036921438 -0.023444168 0.043883197 0.037193645 0.038195528 -0.019791171
-0.021712523 -0.024718698 -0.021616055 -0.016173782 0.038379066 -0.012652607 0.03666881 0.038401622
-0.0148906605 -0.018391691 0.042716563 -0.01554945 -0.014521637 0.048183203 0.04403985 0.036569603
0.035980217 0.05007044 0.06431728 -0.01425347 -0.014928899 0.052135866 0.04226942 -0.012865314
0.070911445 -0.021127598 -0.019106563 0.05866214 -0.012627515 0.047041506 0.03986832 -0.0156358

model.6.weight f4 [1, 128]
00000000: 0993 49be 0434 12be e3dd 2ebe d5af 013c
00000010: 0685 313e 612b c3bc ff17 3d3e 2731 3fbd
00000020: 3223 753e 2589 923e 57c0 243e 6c04 11be
00000030: 37f2 13be c830 0fbe 256e 5ebc bb74 4cbc
00000040: 4e5c 373e 4ef4 5dbc b7c2 df3d 946e bd3d
00000050: a3e4 593e ee2f a5bc fee9 5fbb 8d2f 623e
00000060: 4106 ed3d f1d7 25be 45dd 4ebe df18 573e
00000070: a0e5 6f3e 668c 93bd f290 243e 6931 c63d
00000080: aca8 e4bd 8892 5b3e 1d18 48bd 0b4e 30be
00000090: 59ae abbd 75fd 8fbd 2034 6d3e 237b 963e
000000a0: 7f6a 5c3e d82f bdbd 0a29 843e d35c ec3d
000000b0: 9a9a 22bd 39e4 063e bbaa f2bd 547b 89bd
000000c0: 12d8 6c3e c871 763e 39a9 ca3d 943f bdbd
000000d0: cdb0 803e 20af 3f3e 184c 863e 89ab 863e
000000e0: 90db 373e 3f56 7cbd 69da b63d 51a7 d2bc
000000f0: e65d 0abe 37ea c6bd 148b 00be 4712 9dbd
00000100: e374 6fbd 0d0e cc3d 705f 2fbe d18e f23d
00000110: c093 6fbd 31ee 8b3e 71ad 13be 8229 44bc
00000120: cf46 03bd ca21 0f3e 14a5 01bd 6f95 dfbd
00000130: bc7e 3e3e 10c5 1a3e 92f0 b6bc 55ec 743e
00000140: 87e3 0a3b 1f3c 0e3e bf09 763e 9eb0 2a3e
00000150: 2a42 043e 9ae0 21be f1eb 553e d624 5cbd
00000160: 66a7 633e 4dda 283e ff19 5a3e 01df 82bd
00000170: 3767 103e 64ee 8a3e 266a 743e 97d5 01be
00000180: f297 23bb f751 c1bd 9901 a0bd b422 bbbb
00000190: bfc7 883d 5257 17be 901d 433e 99fa 8f3e
000001a0: b1ea 2cbd 53f3 b9bc dc11 6f3e 1249 bfbd
000001b0: 663d 87bb 6693 313e 3372 3a3e f2a9 543e
000001c0: 2472 903e 6d98 283e 4565 093e 7548 a3bd
000001d0: a59a 4fbd 69f1 a63d 32b6 8c3e ecba e4bd
000001e0: 8bae b63d 85a9 62bd cba3 d2bd b57e 063e
000001f0: 08c4 38be 79c0 343e faa9 553e 1363 c6bd
-0.19684996 -0.14277655 -0.1707683 0.007915457 0.173359 -0.023824396 0.18466185 -0.046677735
0.23939207 0.28620258 0.16088997 -0.14161843 -0.14447866 -0.13983452 -0.013576065 -0.012479003
0.17906305 -0.013547016 0.10925811 0.09249607 0.21278624 -0.020164456 -0.003416657 0.22088452
0.115734585 -0.16195656 -0.20201595 0.21005581 0.23427439 -0.07204513 0.16070917 0.09677393
-0.11164984 0.21442616 -0.04885112 -0.17217271 -0.083828636 -0.07030765 0.23164415 0.2939082
0.21525 -0.09237641 0.2581256 0.11541142 -0.03969822 0.13172998 -0.118489705 -0.06712976
0.231293 0.24066842 0.09895558 -0.09240642 0.25134888 0.18719149 0.2622993 0.26302746
0.1795485 -0.06160569 0.08928377 -0.025714548 -0.13512382 -0.09712642 -0.12553054 -0.07669502
-0.05846108 0.099636175 -0.1712625 0.11843646 -0.058490515 0.27330163 -0.14421631 -0.011972787
-0.03204995 0.13977733 -0.03165157 -0.10917174 0.18603033 0.15114236 -0.02233151 0.23918279
0.0021192746 0.13890122 0.24027155 0.16668937 0.12915865 -0.15808335 0.20890786 -0.053746067
0.22231826 0.16489525 0.21298979 -0.06390191 0.14101873 0.27135003 0.23868617 -0.12679134
-0.0024962393 -0.09439462 -0.07812805 -0.005710924 0.066787235 -0.14779404 0.19054246 0.28120878
-0.042216007 -0.022699034 0.23346657 -0.09340109 -0.0041271923 0.17341384 0.18207626 0.20767954
0.28212082 0.16464396 0.13417538 -0.079728045 -0.05068459 0.08151514 0.27482754 -0.11168465
0.0892001 -0.055337448 -0.10285147 0.13134272 -0.1804353 0.17651547 0.20865622 -0.09686866
